saved_models/gear_unconstrained_5.pt (torch_old, 954435 bytes, 28 tensors)

conv1.weight f4 [32, 3, 4, 4]
-0.26879492 -0.29921234 0.19532603 0.44053715 0.47102976 0.32171738 -0.32218766 0.04023049
-0.10342273 -0.70171815 -0.60142696 0.07655343 0.08966759 -0.35641894 -0.032299664 -0.536308
-0.11702529 -0.10168265 0.20515403 -0.072778255 0.58045113 0.5977049 0.2975993 -0.2944017
0.20597583 -0.47018173 -0.080779366 0.5467216 0.027790945 -0.080720246 0.31179145 0.14200012
-0.55645025 -0.08339454 -0.30789003 -0.104554415 0.042181477 0.48175973 0.4064906 -0.41129008
-0.08741939 -0.53269124 0.011210144 0.392935 0.39386556 -0.10365153 0.564053 -0.22649653
0.24888988 0.22683844 -0.088678576 -0.20697449 0.56237763 0.068274915 0.331314 0.039839663
0.095513 0.71368647 0.6936962 -0.3594479 0.28510153 0.36347732 0.15605165 0.120780095
-0.038324963 0.021536129 -0.24696532 -0.33473152 0.19024083 -0.5895424 0.38333738 -0.15484674
-0.2910217 0.23174347 0.65118563 -0.25569978 -0.07924692 0.1675623 0.19141774 0.1375233
0.3595109 0.39617592 0.3450841 0.19229606 0.102636196 -0.19635618 0.46743163 0.18301137
0.15046275 0.3124652 0.29390946 -0.10031803 0.08569069 -0.04601177 0.08324268 0.25143608
0.38174978 -0.25063866 0.40969154 0.36094648 -0.008691927 -0.32012376 0.042432975 0.19080307
0.143669 0.19135353 0.13141552 0.10872493 0.030551339 -0.21947022 -0.63832015 -0.099617414
0.3908153 -0.1404054 0.21472034 0.24480575 -0.29005677 -0.09449866 -0.2563863 0.108637094
-0.047939613 0.3629405 -0.21022895 -0.022190358 0.21161087 -0.46767974 -0.7178808 0.014917275
0.17676531 0.39029646 0.5208349 0.6565312 -0.27123907 0.4965524 0.02723802 0.37706622
-0.23880522 0.106848024 -0.1090547 0.026159216 0.07449195 -0.60602015 -0.6750965 -0.18591148
0.15903676 0.41307655 0.26640296 -0.17751598 -0.04193593 0.018095804 0.36239472 -0.3710586
-0.0827547 -0.26983175 -0.18375026 0.22188446 0.26812008 -0.0064684553 -0.045456786 0.47616747
-0.23702131 -0.06453773 -0.48102137 -0.6438217 -0.21763389 -0.20626341 0.16217008 -0.5721043
-0.06097689 -0.049758136 0.10416335 0.3041853 0.29747757 0.29881886 -0.042174418 0.49180987
-0.33053255 -0.41772455 -0.16099747 -0.2715258 -0.5010481 -0.26546386 -0.18231787 -0.4732493
-0.10606374 -0.6143736 -0.2505781 0.5739802 -0.5408761 -0.5807202 0.03716454 0.5772346
0.3313429 -0.024013538 -0.040573735 -0.0014176051 0.088059515 0.10577393 -0.53359383 0.49854523
0.41105902 -0.21315052 0.47948968 -0.04573632 0.009408246 -0.07287283 -0.22101359 -0.5842638
0.57187104 -0.1768212 0.42178595 -0.22344063 -0.15668365 -0.13748254 -0.19559158 0.6770232
0.17459318 0.09841865 0.77948475 0.23269546 -0.32527816 0.19404864 -0.16238745 0.068539865
0.055574555 -0.050087288 -0.094055414 -0.51623005 -0.19589841 0.18951324 -0.434992 0.3135807
0.039271474 0.022209642 0.3088086 -0.0027140507 0.13240525 0.28311673 -0.15125187 0.038069557
0.03927427 -0.25476915 -0.020178195 -0.1585136 0.20539548 0.25206006 -0.1129672 0.22490273
-0.45650887 -0.21255998 0.57055223 -0.066431165 0.14064857 0.022043945 0.51400346 0.16380548
00000000: 7d9f 89be 5c32 99be 8c03 483e 168e e13e
00000010: d02a f13e 24b8 a43e c8f5 a4be bac8 243d
00000020: 4ccf d3bd cda3 33bf 1ef7 19bf 0bc8 9c3d
00000030: a4a3 b73d 8b7c b6be a74c 04bd 7b4b 09bf
00000040: f5aa efbd fe3e d0bd e613 523e c40c 95bd
00000050: 7298 143f 3003 193f ef5e 983e d2bb 96be
00000060: 54eb 523e a9bb f0be a76f a5bd f2f5 0b3f
00000070: d6a9 e33c a850 a5bd 21a3 9f3e 7b68 113e
00000080: 8673 0ebf c2ca aabd c3a3 9dbe a020 d6bd
00000090: 7cc6 2c3d 36a9 f63e 891f d03e 9d94 d2be
000000a0: f008 b3bd 745e 08bf c0aa 373c c72e c93e
000000b0: bfa8 c93e 4147 d4bd c765 103f b5ee 67be
000000c0: fddc 7e3e 5648 683e 1d9d b5bd 1ff1 53be
000000d0: fbf7 0f3f b8d3 8b3d fda1 a93e ea2e 233d
000000e0: 529c c33d 28b4 363f 1396 313f 8e09 b8be
000000f0: d4f8 913e b319 ba3e 01cc 1f3e 8e5b f73d
00000100: a3fa 1cbd 896c b03c 7ae4 7cbe ee61 abbe
00000110: 7ece 423e 40ec 16bf cc44 c43e 2590 1ebe
00000120: cc00 95be 294e 6d3e 1ab4 263f 15eb 82be
00000130: 364c a2bd 7495 2b3e 0303 443e e8d2 0c3e
00000140: d011 b83e 92d7 ca3e ddae b03e 42e9 443e
00000150: ed32 d23d 9811 49be 3353 ef3e 5567 3b3e
00000160: e812 1a3e 70fb 9f3e 4d7b 963e 8a73 cdbd
00000170: 9a7e af3d d676 3cbd 237b aa3d 3bbc 803e
00000180: b574 c33e b653 80be 17c3 d13e facd b83e
00000190: 9668 0ebc 43e7 a3be 33ce 2d3d e161 433e
000001a0: f71d 133e 2ef2 433e ca91 063e 2dab de3d
000001b0: cd46 fa3c cdbc 60be f368 23bf 3704 ccbd
000001c0: f118 c83e 6fc6 0fbe a6df 5b3e 5cae 7a3e
000001d0: 5282 94be 8388 c1bd 1145 83be 207d de3d
000001e0: 545c 44bd 56d3 b93e 4246 57be 8ec8 b5bc
000001f0: 85b0 583e b873 efbe 09c7 37bf 9667 743c
00000200: f701 353e f0d4 c73e 7055 053f 6e12 283f
00000210: d9df 8abe 1e3c fe3e 4522 df3c d30e c13e
00000220: 5b89 74be 23d3 da3d 1258 dfbd da4b d63c
00000230: 3c8f 983d 2324 1bbf 20d3 2cbf 945f 3ebe
00000240: 88da 223e c57e d33e f865 883e c0c6 35be
00000250: 02c5 2bbd a73d 943c cd8b b93e 65fb bdbe
00000260: 4c7b a9bd 6327 8abe 0729 3cbe ae35 633e
00000270: 0947 893e 56f5 d3bb e530 3abd 39cc f33e
00000280: b7b5 72be 5b2c 84bd 6f48 f6be 80d1 24bf
00000290: 6bdb 5ebe b736 53be ea0f 263e 6d75 12bf
000002a0: e7c2 79bd 30cf 4bbd 9853 d53d 2dbe 9b3e
000002b0: fb4e 983e c9fe 983e 15bf 2cbd 81ce fb3e
000002c0: 903b a9be fedf d5be 85dc 24be 6e05 8bbe
000002d0: b044 00bf e1ea 87be 89b1 3abe bb4d f2be
000002e0: f237 d9bd 9747 1dbf c64b 80be 5ef0 123f
000002f0: db76 0abf 14aa 14bf d839 183d a6c5 133f
00000300: c7a5 a93e 0ab8 c4bc a530 26bd efce b9ba
00000310: 8c58 b43d 01a0 d83d 9b99 08bf 5241 ff3e
00000320: 5476 d23e 2144 5abe ac7f f53e 0256 3bbd
00000330: 0b25 1a3c 5a3e 95bd 6351 62be 5092 15bf
00000340: 2466 123f 9e10 35be 54f4 d73e 9fcd 64be
00000350: ae71 20be 39c8 0cbe 2949 48be 6451 2d3f
00000360: 8ec8 323e b88f c93d 508c 473f b847 6e3e
00000370: dc8a a6be b0b4 463e e548 26be a15e 8c3d
00000380: 25a2 633d 5428 4dbd 20a0 c0bd a727 04bf
00000390: 9899 48be c20f 423e 45b7 debe a68d a03e
000003a0: 20db 203d fff0 b53c 291c 9e3e 37de 31bb
000003b0: 3e95 073e adf4 903e c5e1 1abe d3ee 1b3d
000003c0: 0fde 203d 1a71 82be be4c a5bc 6451 22be
000003d0: 3153 523e 040e 813e 595b e7bd e74c 663e
000003e0: 88bb e9be 53a9 59be b60f 123f 100d 88bd
000003f0: 2e06 103e 8195 b43c bb95 033f a0bc 273e

conv1.bias f4 [32]
0.13798265 0.13360997 -0.022277543 -0.017997893 0.09820222 -0.12161633 -0.106031306 0.061037038
0.0021186734 -0.0012995922 -0.060070008 -0.10833966 0.09282534 -0.100944765 0.07240407 -0.019784236
0.12991397 0.018827308 -0.11836045 -0.051076997 -0.09757142 0.023868714 0.076632805 0.034893535
-0.015678978 0.04607692 0.08720158 -0.10116311 0.03481202 0.07856607 -0.13829201 0.010831703
00000000: 534b 0d3e 0dd1 083e 657f b6bc 5170 93bc
00000010: 3f1e c93d fc11 f9bd f126 d9bd f901 7a3d
00000020: 71d9 0a3b 1457 aaba f80b 76bd 2fe1 ddbd
00000030: 361b be3d 21bc cebd 9648 943d 8d12 a2bc
00000040: 2b08 053e ba3b 9a3c f766 f2bd 1d36 51bd
00000050: 86d3 c7bd 5288 c33c a9f1 9c3d 86ec 0e3d
00000060: 3371 80bc 27bb 3c3d be96 b23d 9b2e cfbd
00000070: 0c97 0e3d 3fe7 a03d 6c9c 0dbe 7577 313c

conv1_bn.weight f4 [32]
0.3783917 0.7647484 0.6105236 0.90301746 0.4469838 0.34046552 1.061736 0.49815005
0.6685302 0.63293034 0.629677 0.777666 0.49388248 0.7057583 0.6167269 0.73729646
0.81701463 0.9807595 0.79852587 0.5548226 0.52981967 0.5111757 0.6690711 0.67072994
0.54488766 0.63903576 1.0387752 0.7830773 1.0301647 0.78712136 0.5563381 0.61623067
00000000: 8fbc c13e 8dc6 433f 464b 1c3f 272c 673f
00000010: 10db e43e 7f51 ae3e f7e6 873f 860d ff3e
00000020: cc24 2b3f b907 223f 8332 213f 1e15 473f
00000030: 2ade fc3e 93ac 343f d0e1 1d3f 76bf 3c3f
00000040: df27 513f 0e13 7b3f 316c 4c3f db08 0e3f
00000050: 43a2 073f 69dc 023f 3e48 2b3f f5b4 2b3f
00000060: c27d 0b3f d997 233f 96f6 843f c177 483f
00000070: 70dc 833f c980 493f 2c6c 0e3f 4bc1 1d3f

conv1_bn.bias f4 [32]
0.49004257 -0.14597075 -0.3216819 -0.18292052 -0.24795172 -0.0061530997 0.0063670613 -0.15324475
-0.12908922 -0.20949247 -0.19240537 -0.40206975 -0.11799653 -0.15483274 -0.2510403 0.11385661
-0.1878556 -0.12293047 -0.060735136 -0.39602298 -0.044211265 -0.02988896 -0.17356938 -0.20116146
-0.08101132 -0.12986608 -0.093411155 -0.12025083 0.008549532 -0.11359281 -0.24021797 -0.24596566
00000000: dce6 fa3e 5b79 15be 7db3 a4be 844f 3bbe
00000010: 0ee7 7dbe f19f c9bb c8a2 d03b 31ec 1cbe
00000020: f72f 04be 3285 56be ea05 45be 16dc cdbe
00000030: 2aa8 f1bd 798c 1ebe 5b88 80be a82d e93d
00000040: 385d 40be f8c2 fbbd 68c5 78bd 86c3 cabe
00000050: df16 35bd b1d9 f4bc 2cbc 31be 45fd 4dbe
00000060: 43e9 a5bd 9dfb 04be 594e bfbd 1146 f6bd
00000070: 5613 0c3c 59a3 e8bd b3fb 75be 6cde 7bbe

conv1_bn.running_mean f4 [32]
0.12640569 3.7460713 0.24578607 -2.0464349 1.2898326 1.3369031 -1.84909 0.8196345
0.56090474 0.7032305 0.70814836 0.8544232 0.6092233 -0.46526483 -0.38694906 -2.3614807
-0.90918505 -1.0784377 1.1420469 0.54225534 -0.14940104 1.2090524 1.8619065 0.1638785
0.8911749 2.1813893 -1.046009 -0.57365435 -2.6181967 -1.9042592 -0.27666306 -0.3398193
00000000: 7e70 013e a2bf 6f40 58af 7b3e caf8 02c0
00000010: 3c19 a53f a41f ab3f fbae ecbf 91d3 513f
00000020: 7497 0f3f ea06 343f 3649 353f 7bbb 5a3f
00000030: 0ff6 1b3f 3137 eebe 301e c6be 8022 17c0
00000040: 5ac0 68bf 3f0a 8abf 982e 923f 3fd1 0a3f
00000050: 96fc 18be 3bc2 9a3f f452 ee3f c4cf 273e
00000060: 0a24 643f e29b 0b40 9fe3 85bf 03db 12bf
00000070: 8990 27c0 c4be f3bf c8a6 8dbe ccfc adbe

conv1_bn.running_var f4 [32]
0.04461987 0.715403 0.13130042 0.3016299 0.10173209 0.13396476 0.21246298 0.080796644
0.084611885 0.07403504 0.12452773 0.105586775 0.08314512 0.064568706 0.1395913 0.2964468
0.09688636 0.13845393 0.25597206 0.0680082 0.058932398 0.12947878 0.24276407 0.06590392
0.12093806 0.26266015 0.09477376 0.085810855 0.4163839 0.24860136 0.045239605 0.090956986
00000000: 53c3 363d a724 373f 9e73 063e 3c6f 9a3e
00000010: ea58 d03d 0f2e 093e e58f 593e b678 a53d
00000020: ff48 ad3d af9f 973d 6508 ff3d e13d d83d
00000030: fd47 aa3d 993c 843d 06f1 0e3e e0c7 973e
00000040: 5b6c c63d dec6 0d3e c50e 833e e247 8b3d
00000050: 1963 713d 1696 043e 2597 783e a2f8 863d
00000060: 60ae f73d 647b 863e bf18 c23d 9abd af3d
00000070: 4530 d53e 5b91 7e3e 2a4d 393d a847 ba3d

conv2.weight f4 [32, 32, 4, 4]
0.044116914 0.15245584 -0.2804499 0.15608217 -0.18977658 0.30481747 -0.33516935 -0.07811783
-0.31894574 0.55219567 0.2755005 0.35368046 -0.21333809 -0.18650962 0.2821339 0.22072732
0.3792251 0.020427858 0.20879236 0.23323947 -0.016784385 0.064453945 0.052061796 0.22701465
0.42225665 0.12615636 0.17131594 0.14721622 -0.16660851 0.22350311 0.036665265 0.3163234
0.14811496 0.30973533 -0.025354248 0.17168126 -0.2527199 0.13467672 0.07889969 0.12855956
-0.12824756 0.26061025 0.20903099 0.39974752 -0.37218577 -0.084745556 -0.010370543 0.18546975
-0.15481558 0.05291708 0.1933493 0.4681743 -0.17649838 -0.23981486 0.12014503 -0.15286557
-0.47887433 0.11913214 0.021626608 -0.94585717 -0.35536906 -0.40747944 -0.27273694 0.17655635
-0.015028387 0.025839817 0.46874973 0.3483508 -0.20564233 0.20988703 0.069495976 0.17953403
0.059864134 -0.25277567 -0.06322864 0.10610131 -0.09379345 -0.012952749 -0.0008606394 0.07785534
0.22251667 0.18276365 6.2027684e-05 0.063585244 0.16616821 -0.08784606 0.086781465 0.12037733
-0.04434455 0.27823657 -0.01944714 0.26812226 -0.00720268 0.0657138 0.018610347 0.34388906
0.032860924 -0.5666599 0.32684705 0.097758286 0.003766041 0.26204526 -0.056172702 -0.120371796
0.110326566 -0.14671403 -0.121074446 0.5296928 -0.016648836 0.050635185 0.26481664 -0.5973996
-0.0061645056 -0.030649405 0.31015152 0.059281792 -0.26815674 -0.40773934 0.33463386 -0.16015409
-0.23912719 0.25537285 0.12268778 -0.12934649 -0.11366917 -0.16780639 0.17063496 -0.22120668
-0.22405614 -0.20725527 0.4131271 0.27744684 -0.08865812 -0.310828 -0.20875104 -0.17161068
-0.06242537 -0.079540685 0.059672114 0.09962384 -0.32393348 0.30676147 0.41970497 0.53994435
-0.13901941 -0.40522352 0.22678623 0.09576153 0.15140663 0.44756866 -0.2459765 -0.24985448
-0.08883571 -0.55011576 0.05510286 0.31036702 -0.17610803 -0.27688986 0.20232925 -0.30042884
0.19911958 -0.04487062 -0.28877944 -0.24970463 0.065004535 0.34919882 0.0029008868 -0.58964443
0.11320961 -0.16910702 -0.045346554 0.18726596 0.11411149 0.17226082 -0.13231201 0.12713124
-0.081008755 0.035365753 -0.2520499 0.29862115 0.08695777 0.026275827 0.105860166 -0.24490353
0.2819577 -0.14078198 0.2077973 0.19120018 0.004759144 -0.094908655 -0.5173322 -0.33244556
0.1216265 -0.0752951 -0.42086485 0.36302236 0.20905304 0.23466663 0.24036433 0.028219381
-0.31611776 0.16698639 0.22637422 -0.37810442 0.19640595 0.28202415 -0.47917178 0.20581871
0.48615617 -0.036667857 -0.021675527 0.16308267 0.08227076 -0.31973907 -0.2949264 0.08522757
0.113708615 0.018433487 -0.010377631 0.015075824 0.1445844 0.081261955 -0.07865431 -0.26104364
-0.1362737 0.29792768 0.22111525 -0.16813613 0.12949523 -0.17422691 0.17608461 -0.14481927
-0.09414223 0.026031762 0.3665447 -0.014972703 -0.26041567 -0.17609581 -0.034712605 0.36183235
0.020949805 0.16698696 -0.28130662 -0.07369904 -0.022972655 -0.22202837 0.31467485 -0.10849747
-0.119239904 0.26266176 0.044547275 -0.45715952 -0.114502184 -0.07718263 -0.050855033 0.3244181
00000000: f0b3 343d 621d 1c3e 2197 8fbe 01d4 1f3e
00000010: cb54 42be 0911 9c3e 519b abbe 3efc 9fbd
00000020: db4c a3be b25c 0d3f 670e 8d3e 9b15 b53e
00000030: 4d75 5abe 61fc 3ebe db73 903e 5806 623e
00000040: cb29 c23e 5358 a73c aacd 553e 54d6 6e3e
00000050: 687f 89bc 6e00 843d c03e 553d 8776 683e
00000060: 0632 d83e 222f 013e 726d 2f3e d9bf 163e
00000070: 6c9b 2abe 00de 643e 512e 163d 24f5 a13e
00000080: 73ab 173e a195 9e3e b6b3 cfbc 36cd 2f3e
00000090: 8164 81be b2e8 093e 2996 a13d 1ea5 033e
000000a0: 5453 03be b56e 853e 380c 563e b5ab cc3e
000000b0: 228f bebe 148f adbd 36e9 29bc c8eb 3d3e
000000c0: fa87 1ebe 94bf 583d 5cfd 453e 8bb4 ef3e
000000d0: febb 34be 0792 75be 990e f63d cb88 1cbe
000000e0: 042f f5be 8dfb f33d 492a b13c b223 72bf
000000f0: eff2 b5be 25a1 d0be 2da4 8bbe 30cb 343e
00000100: a039 76bc 06ae d33c f7ff ef3e 095b b23e
00000110: e793 52be a0ec 563e e853 8e3d c5d7 373e
00000120: 1834 753d d06b 81be 047e 81bd a54b d93d
00000130: c816 c0bd c437 54bc 889c 61ba 9f72 9f3d
00000140: 69db 633e 6526 3b3e dc14 8238 fb38 823d
00000150: 0028 2a3e a3e8 b3bd 7bba b13d 6488 f63d
00000160: a2a2 35bd 0675 8e3e 9c4f 9fbc 5247 893e
00000170: 7604 ecbb f594 863d ba74 983c 3a12 b03e
00000180: 2d99 063d a010 11bf 7f58 a73e 7f35 c83d
00000190: afcf 763b cc2a 863e 5915 66bd 7d85 f6bd
000001a0: e5f2 e13d 343c 16be e1f5 f7bd f399 073f
000001b0: 2463 88bc d766 4f3d 0c96 873e 2eef 18bf
000001c0: 9fff c9bb 7614 fbbc 2ecc 9e3e 77d1 723d
000001d0: d74b 89be 36c3 d0be 2155 ab3e 6fff 23be
000001e0: c2dd 74be 3bc0 823e bb43 fb3d 6873 04be
000001f0: 62cb e8bd 70d5 2bbe eeba 2e3e 0184 62be
00000200: f96e 65be ba3a 54be 6585 d33e 830d 8e3e
00000210: 6392 b5bd d924 9fbe d5c2 55be b6ba 2fbe
00000220: bfb1 7fbd 3ae6 a2bd bf6a 743d 9507 cc3d
00000230: 9cda a5be d70f 9d3e 92e3 d63e cb39 0a3f
00000240: 1b5b 0ebe 7579 cfbe a63a 683e 9f1e c43d
00000250: 570a 1b3e b827 e53e 43e1 7bbe dad9 7fbe
00000260: 7fef b5bd 63d4 0cbf 89b3 613d 6de8 9e3e
00000270: aa55 34be 82c4 8dbe 662f 4f3e cfd1 99be
00000280: 01e6 4b3e 41ca 37bd e6da 93be 92b2 7fbe
00000290: 1921 853d 30ca b23e ce1c 3e3b f0f2 16bf
000002a0: 71da e73d 642a 2dbe 4fbd 39bd a6c2 3f3e
000002b0: 49b3 e93d 2465 303e cd7c 07be b12e 023e
000002c0: ebe7 a5bd aedb 103d af0c 81be dfe4 983e
000002d0: ea16 b23d 6740 d73c 37cd d83d fec7 7abe
000002e0: c25c 903e 2729 10be d1c8 543e fbc9 433e
000002f0: 98f2 9b3b 785f c2bd e26f 04bf 4e36 aabe
00000300: 5017 f93d 5134 9abd 997b d7be 11de b93e
00000310: 0012 563e 734c 703e 1122 763e 552c e73c
00000320: 30da a1be 7bfe 2a3e a5ce 673e e796 c1be
00000330: a41e 493e 7865 903e 0156 f5be 24c2 523e
00000340: 76e9 f83e 0931 16bd e090 b1bc 25ff 263e
00000350: 927d a83d d7b4 a3be 9800 97be cb8b ae3d
00000360: 10e0 e83d d301 973c f006 2abc 9700 773c
00000370: ef0d 143e ab6c a63d 8315 a1bd 83a7 85be
00000380: 558b 0bbe fa89 983e 096c 623e e12b 2cbe
00000390: 669a 043e 8a68 32be 864f 343e 814b 14be
000003a0: a4cd c0bd 9040 d53c bfab bb3e 1150 75bc
000003b0: 3455 85be 7652 34be ce2e 0ebd 1742 b93e
000003c0: ed9e ab3c a1fe 2a3e 6c07 90be 86ef 96bd
000003d0: 2631 bcbc 685b 63be 101d a13e ec33 debd
000003e0: 0d34 f4bd 9a7b 863e 3477 363d d010 eabe
000003f0: 1f80 eabd ed11 9ebd 5e4d 50bd 211a a63e

conv2.bias f4 [32]
-0.025893278 -0.0020160691 0.0016986146 0.01967282 0.014747314 0.018554509 -0.03560677 0.033494525
0.035531957 -0.008759291 -0.004449192 -0.005944263 0.0062729223 0.029722985 -0.017774798 -0.04308358
0.0049807574 -0.019556893 0.028350744 -0.0025346715 -0.03381019 -0.015102474 -0.036964547 0.043644182
0.0113253705 0.028396148 -0.021148143 0.0193616 0.021518024 -0.007863898 0.011704292 0.013117156
00000000: 241e d4bc 0720 04bb 0ca4 de3a e528 a13c
00000010: b89e 713c a0ff 973c 68d8 11bd 8e31 093d
00000020: f589 113d 2183 0fbc 87ca 91bb 18c8 c2bb
00000030: 168d cd3b 9e7d f33c 749c 91bc 6878 30bd
00000040: 9f35 a33b c735 a0bc d23f e83c bb1c 26bb
00000050: 8e7c 0abd 5e70 77bc 2368 17bd 3ec4 323d
00000060: 0c8e 393c 0a9f e83c df3e adbc 389c 9e3c
00000070: 9146 b03c 94d7 00bc 5cc3 3f3c 57e9 563c

conv2_bn.weight f4 [32]
0.38463002 0.44620314 0.58422804 0.8896099 0.37698558 0.46033734 1.2591871 0.58423907
0.43642876 0.40530476 0.65606064 0.8903171 0.38020584 -0.0131847225 0.46724916 0.6158131
0.6342388 0.513716 0.8125041 0.72022957 1.0027219 0.42987671 0.8782382 0.3320014
0.54071546 0.877991 0.69652504 0.4352133 0.9459854 1.0312895 0.57610744 0.42462882
00000000: 3aee c43e bd74 e43e f88f 153f 79bd 633f
00000010: 4104 c13e 56b1 eb3e 0b2d a13f b190 153f
00000020: 9773 df3e 1b84 cf3e 97f3 273f d2eb 633f
00000030: 57aa c23e bc04 58bc 483b ef3e eda5 1d3f
00000040: 795d 223f e482 033f 4500 503f f760 383f
00000050: 3159 803f cd18 dc3e 38d4 603f 16fc a93e
00000060: 546c 0a3f 05c4 603f 774f 323f 47d4 de3e
00000070: 192c 723f 4b01 843f c77b 133f f368 d93e

conv2_bn.bias f4 [32]
-0.25645825 -0.36220443 -0.13236555 -0.10515309 -0.1953455 -0.36913985 -0.057489842 -0.2756554
-0.095535256 -0.24124691 0.0022998238 0.012239931 -0.18376298 -0.08645116 0.05037773 0.027895615
-0.40590858 -0.1269102 -0.032497283 0.0010497876 -0.05359264 -0.28843638 0.101132184 0.07741623
-0.2441727 -0.014674325 -0.02031752 -0.35812303 -0.013644618 -0.07993941 0.07804811 -0.019090243
00000000: 7f4e 83be dc72 b9be d68a 07be 815a d7bd
00000010: a708 48be e6ff bcbe 787a 6bbd b422 8dbe
00000020: fda7 c3bd 6e09 77be a4b8 163b fe89 483c
00000030: 5d2c 3cbe 4e0d b1bd e158 4e3d 5885 e43c
00000040: 40d3 cfbe bff4 01be df1b 05bd 0799 893a
00000050: f583 5bbd efad 93be 641e cf3d 678c 9e3d
00000060: 6908 7abe 946c 70bc ed70 a6bc e75b b7be
00000070: ad8d 5fbc 46b7 a3bd b0d7 9f3d 2463 9cbc

conv2_bn.running_mean f4 [32]
0.9686521 -0.065730885 -3.3676438 -1.0116646 0.9397152 -0.6783812 -0.06478607 1.6869342
2.129965 -0.5754941 -0.73220265 -1.9283423 -1.0765849 -0.083803594 -2.9776826 -2.7786574
2.0420322 -0.6000127 -2.3956938 -1.6233898 -2.7504692 -1.1483577 -3.828345 1.5724119
-0.42492175 -1.7972467 -0.5262548 -0.5217593 -1.4899719 -1.4894603 -1.2857839 -1.9117392
00000000: 96f9 773f ea9d 86bd 7a87 57c0 3a7e 81bf
00000010: 2d91 703f 64aa 2dbf 8fae 84bd 76ed d73f
00000020: 5951 0840 9553 13bf a271 3bbf ecd3 f6bf
00000030: 89cd 89bf 38a1 abbd 5a92 3ec0 86d5 31c0
00000040: a8b0 0240 6f9a 19bf 0c53 19c0 3dcb cfbf
00000050: b007 30c0 63fd 92bf 9b03 75c0 cb44 c93f
00000060: 588f d9be 2e0c e6bf a2b8 06bf 0492 05bf
00000070: 66b7 bebf a3a6 bebf 9194 a4bf dfb3 f4bf

conv2_bn.running_var f4 [32]
8.649203 11.09051 17.41086 28.397888 7.961664 8.713545 45.41939 18.406229
11.343349 10.057486 14.85636 33.791245 8.349429 0.29277983 9.939424 19.1639
27.580929 10.756253 20.854603 19.306078 31.27609 7.095112 36.034885 5.8848953
15.37685 23.812668 12.34891 5.3209767 37.557827 29.562704 13.546152 6.781899
00000000: 2363 0a41 bb72 3141 7149 8b41 e02e e341
00000010: f4c5 fe40 ae6a 0b41 75ad 3542 f53f 9341
00000020: 5c7e 3541 76eb 2041 a7b3 6d41 3c2a 0742
00000030: 4397 0541 3de7 953e e107 1f41 ab4f 9941
00000040: bea5 dc41 9d19 2c41 3ad6 a641 d972 9a41
00000050: 6f35 fa41 280b e340 b923 1042 1051 bc40
00000060: 9407 7641 5880 be41 2395 4541 7145 aa40
00000070: 373b 1642 6b80 ec41 0abd 5841 5105 d940

conv3.weight f4 [32, 32, 4, 4]
-0.07372426 0.42148226 0.030591354 -0.3728481 -0.41773513 -0.08680601 0.34152892 0.051132493
-0.5523789 0.107861124 -0.18078822 -0.56338954 0.034518357 -0.24718611 0.047830522 0.104982756
-0.05059003 0.38683754 0.35992008 -0.42019433 -0.38717654 -0.5305951 0.21375856 0.052328713
-0.4272345 -0.01884137 -0.025609942 -0.19788118 -0.2383815 0.49437082 0.03279496 -0.2783536
-0.4761906 0.2972549 -0.3649652 -0.056153722 0.030413887 -0.6203634 0.0020691722 0.47158554
-0.39940333 0.27677065 -0.18668768 -0.17675869 0.47024032 -0.14072606 -0.26795042 -0.093725555
0.047164313 -0.5127693 0.0070446027 -0.3183316 0.41735095 -0.36757538 -0.3988258 -0.30877483
0.8390013 0.29876152 0.06355922 0.1646386 0.29488865 -0.7207139 -0.45795637 -0.41171318
0.6165577 -0.3053553 -0.26128578 0.066721655 -0.6356441 0.49259162 -0.33109477 -0.17993858
-0.77843773 -0.07395471 0.20779079 0.23569381 0.11201589 0.12134285 0.040231448 -0.093121365
0.063925974 -0.09919297 0.39047843 0.21017037 -0.062043726 -0.2031189 -0.017461834 -0.26758027
-0.4606003 -0.07503393 0.07645299 -0.018771881 -0.18870309 -0.52318764 0.07550946 -0.03858269
0.27963796 -0.33256808 0.104513586 -0.15121081 0.10609308 -0.033173848 -0.05408022 -0.01431853
-0.20901787 -0.06854427 -0.5936756 0.06380625 0.043675847 0.023082303 0.5076146 -0.0675096
-0.01477845 0.3070758 -0.01503251 0.0026375903 -0.23954386 0.048011612 -0.48021775 0.07035676
-0.23015597 -0.014560476 -0.005718346 -0.59473306 0.3444497 -0.043173835 -0.030146413 -0.0061762845
-0.03458197 -0.4754202 -0.15117775 -0.035576824 0.022068042 -0.20823827 -0.23638175 0.06102683
-0.43088534 0.012662555 0.71573794 0.06475619 0.25958285 -0.22755566 -0.34507653 -0.083572604
0.49802968 -0.43546444 0.28328347 -0.5309343 -0.20863527 -0.53672427 -0.11813412 -0.30423614
-0.1122224 -0.08337235 0.4246841 -0.17300545 0.19590475 -0.15737508 -0.047452766 0.2751706
0.3220871 0.0013537403 -0.14521846 -0.17858614 -0.20190576 -0.3407434 -0.08045249 -0.18456167
0.5161947 -0.2610381 -0.050785895 0.03332836 -0.0024965538 -0.0059017274 -0.43694928 -0.3870845
0.32401776 -0.028770491 -0.16594009 0.079739176 0.27918705 0.2800712 -0.15347694 -0.47666606
0.13773647 -0.38428375 -0.43219957 -0.5436261 -0.15100539 0.08495551 -0.042803653 -0.29606476
-0.033966072 0.06557852 0.32275426 -0.14327517 0.32866713 -0.073668905 -0.2894349 0.31524748
0.06719111 0.012608302 0.121122986 0.121021315 -0.1444195 -0.2371808 0.11131635 0.2748972
0.0059090895 -0.012234088 -0.03974957 0.0044860486 0.005723463 -0.01659691 0.0022679165 0.02973798
0.014623591 -0.037939772 -0.016620897 -0.011113327 -0.036416717 0.043923296 0.013867837 -0.043115463
-0.32918367 0.36984485 0.30860162 -0.22622284 0.21985626 0.10327088 0.40714207 0.1824355
-0.07997317 -0.061145224 -0.08609672 -0.35307422 0.14933217 -0.31087348 -0.10269916 0.2479401
0.12151044 -0.10680837 0.3191231 0.21909414 0.00041905305 0.29233935 -0.08498039 -0.2927933
0.17342347 -0.2809464 -0.40519038 -0.53862685 -0.17824197 -0.0150636 0.006607308 -0.1584052
00000000: bffc 96bd 86cc d73e b89a fa3c f2e5 bebe
00000010: 61e1 d5be 59c7 b1bd e1dc ae3e 4e70 513d
00000020: b468 0dbf 4be6 dc3d 8c20 39be 4c3a 10bf
00000030: 1f63 0d3d 5b1e 7dbe f0e9 433d 3301 d73d
00000040: 7e37 4fbd 920f c63e 7247 b83e b623 d7be
00000050: 013c c6be 15d5 07bf 86e3 5a3e a256 563d
00000060: 7bbe dabe 3759 9abc f1cb d1bc 5da1 4abe
00000070: 481a 74be 2c1e fd3e 0254 063d 5d84 8ebe
00000080: 41cf f3be cb31 983e b8dc babe 7201 66bd
00000090: 8b26 f93c 23d0 1ebf f39a 073b a973 f13e
000000a0: 987e ccbe e2b4 8d3e 0e2b 3fbe 3b00 35be
000000b0: 57c3 f03e 7e1a 10be cc30 89be 2ff3 bfbd
000000c0: 5e2f 413d d944 03bf 69d6 e63b 5cfc a2be
000000d0: 06af d53e d732 bcbe e532 ccbe bc17 9ebe
000000e0: cac8 563f 45f7 983e 562b 823d 0597 283e
000000f0: a5fb 963e b580 38bf 4279 eabe 12cc d2be
00000100: bad6 1d3f 8857 9cbe 40c7 85be 5da5 883d
00000110: 92b9 22bf f834 fc3e 4185 a9be d241 38be
00000120: b247 47bf 9175 97bd 1cc7 543e b859 713e
00000130: 9668 e53d 9a82 f83d bbc9 243d 6ab6 bebd
00000140: 9feb 823d af25 cbbd caec c73e e736 573e
00000150: 9021 7ebd 67fe 4fbe 1f0c 8fbc 4800 89be
00000160: cdd3 ebbe 64ab 99bd 6393 9c3d 7dc7 99bc
00000170: 623b 41be a0ef 05bf b4a4 9a3d e208 1ebd
00000180: b52c 8f3e 5d46 aabe 380b d63d 02d7 1abe
00000190: 5447 d93d 4de1 07bd 3983 5dbd 4598 6abc
000001a0: c808 56be f060 8cbd 20fb 17bf daac 823d
000001b0: 72e5 323d 1917 bd3c 08f3 013f 7942 8abd
000001c0: 5021 72bc 0a39 9d3e eb4a 76bc 6cdb 2c3b
000001d0: fc4a 75be d3a7 443d 1adf f5be 3417 903d
000001e0: 02ae 6bbe 108f 6ebc f760 bbbb 6d40 18bf
000001f0: b65b b03e 0cd7 30bd 9cf5 f6bc 6e62 cabb
00000200: d3a5 0dbd 476a f3be 57ce 1abe 01b9 11bd
00000210: 0ac8 b43c 6a3c 55be 0f0e 72be 45f7 793d
00000220: 019d dcbe 9b76 4f3c 9a3a 373f e59e 843d
00000230: 0be8 843e 5a04 69be dfad b0be 1d28 abbd
00000240: bffd fe3e 32f5 debe 880a 913e 4feb 07bf
00000250: 7ca4 55be c366 09bf 4df0 f1bd d7c4 9bbe
00000260: dcd4 e5bd 1fbf aabd 3270 d93e 5728 31be
00000270: 419b 483e ef26 21be d55d 42bd 29e3 8c3e
00000280: 9ae8 a43e fd6f b13a 26b4 14be 49df 36be
00000290: 62c0 4ebe eb75 aebe 46c4 a4bd bcfd 3cbe
000002a0: 5625 043f c9a6 85be df04 50bd 5283 083d
000002b0: 399d 23bb 4763 c1bb d1b7 dfbe f12f c6be
000002c0: a8e5 a53e 18b0 ebbc 33ec 29be 4b4e a33d
000002d0: 9bf1 8e3e 7e65 8f3e 0f29 1dbe 930d f4be
000002e0: ca0a 0d3e d7c0 c4be 4349 ddbe 152b 0bbf
000002f0: 28a1 1abe 28fd ad3d e252 2fbd cd95 97be
00000300: 0220 0bbd 084e 863d 0c40 a53e bab6 12be
00000310: 0f47 a83e b9df 96bd d030 94be 1e68 a13e
00000320: 7e9b 893d 0d93 4e3c 540f f83d 06da f73d
00000330: b5e2 13be 86df 72be d4f9 e33d 53bf 8c3e
00000340: 09a1 c13b 7c71 48bc 72d0 22bd b4ff 923b
00000350: e38b bb3b 3ef6 87bc 53a1 143b 109d f33c
00000360: c997 6f3c bc66 1bbd 8c28 88bc ac14 36bc
00000370: b229 15bd eae8 333d ed35 633c d799 30bd
00000380: c38a a8be 4e5c bd3e 0801 9e3e f6a6 67be
00000390: 0022 613e af7f d33d ed74 d03e 5fd0 3a3e
000003a0: f9c8 a3bd 6a73 7abd 7a53 b0bd 25c6 b4be
000003b0: 88ea 183e cf2a 9fbe f053 d2bd 02e4 7d3e
000003c0: 77da f83d 59be dabd 1a64 a33e 375a 603e
000003d0: 59b4 db39 81ad 953e 330a aebd 01e9 95be
000003e0: ec95 313e 35d8 8fbe 1d75 cfbe 73e3 09bf
000003f0: 1085 36be 51cd 76bc 1e82 d83b f934 22be

conv3.bias f4 [32]
0.033091545 -0.0015147877 0.029031489 -0.022552868 -0.036856927 -0.041526683 -0.0041330084 0.03183492
-0.007932035 -0.012456073 0.027398458 0.027170723 -0.017288951 -0.0017079745 -0.038749766 -0.0016915153
0.019248756 0.012119644 0.005358186 -0.012202939 -0.0072471956 0.032786973 0.02221196 -0.004963681
0.0067707556 0.028906975 0.0006817368 -0.009224948 -0.0022114927 -0.0072337748 0.017738527 0.04211071
00000000: 008b 073d d78b c6ba 72d3 ed3c cbc0 b8bc
00000010: 4af7 16bd e217 2abd 306e 87bb 5565 023d
00000020: 5ef5 01bc 8f14 4cbc bb72 e03c 2395 de3c
00000030: 8fa1 8dbc 1dde dfba 13b8 1ebd d6b5 ddba
00000040: 91af 9d3c 7991 463c b993 af3b d6ee 47bc
00000050: e279 edbb a24b 063d dbf5 b53c 60a6 a2bb
00000060: 37dd dd3b 52ce ec3c 95b6 323a 3c24 17bc
00000070: b1ee 10bb 4d09 edbb 6350 913c 487c 2c3d

conv3_bn.weight f4 [32]
0.8382281 1.1601315 0.5897645 0.63480145 0.6276257 -0.5047618 0.7449154 0.6904111
0.59376 1.1305852 0.66300756 0.90600187 0.5231817 0.66815585 0.795825 1.3438137
1.1054844 0.68984365 0.52583873 0.5467346 0.6312755 0.6567797 1.4628892 0.5688403
0.62784725 0.78522444 0.7969774 0.6711203 0.5418004 0.6240115 0.611697 1.3149145
00000000: 1e96 563f 307f 943f cefa 163f 5982 223f
00000010: 14ac 203f 1238 01bf c7b2 3e3f c8be 303f
00000020: a800 183f 04b7 903f ddba 293f bdef 673f
00000030: 3cef 053f 430c 2b3f 30bb 4b3f 1602 ac3f
00000040: 8380 8d3f 9899 303f 5e9d 063f ccf6 0b3f
00000050: 459b 213f b722 283f f43f bb3f 859f 113f
00000060: 99ba 203f 7804 493f b606 4c3f 8ace 2b3f
00000070: 6eb3 0a3f 38bf 1f3f 2d98 1c3f 1e4f a83f

conv3_bn.bias f4 [32]
-0.26645502 0.002627439 -0.40518543 -0.34486073 -0.24242347 0.2124071 0.06591224 0.02329493
-0.02384289 -0.1866307 -0.21211393 -0.17220418 -0.2931654 -0.18827574 -0.30299896 -0.11171959
-0.0753896 -0.25928292 -0.15011188 -0.11396353 -0.02987517 -0.28780085 -0.087716915 -0.075392865
-0.289795 0.03690221 -0.24015427 -0.39217606 -0.27882352 -0.3126208 -0.3925019 -0.037410714
00000000: cb6c 88be 1d31 2c3b 7774 cfbe 9691 b0be
00000010: dc3d 78be 3f81 593e fffc 863d 02d5 be3c
00000020: 2a52 c3bc 1e1c 3fbe 6534 59be 4b56 30be
00000030: c619 96be 5bcb 40be ae22 9bbe 3ecd e4bd
00000040: dd65 9abd bbc0 84be eeb6 19be b665 e9bd
00000050: c6bc f4bc a25a 93be eda4 b3bd 9367 9abd
00000060: 0360 94be c626 173d 00eb 75be 4dcb c8be
00000070: f5c1 8ebe d50f a0be 02f6 c8be fa3b 19bd

conv3_bn.running_mean f4 [32]
-5.7184343 -0.93293214 -0.04201302 -4.9922996 -4.906201 3.1439474 2.1555398 -0.57463706
-3.4938974 -2.9692166 -0.09674862 4.6487417 0.4951118 -3.98009 -0.679908 -1.1526412
2.2783077 -2.4587753 -9.639167 4.1993823 2.914659 -1.4310539 -1.9818704 -3.5851595
-3.5943792 -4.9272366 -0.5436199 -3.5731719 -4.0826354 -1.9846121 -1.53464 0.5458949
00000000: 6afd b6c0 a4d4 6ebf d815 2cbd ebc0 9fc0
00000010: 99ff 9cc0 6f36 4940 5df4 0940 6a1b 13bf
00000020: 049c 5fc0 a507 3ec0 2424 c6bd 7ec2 9440
00000030: 4b7f fd3e cbb9 7ec0 730e 2ebf bf89 93bf
00000040: cbcf 1140 935c 1dc0 073a 1ac1 5761 8640
00000050: c689 3a40 c62c b7bf eead fdbf 4173 65c0
00000060: 4f0a 66c0 ecab 9dc0 ac2a 0bbf d9ae 64c0
00000070: f3a4 82c0 c507 febf 156f c4bf c5bf 0b3f

conv3_bn.running_var f4 [32]
3.5700984 5.4200325 3.7619333 4.3425093 2.7359607 4.8334346 4.366039 3.7690642
2.6080706 5.3523474 5.9869823 5.6459537 2.1768987 3.7697575 4.1948733 7.855731
6.9328713 2.3489563 2.5324862 3.7419918 3.0667148 3.6052454 10.058512 2.2595248
4.2880607 3.8667002 3.2680094 3.9356744 3.8871233 4.602 3.4146204 7.968476
00000000: 7e7c 6440 e870 ad40 84c3 7040 d6f5 8a40
00000010: fb19 2f40 7fab 9a40 97b6 8b40 5938 7140
00000020: a1ea 2640 6e46 ab40 5c95 bf40 a7ab b440
00000030: 4f52 0b40 b543 7140 673c 8640 2662 fb40
00000040: 15da dd40 4d55 1640 4114 2240 cb7c 6f40
00000050: 0e45 4440 57bc 6640 aaef 2041 0e9c 1040
00000060: cb37 8940 0478 7740 1127 5140 17e2 7b40
00000070: a1c6 7840 9643 9340 2489 5a40 c1fd fe40

linear1.weight f4 [32, 6272]
-0.10345917 -0.10456901 -0.12776604 -0.07612991 0.046029627 -0.09468278 -0.0019864778 0.07290085
-0.16434915 0.10728763 -0.06696385 0.044833433 -0.14367682 0.15449457 -0.0036806008 0.020678272
-0.13802297 -0.002154857 -0.008076152 -0.041132588 0.15123567 0.007926486 0.23977338 -0.08955401
0.011128436 -0.07907164 0.1335934 -0.16118562 0.09325821 0.13012895 -0.07883267 -0.08548094
-0.26504448 0.06554468 -0.062462397 0.11773494 0.11532172 -0.034909636 0.019545075 -0.082135916
0.16300325 0.019899227 -0.12787947 0.24457654 -0.31662786 -0.04357365 -0.22139958 -0.037385
0.11887031 0.5206744 -0.08910946 -0.40428886 -0.17174648 -0.0096403565 0.17420655 0.21334404
-0.046468846 -0.06114881 -0.3134212 -0.07903651 -0.17432442 0.039321586 0.14128865 -0.06283998
-0.33273098 -0.8118074 0.073490515 -0.17981426 0.06169948 -0.09723854 -0.13172323 -0.3182975
-0.036453422 0.17417951 -0.020287776 -0.060741972 -0.25033575 0.17206623 -0.19327942 0.25418037
0.085561186 -0.23341624 -0.12962316 -0.020427093 -0.45537254 -0.16885091 0.31114173 0.01208066
-0.2995066 -0.15004349 -0.26984975 0.12467086 0.08146167 -0.19906582 0.075982206 -0.14430927
-0.01637337 -0.0093155 0.07643377 -0.031910144 -0.19155036 -0.025419617 0.023855073 -0.014576976
-0.094044186 -0.27542004 0.51445436 -0.032349996 0.047874074 0.1488635 -0.02101502 -0.029954843
-0.107025266 -0.26262975 0.1382842 -0.0071192603 -0.5377654 -0.05277982 0.047636095 -0.028288914
0.021350654 0.15971641 3.9816864e-06 -0.16658632 0.029672472 -0.11191615 -0.20124887 -0.088971995
0.4507178 -0.21050572 0.0046085436 -0.0062623722 -0.06150955 -0.020512862 -0.0013371663 -0.07883824
-0.1178294 0.04504072 0.03113169 0.08127226 -0.16205408 -0.38431245 0.24134119 0.024723526
0.016357094 0.011708455 0.021177229 -0.07448192 0.014529073 0.13167253 -0.015442898 -0.14178939
0.11121548 0.08899172 -0.32404307 -0.06523607 -0.012831543 -0.02850869 0.07538372 -0.1041213
-0.06288767 -0.009858941 -0.00028468025 -0.10339148 0.014752684 -0.049624268 -0.04646083 0.07072444
0.06288792 0.18814467 -0.005203346 0.0017068674 0.011213684 0.01047672 -0.09252 0.07061945
0.0036938027 0.006594687 -0.07922773 0.11237021 -0.10594295 0.014672784 -0.08455333 -0.068618715
0.08635783 -0.008994302 -0.004637799 0.0077466047 0.03619983 0.01035487 -0.121107444 0.018351931
-0.07470926 -0.1718739 0.041902315 0.018398544 -0.03381323 0.09172376 -0.12511823 -0.19988482
0.1316624 -0.05240306 0.17891686 0.156896 0.050180808 -0.07501704 0.04945671 -0.10256315
0.19438007 -0.3051199 0.17746581 0.09581181 -0.21183066 -0.15092358 -0.33365402 0.16673802
0.024430754 0.16194667 -0.19243875 -0.049610116 -0.050022118 0.1201649 0.22807488 0.08308493
0.17812397 -0.11566842 -0.06871333 -0.14866993 0.20972922 -0.0068043214 0.23132636 -0.0044592745
-0.42314342 -0.2656628 0.12823798 0.27819678 -0.11914565 -0.021565082 0.0048607416 -0.064145334
0.088858515 -0.060925875 0.10187931 -0.07287814 0.13356903 -0.13165359 -0.22604834 0.1329837
-0.13653551 -0.024115002 0.08395093 0.016725548 -0.09094856 -0.077509955 0.023952821 -0.19690754
00000000: 67e2 d3bd 4728 d6bd 1ad5 02be 00ea 9bbd
00000010: 9089 3c3d 0ce9 c1bd 912f 02bb 0a4d 953d
00000020: 254b 28be 9eb9 db3d 5824 89bd 43a3 373d
00000030: 0420 13be d333 1e3e 3c36 71bb 7b65 a93c
00000040: e555 0dbe 8038 0dbb d651 04bc a57a 28bd
00000050: 86dd 1a3e 18de 013c 2787 753e 1868 b7bd
00000060: 0b54 363c 50f0 a1bd b5cc 083e d80d 25be
00000070: 29fe be3d 8640 053e 0673 a1bd a210 afbd
00000080: e9b3 87be 4a3c 863d 92d8 7fbd 041f f13d
00000090: cb2d ec3d 68fd 0ebd fe1c a03c e036 a8bd
000000a0: 53ea 263e b403 a33c d6f2 02be 4672 7a3e
000000b0: 0c1d a2be 497a 32bd 92b6 62be 0421 19bd
000000c0: 4772 f33d eb4a 053f 057f b6bd f3fe cebe
000000d0: 4fde 2fbe 96f2 1dbc 3463 323e dc76 5a3e
000000e0: 1e56 3ebd 2d77 7abd be78 a0be e5dd a1bd
000000f0: 1a82 32be ac0f 213d f9ad 103e 3fb2 80bd
00000100: b75b aabe 9cd2 4fbf 3282 963d 3b21 38be
00000110: 98b8 7c3d 0025 c7bd 74e2 06be e4f7 a2be
00000120: 2f50 15bd 1d5c 323e 8d32 a6bc 93cc 78bd
00000130: 022c 80be 2132 303e 0aeb 45be ee23 823e
00000140: b43a af3d ab04 6fbe efbb 04be b856 a7bc
00000150: 9726 e9be 41e7 2cbe f84d 9f3e f6ed 453c
00000160: ee58 99be 00a5 19be bf29 8abe 7053 ff3d
00000170: 60d5 a63d e9d7 4bbe 8f9c 9b3d cfc5 13be
00000180: 7221 86bc 0aa0 18bc 4f89 9c3d 36b4 02bd
00000190: c725 44be cd3c d0bc b76b c33c 45d4 6ebc
000001a0: 3d9a c0bd db03 8dbe 48b3 033f 6e81 04bd
000001b0: 9b17 443d ac6f 183e b127 acbc dc63 f5bc
000001c0: 1030 dbbd 6877 86be 609a 0d3e af48 e9bb
000001d0: feaa 09bf a72f 58bd 111e 433d 27be e7bc
000001e0: 91e7 ae3c b38c 233e 6d9a 8536 9b95 2abe
000001f0: af13 f33c 4b34 e5bd 2f14 4ebe f336 b6bd
00000200: 7cc4 e63e d08e 57be 4403 973b 9634 cdbb
00000210: 70f1 7bbd 970a a8bc db43 afba f175 a1bd
00000220: 8a50 f1bd 9e7c 383d e307 ff3c 1272 a63d
00000230: 81f1 25be 9ac4 c4be 2522 773e fe88 ca3c
00000240: 50ff 853c d2d4 3f3c de7b ad3c fa89 98bd
00000250: 590b 6e3c 2ad5 063e 3504 7dbc 3d31 11be
00000260: f1c4 e33d 4a41 b63d f9e8 a5be 7d9a 85bd
00000270: 643b 52bc 0e8b e9bc c862 9a3d 8c3d d5bd
00000280: 40cb 80bd 6587 21bc 2341 95b9 eabe d3bd
00000290: 3eb5 713c d142 4bbd b64d 3ebd fad7 903d
000002a0: 62cb 803d ffa8 403e d480 aabb f7b8 df3a
000002b0: 9ab9 373c 8ca6 2b3c 207b bdbd eea0 903d
000002c0: ba13 723b 3e18 d83b 2642 a2bd 5a22 e63d
000002d0: 9ef8 d8bd 1e66 703c 4c2a adbd f887 8cbd
000002e0: 60dc b03d d65c 13bc aef8 97bb 3bd7 fd3b
000002f0: 4646 143d 79a7 293c 2e07 f8bd ca56 963c
00000300: 2b01 99bd b6ff 2fbe c3a1 2b3d 8bb8 963c
00000310: be7f 0abd abd9 bb3d fe1e 00be 9bae 4cbe
00000320: 82d2 063e 97a4 56bd fb35 373e 58a9 203e
00000330: 648a 4d3d 89a2 99bd 1f93 4a3d a10c d2bd
00000340: 920b 473e ad38 9cbe 99b9 353e fb38 c43d
00000350: 23ea 58be b68b 1abe b3d4 aabe 5fbd 2a3e
00000360: 0123 c83c 59d5 253e aa0e 45be fa33 4bbd
00000370: fee3 4cbd 0419 f63d 768c 693e 6f28 aa3d
00000380: 2166 363e 91e3 ecbd 93b9 8cbd ee3c 18be
00000390: 42c3 563e c9f6 debb d1e0 6c3e 1b1f 92bb
000003a0: 41a6 d8be f404 88be d150 033e cf6f 8e3e
000003b0: a202 f4bd 41a9 b0bc db46 9f3b a15e 83bd
000003c0: 74fb b53d 698d 79bd 1aa6 d03d 2241 95bd
000003d0: 52c6 083e 33d0 06be 3779 67be e12c 083e
000003e0: f7cf 0bbe d38c c5bc 77ee ab3d 0404 893c
000003f0: 3d43 babd 8abd 9ebd b538 c43c 21a2 49be

linear1.bias f4 [32]
-0.008466083 0.00082346593 0.008381314 -0.0024349818 -0.011534955 0.001051157 -0.0012320894 -0.0063026743
-0.0114316335 0.00010922955 -0.0074405335 0.0051150443 0.0037765717 -0.0023679123 -0.006297907 0.005958038
-0.010750766 0.012565522 -0.009029054 0.0055284835 -0.0061435136 0.000415612 0.0063050156 -0.010294866
-0.0093920855 0.007964508 -0.00468543 0.0033772222 -0.0008810257 -0.011374449 0.0072634774 -0.0067279143
00000000: 53b5 0abc dddd 573a c751 093c 3794 1fbb
00000010: 1cfd 3cbc fac6 893a 0f7e a1ba aa86 cebb
00000020: bf4b 3bbc 2b12 e538 b8cf f3bb 1a9c a73b
00000030: 5c80 773b fa2e 1bbb ac5e cebb a53b c33b
00000040: fb23 30bc 9fdf 4d3c 99ee 13bc 4828 b53b
00000050: 874f c9bb 80e6 d939 4e9a ce3b ccab 28bc
00000060: 43e1 19bc 917d 023c 3c88 99bb 6354 5d3b
00000070: a2f4 66ba e65b 3abc 7702 ee3b d675 dcbb

linear1_bn.weight f4 [32]
0.075363725 0.08048528 0.034648992 0.039184075 0.035881482 0.06674307 0.028664093 0.046790764
0.08949009 0.08446973 0.035482693 0.034378983 0.08070307 0.034456495 0.074494585 0.03338707
0.028000908 0.08302139 0.028058052 0.077242054 0.03509156 0.030358402 0.09044084 0.14450236
0.10210936 0.061302442 0.07544511 0.04703284 0.030031601 0.028538063 0.06269819 0.07071072
00000000: 4c58 9a3d 77d5 a43d 1aec 0d3d 7b7f 203d
00000010: 76f8 123d 97b0 883d f6d0 ea3c aca7 3f3d
00000020: 9546 b73d 77fe ac3d 4d56 113d fad0 0c3d
00000030: a747 a53d 4122 0d3d 9e90 983d e1c0 083d
00000040: 2962 e53c 1e07 aa3d 00da e53c 1531 9e3d
00000050: 2bbc 0f3d 2fb2 f83c 0c39 b93d 6df8 133e
00000060: b61e d13d 4518 7b3d f782 9a3d 82a5 403d
00000070: d504 f63c a8c8 e93c e967 803d c8d0 903d

linear1_bn.bias f4 [32]
-0.038914554 -0.03860761 0.022491192 0.014209026 0.014969022 -0.036637552 0.028028166 -0.0014446476
-0.03649458 -0.028741501 0.01869953 0.02077294 -0.023264177 0.0273864 -0.03658958 0.023133948
0.029413924 -0.03476905 0.01576676 -0.019935697 0.02417744 0.0040123337 -0.02989014 -0.13178152
-0.09325609 -0.021314796 -0.027581943 0.0018827847 0.033101954 0.016247703 -0.025170192 -0.055205163
00000000: de64 1fbd 0323 1ebd 733f b83c f9cc 683c
00000010: a140 753c 4211 16bd 539b e53c 545a bdba
00000020: 577b 15bd 4c73 ebbc c22f 993c 032c aa3c
00000030: 8494 bebc 7259 e03c f5de 15bd 6883 bd3c
00000040: 78f5 f03c fe69 0ebd 4b29 813c 3050 a3bc
00000050: c40f c63c e579 833b 2bdc f4bc bcf1 06be
00000060: 0dfd bebd 5e9c aebc 87f3 e1bc c5c7 f63a
00000070: ea95 073d e719 853c b831 cebc cf1e 62bd

linear1_bn.running_mean f4 [32]
3.3214269 -5.949801 -8.58184 -6.961648 0.36612982 15.948694 5.672476 -13.480989
-11.781727 0.4350886 -11.999936 1.098125 -13.718267 15.812583 -1.0774523 -2.3882966
-1.8038712 16.493633 9.806759 17.356108 -0.6152072 -6.0057178 8.882313 -9.138268
6.3076034 -1.9318106 -9.7692375 1.094889 7.0392985 -7.3819876 10.763397 0.19624527
00000000: 4292 5440 c564 bec0 374f 09c1 d2c5 dec0
00000010: 5e75 bb3e da2d 7f41 ec84 b540 22b2 57c1
00000020: f481 3cc1 efc3 de3e bdff 3fc1 5c8f 8c3f
00000030: 067e 5bc1 5700 7d41 f5e9 89bf dad9 18c0
00000040: 40e5 e6bf f6f2 8341 7ce8 1c41 4fd9 8a41
00000050: 387e 1dbf d72e c0c0 f41d 0e41 5936 12c1
00000060: e3d7 c940 9245 f7bf cc4e 1cc1 5325 8c3f
00000070: ef41 e140 3e39 ecc0 e036 2c41 85f4 483e

linear1_bn.running_var f4 [32]
101.863304 141.50613 72.06946 53.892555 38.985985 106.85122 39.852036 62.780685
296.72824 309.90698 74.72803 77.267365 244.36835 116.83552 112.32192 46.792686
41.25216 158.19125 28.187038 166.61247 84.34759 35.649868 131.9502 313.8804
273.86526 140.66183 295.356 81.46468 44.581497 49.390373 94.94086 135.0566
00000000: 03ba cb42 9281 0d43 9023 9042 fa91 5742
00000010: a6f1 1b42 d3b3 d542 7c68 1f42 6c1f 7b42
00000020: 375d 9443 18f4 9a43 c074 9542 e488 9a42
00000030: 4c5e 7443 c9ab e942 d3a4 e042 b62b 3b42
00000040: 3602 2542 f630 1e43 0e7f e141 cb9c 2643
00000050: f7b1 a842 7799 0e42 40f3 0343 b1f0 9c43
00000060: c1ee 8843 6ea9 0c43 91ad 9343 ebed a242
00000070: 7453 3242 be8f 4542 b8e1 bd42 7d0e 0743

linear2.weight f4 [39, 39]
0.10104504 0.13629116 0.15591243 -0.005614988 -0.2967008 -0.04725314 -0.022394653 -0.030847857
0.18881616 0.27496797 0.29012352 0.018346015 0.17528717 -0.16029873 0.05218687 0.09177085
0.005151229 -0.16778557 -0.26387882 -0.25308302 0.12087926 -0.8339655 0.19483876 -0.3086512
-0.17833097 0.08579692 -0.056302454 -0.02857405 0.20123348 0.38231775 -0.3309103 0.04297193
0.057920914 0.04958954 0.02199402 0.028571233 0.29608384 -0.24920362 -0.4562866 0.08704931
0.028289428 -0.0045068706 -0.033233058 0.13852666 -0.13904555 -0.20174101 0.037343528 -0.119544365
0.026254565 -0.12325032 -0.100347795 0.013313391 0.07788535 0.00029693422 -0.04908888 -0.0018309425
-0.101867914 -0.033543915 0.080729745 -0.0008837016 -0.07932792 -0.08926267 0.35092297 0.047323924
-0.03836821 0.16955695 -0.029404141 0.046755217 -0.024671119 -0.042809244 -0.027262868 -0.024804993
0.05748351 -0.21283926 0.0051954007 0.5892862 -0.2335365 -0.29138538 0.18539128 0.10240489
-0.016338179 -0.03990288 0.016173018 -0.14955993 -0.04158038 0.08020397 -0.06088071 0.21133748
0.12883696 -0.09859181 -0.088775575 0.24417047 -0.12312109 -0.14555652 0.15855457 -0.025003642
-0.127642 0.0065346207 -0.1870576 -0.117031895 -0.09489814 0.004415264 -0.17021765 0.088389136
0.038971648 0.020584825 0.06842023 -0.022982724 0.017593453 -0.14224523 0.22667599 0.026721235
0.091581 0.12575693 -0.2152571 0.12970476 0.04671855 -0.24420302 0.40949157 0.25852734
-0.9129221 0.23670313 0.3963991 -0.12135509 0.2521688 0.08600774 -0.80438423 0.29273754
-0.9696146 -1.0046141 -0.060190905 0.036171377 -0.3772805 -0.12330394 -0.026149033 -0.015410426
-0.2537425 -0.016286377 -0.054798193 -0.27159584 0.31219628 -0.26184043 0.98964024 -0.6780566
-0.44558296 -0.29944092 -0.3000353 -0.32352203 0.16139717 0.06102036 -0.09120183 -0.101115346
0.08917974 0.29196993 0.005677594 -0.13959034 -0.037607353 0.09384484 -0.006986984 0.1349707
0.073704325 -0.045518193 -0.025139032 0.08104123 -0.0587304 0.034863446 0.021500077 -0.13927902
-0.064933985 0.112773664 -0.21250907 0.03826414 0.018249184 -0.0628423 0.0085692415 -0.082380116
-0.113377266 -0.009951903 -0.013783312 0.09675711 0.039124787 -0.12174744 0.068317086 0.07214876
-0.010970345 -0.02540559 -0.054773714 -0.02129645 -0.17349884 0.1571828 0.085898735 0.4929718
-0.08941365 -0.14490093 -0.07149867 0.045488667 0.3153826 0.04727886 -0.22125787 -0.1350962
-0.061794512 0.1063032 0.16130255 -0.0449999 0.19415288 -0.12350972 0.11722848 -0.31653166
-0.03654211 -0.11368415 -0.05960965 -0.061808232 -0.07354911 0.28218865 0.1380922 -0.0772876
0.023441529 0.04955155 0.14141628 0.018417308 -0.115606405 0.3123005 0.14796886 0.17978843
0.08115508 -0.2550332 -0.20386358 -0.01442651 -0.17101328 0.1790085 0.15208256 0.25465292
-0.16206978 -0.2988792 -0.047019858 -0.034584343 -0.12388954 -0.109779544 -0.059037715 0.019015618
0.037993576 0.03529318 -0.016094072 0.02116277 0.05070879 0.027242804 -0.038261253 0.123493165
0.08964942 -0.06025931 -0.012042307 -0.019260904 0.15159522 0.07629912 0.016772898 -0.01832211
00000000: b4f0 ce3d e98f 0b3e 82a7 1f3e effd b7bb
00000010: 2be9 97be 828c 41bd fe74 b7bc a5b4 fcbc
00000020: 0659 413e 9ac8 8c3e 128b 943e 624a 963c
00000030: 7b7e 333e 5a25 24be e6c1 553d 5bf2 bb3d
00000040: a4cb a83b fbcf 2bbe 201b 87be 1994 81be
00000050: 8c8f f73d c37e 55bf d083 473e 8807 9ebe
00000060: 659c 36be 4cb6 af3d 679d 66bd 2014 eabc
00000070: 2610 4e3e 27bf c33e 136d a9be 5603 303d
00000080: 7b3e 6d3d 671e 4b3d ce2c b43c 380e ea3c
00000090: 4d98 973e 3c2f 7fbe 669e e9be e946 b23d
000000a0: 3bbf e73c 5fae 93bb 631f 08bd efd9 0d3e
000000b0: f561 0ebe 3295 4ebe 87f5 183d add3 f4bd
000000c0: d013 d73c aa6a fcbd 2583 cdbd 6920 5a3c
000000d0: 5b82 9f3d d6ad 9b39 6c11 49bd 3cfc efba
000000e0: 20a0 d0bd 5865 09bd a355 a53d 36a8 67ba
000000f0: ad76 a2bd 59cf b6bd 2dac b33e bbd6 413d
00000100: fc27 1dbd 56a0 2d3e f4e0 f0bc 6682 3f3d
00000110: 161b cabc bf58 2fbd 6156 dfbc d733 cbbc
00000120: d473 6b3d 89f2 59be 2e3e aa3b 76db 163f
00000130: 3124 6fbe 7730 95be 36d7 3d3e a8b9 d13d
00000140: a5d7 85bc 3471 23bd 477d 843c 3d26 19be
00000150: 3050 2abd fb41 a43d 0d5e 79bd da68 583e
00000160: d6ed 033e 81ea c9bd f8cf b5bd d307 7a3e
00000170: e926 fcbd c50c 15be 215c 223e 70d4 ccbc
00000180: 96b4 02be 5f20 d63b 078c 3fbe 6bae efbd
00000190: f559 c2bd ebad 903b 894d 2ebe 5d05 b53d
000001a0: bca0 1f3d 82a1 a83c e81f 8c3d 4446 bcbc
000001b0: 2520 903c bca8 11be c01d 683e 7ee6 da3c
000001c0: d28e bb3d 6dc6 003e 5b6c 5cbe 53d1 043e
000001d0: f35b 3f3d 5b10 7abe e1a8 d13e b25d 843e
000001e0: 43b5 69bf 4e62 723e d3f4 ca3e 0489 f8bd
000001f0: 451c 813e d324 b03d 20ec 4dbf b2e1 953e
00000200: aa38 78bf 3297 80bf bd8a 76bd 7028 143d
00000210: e92a c1be c786 fcbd 7f36 d6bc 037c 7cbc
00000220: 89ea 81be 026b 85bc 1274 60bd 9c0e 8bbe
00000230: 31d8 9f3e f30f 86be 1059 7d3f 1e95 2dbf
00000240: 7323 e4be 5250 99be 3a9e 99be aea4 a5be
00000250: 4d45 253e 7cf0 793d 06c8 babd 9015 cfbd
00000260: dea3 b63d 157d 953e 1c0b ba3b c5f0 0ebe
00000270: 2b0a 1abd b931 c03d 12f3 e4bb c235 0a3e
00000280: 4bf2 963d 4971 3abd 5ff0 cdbc f2f8 a53d
00000290: 4a8f 70bd f9cc 0e3d ee20 b03c 299f 0ebe
000002a0: 1cfc 84bd e1f5 e63d fa9b 59be dcba 1c3d
000002b0: 507f 953c 77b3 80bd 0166 0c3c e8b6 a8bd
000002c0: 5732 e8bd 4e0d 23bc 67d3 61bc 9728 c63d
000002d0: 5041 203d b956 f9bd d4e9 8b3d bbc2 933d
000002e0: f6bc 33bc 621f d0bc 675a 60bd e575 aebc
000002f0: aea9 31be 87f4 203e adeb af3d cd66 fc3e
00000300: 811e b7bd e960 14be e56d 92bd 5352 3a3d
00000310: d479 a13e 7aa7 413d 6c91 62be a956 0abe
00000320: 3e1c 7dbd 7eb5 d93d 7f2c 253e d151 38bd
00000330: 03d0 463e aaf2 fcbd 7c15 f03d 7010 a2be
00000340: 2ead 15bd 3cd3 e8bd 4029 74bd a12a 7dbd
00000350: eaa0 96bd 087b 903e 0b68 0d3e f648 9ebd
00000360: 7308 c03c 91f6 4a3d 6ecf 103e e5df 963c
00000370: 0dc3 ecbd dae5 9f3e 2685 173e 751a 383e
00000380: a234 a63d b693 82be 9dc1 50be 2b5d 6cbc
00000390: 1b1e 2fbe 014e 373e 88bb 1b3e de61 823e
000003a0: 9ff5 25be b206 99be e597 40bd 50a8 0dbd
000003b0: cdb9 fdbd 19d4 e0bd 88d1 71bd a4c6 9b3c
000003c0: 279f 1b3d 958f 103d b7d7 83bc 8c5d ad3c
000003d0: 05b4 4f3d 4d2c df3c d5b7 1cbd fce9 fc3d
000003e0: 1d9a b73d 77d2 76bd 194d 45bc 0bc9 9dbc
000003f0: c73b 1b3e b742 9c3d 5167 893c 4018 96bc

linear2.bias f4 [39]
0.08652877 0.1484977 0.15969081 0.011596533 -0.06851034 -0.07267055 0.01235745 0.053734034
0.019633682 0.077181965 -0.18120807 0.1808692 0.064164184 0.017008545 0.16648956 0.08349007
0.053283222 0.10733108 0.1470208 0.021813223 0.0045740837 -0.093372904 -0.05290077 -0.105519615
0.035648588 -0.06087573 0.06786804 -0.063783936 0.117268525 0.058233265 0.1411048 0.06847304
-0.076880865 -0.13074264 0.12844312 0.15834473 -0.019472562 0.048545465 -0.07198669
00000000: ff35 b13d c80f 183e fd85 233e 62ff 3d3c
00000010: 264f 8cbd 4cd4 94bd e776 4a3c 3818 5c3d
00000020: d1d6 a03c 9411 9e3d 9c8e 39be c735 393e
00000030: 8368 833d 8155 8b3c 3d7c 2a3e d8fc aa3d
00000040: 823f 5a3d 66d0 db3d 9f8c 163e a5b1 b23c
00000050: 32e2 953b 4b3a bfbd 7aae 58bd ab1a d8bd
00000060: 4104 123d d458 79bd 66fe 8a3d 27a1 82bd
00000070: 7b2a f03d 0186 6e3d c77d 103e 983b 8c3d
00000080: b773 9dbd 66e1 05be 9886 033e 1f25 223e
00000090: ec84 9fbc 9cd7 463d c26d 93bd
