saved_models/gear_unconstrained_3.pt (torch_old, 954435 bytes, 28 tensors)

conv1.weight f4 [32, 3, 4, 4]
000000 88 f1 ef bb 35 93 0a be 93 1c 4f 3d f3 20 de 3d
       -0.007322494 -0.13532718 0.05056436 0.10846128
000010 66 af 03 be ae 4f 67 3d f5 86 12 3d 5a f4 e0 3c
       -0.12859878 0.056472473 0.035773236 0.027460266
000020 41 38 74 bd 2b 13 12 be a6 7f e2 3d 6f 6e b2 bd
       -0.05962396 -0.14265124 0.11059503 -0.0871247
000030 5b 18 27 bd f9 1a 05 3e 28 f9 57 bd a7 76 fa bd
       -0.04079471 0.1299857 -0.05272785 -0.122296624
000040 74 d6 70 bd 8b 74 49 3d e9 df 8d 3d 8d de 10 bc
       -0.05879827 0.04918341 0.06927473 -0.008842123
000050 49 a3 16 be f7 b2 61 bd d1 f8 01 3e c4 b8 04 be
       -0.14710726 -0.055102315 0.12692572 -0.12961107
000060 7e a5 49 3c a6 5d c8 3d f0 da a8 bd 1a d2 4f bc
       0.012307523 0.09783487 -0.08244884 -0.012684369
000070 87 cb c9 bc 2b 7a 13 be 3b 19 82 3d df 18 4d 3b
       -0.024633182 -0.14402072 0.063524686 0.0031295342
000080 86 14 ed 3d 77 5c 73 ba ad 57 27 bd 6c 0f db bd
       0.1157618 -0.00092834927 -0.0408551 -0.10696301
000090 a9 aa 8f 3d d7 5c 17 bc 5d 08 18 be af 3c 1d be
       0.07014973 -0.009238443 -0.1484694 -0.1535518
0000a0 2c a0 ae bd 5b f6 ac 3d 6c d2 28 bd 35 97 80 bd
       -0.08526644 0.08445426 -0.0412163 -0.062788405
0000b0 7c ce 3c 3d da 87 3e bd e8 6b 06 3e 74 ca 04 3e
       0.046095356 -0.046516277 0.131271 0.12967855
0000c0 55 38 c1 3b 22 d7 9d 3d b6 97 e3 3d af b3 aa 3d
       0.005896608 0.07707049 0.11112921 0.08335053
0000d0 41 a2 02 bc 60 f4 ab 3d af 4e 91 3d 2a 55 26 bd
       -0.007973255 0.0839622 0.07095086 -0.040608563
0000e0 6d 56 07 3b a6 eb f2 3d 00 74 02 3e fe 04 99 3c
       0.002065088 0.118613526 0.12739563 0.018679138
0000f0 1b b8 8c bd 4c e2 14 3e f6 4c 10 3e c8 1c a4 3d
       -0.06871053 0.1453945 0.14091858 0.08013302
000100 fe 92 db 3d 93 82 d3 3d 54 90 ad bc 79 27 d4 3d
       0.10721396 0.103276394 -0.021186985 0.10359091
000110 7f ca 1f 3c c0 06 ab 3d 96 9b b2 3c 8b fd 49 3c
       0.009752869 0.08350897 0.021802705 0.012328516
000120 b9 76 65 bc 34 de 00 3e 8c 71 e8 3d 03 4f 61 bd
       -0.0140053565 0.12584764 0.11349782 -0.055006992
000130 ce 58 bb bd 6a 00 86 3d 20 dc 4c 3c 0b aa 8d bd
       -0.091477975 0.06543048 0.012503654 -0.06917199
000140 87 27 e3 bd 81 f3 8f bd 2e 11 32 bd 86 7a e6 bd
       -0.110915236 -0.070288666 -0.043473415 -0.11253838
000150 ba 12 16 3e a3 38 4f 3d 8d 81 16 3e 95 2a d1 bd
       0.14655581 0.050591122 0.14697857 -0.102132
000160 2c 18 e9 3d 5e b3 8a 3c aa d9 a5 3b 5b f6 a8 3c
       0.113815635 0.016931232 0.005061348 0.020625284
000170 c7 ce bb bd 68 a2 75 bc f7 3d b8 3b 7f 90 8e bd
       -0.09170299 -0.014992334 0.005622621 -0.06961154
000180 0f cd c1 3d d3 cc 08 be 10 47 b1 3d f2 bc ac 3d
       0.0946294 -0.13359384 0.08656132 0.08434476
000190 2e fe e5 3c f0 c2 13 be 4c 02 12 be 82 59 aa 3d
       0.028075304 -0.14429832 -0.14258689 0.083178535
0001a0 c4 33 73 bd d8 d6 13 be da 99 86 3d 3a 61 05 be
       -0.05937554 -0.14437425 0.065723136 -0.1302537
0001b0 cb 98 09 3e ea 5d 28 bc 98 66 7a bd 71 3f 0a be
       0.13437192 -0.010276297 -0.061132997 -0.13500763
0001c0 ee c6 8f bd 91 55 02 bd 03 42 7c 3c b2 36 11 3e
       -0.07020365 -0.031819884 0.015396598 0.14181021
0001d0 65 8c cb 3d 11 a1 6f 3d a1 f8 a2 bd d3 03 4c bd
       0.099388875 0.058503214 -0.079575785 -0.049808335
0001e0 8b 84 d3 3c 20 f1 85 3d 33 82 c0 3d 68 0b ad 3c
       0.025820037 0.065401316 0.093998335 0.021123603
0001f0 e4 c5 f0 3d e0 9f 73 bc 97 a2 c6 3c 79 a7 11 be
       0.11756495 -0.01486966 0.02424745 -0.14224042
000200 57 57 e1 bc 3b c4 01 bc 09 9f e1 bd 91 04 88 bd
       -0.027507467 -0.00792032 -0.11016662 -0.06641496
000210 e8 17 03 3e c3 2a 0d be 6c e1 87 3d 59 17 0f be
       0.12802088 -0.13785844 0.06634793 -0.1397375
000220 05 c1 d6 3c cf ea f7 3c 6f 55 df bd 34 eb 0c 3e
       0.026215086 0.030263333 -0.10904967 0.13761598
000230 cd 1c da 3d 05 82 e1 bc 56 ae 01 be b7 cf 14 3d
       0.106500246 -0.027527818 -0.1266416 0.036330905
000240 04 9e 00 be 92 b4 7f 3d c3 bb fe 3d 8d 9f e7 bd
       -0.12560278 0.062428065 0.124381565 -0.11309729
000250 4d 04 36 bd be eb 03 3e 59 cd 48 bd 16 bb 85 bd
       -0.044437695 0.12882897 -0.04902396 -0.065298244
000260 2d 3d a2 3d fa ef 51 bd 11 0b f1 3d 72 92 6f 3d
       0.079218246 -0.05125425 0.11769689 0.05848927
000270 d7 65 f3 bd 33 f0 18 bd bc 58 0d 3e 34 83 a9 3c
       -0.11884659 -0.037338447 0.1380338 0.020692445
000280 35 58 d1 bd d2 98 bb bc a9 4f ec 3d e3 86 09 bd
       -0.10221902 -0.022900019 0.115386315 -0.033575904
000290 a6 f7 ad 3d bd ea 57 3d 26 eb 14 be a6 8c f9 3d
       0.08494501 0.0527141 -0.14542827 0.1218503
0002a0 c6 6e 13 3e c2 bb a1 bd c7 9f 0c 3e 77 60 d5 bd
       0.14397725 -0.0789714 0.13732825 -0.1041879
0002b0 70 f9 b8 bd c8 c8 15 bd 61 2a d0 bd 81 3b dc bc
       -0.090319514 -0.036568433 -0.10164333 -0.026883842
0002c0 5b 12 d8 3d 3a 83 86 bb ac 0f e9 bd 1f 02 fc 3c
       0.10550376 -0.004104999 -0.11379942 0.03076273
0002d0 6d f4 02 3d f7 aa 2a 3d 16 1f ae 3d 57 f6 dd 3c
       0.031971384 0.04166695 0.08502023 0.027095003
0002e0 42 d9 ca 3d 90 de d5 bd 79 97 05 be 63 de ef bd
       0.0990472 -0.10442841 -0.13046063 -0.11712339
0002f0 47 c7 07 3d c2 9a 82 bd 02 b1 bd 3c 4e 28 2d 3d
       0.03314903 -0.06377174 0.023155693 0.042274766
000300 38 4d c4 bd bb 8f fb bd 3a 32 a2 3d 6b 61 df bd
       -0.09585041 -0.12283274 0.07919736 -0.10907253
000310 f7 d0 2d 3d 73 4f ca 3d 6f 40 0a 3e a9 8f 6f bb
       0.042435613 0.09878435 0.13501142 -0.0036554134
000320 29 89 27 bd 0e 1d ab 3c ac 70 a2 3d b8 57 b6 3d
       -0.04090229 0.020887878 0.07931647 0.0890345
000330 93 93 64 b9 43 8c f3 3d d6 58 68 bc 39 d8 a0 3d
       -0.0002179875 0.11891987 -0.014181336 0.07853741
000340 5e 10 76 bd d1 57 97 3c ed e2 0e be 0d 0a 4a 3c
       -0.060074203 0.018474491 -0.13953753 0.012331498
000350 8b 36 be bb 9d 68 16 3e 9c 16 07 be 04 d7 cf bc
       -0.005804842 0.14688344 -0.13192219 -0.025371082
000360 ae 08 ad 3d f8 34 86 bc 2a 8d 26 bd 01 e4 8c 3d
       0.08448921 -0.01638268 -0.04066197 0.06879426
000370 b9 5e f2 3c 0d 45 57 bd dc 6c e0 3d 7b 3e d8 bd
       0.029586183 -0.052556086 0.10958263 -0.10558792
000380 7d 2a 66 3d 79 45 83 3b 67 66 07 3d 58 21 b1 bd
       0.056192864 0.0040060845 0.033056643 -0.08648938
000390 6a cd 3f bd df c9 fc 3d fb 21 12 bd a9 ef e7 3d
       -0.046826757 0.12343191 -0.035676938 0.113250084
0003a0 83 fe 1f bd 9b 5e 93 bd 6c de 9e 3d 33 5f ba 3c
       -0.03906108 -0.07195779 0.07757267 0.022750473
0003b0 6c dc ec 3d f5 6d a2 3d 1d 72 b5 3d fa 5e 8d 3c
       0.1156548 0.07931129 0.08859656 0.017257202
0003c0 7e 42 03 3e e8 2d f5 bd 0b 0d a3 3d 6f f2 b5 3d
       0.12818334 -0.119716465 0.07961472 0.08884131
0003d0 8d 03 e3 bc 73 3e b1 bd 5c b3 f5 bb 54 98 55 bd
       -0.027711654 -0.08654489 -0.007498188 -0.052147225
0003e0 c7 63 8f 3d 60 4d 7b bc ed 88 db 3d f0 16 7e bd
       0.07001453 -0.015338272 0.10719476 -0.062033594
0003f0 22 4b 0f 3e 8a 06 ab bc 81 39 d2 3d c3 f0 00 3e
       0.13993505 -0.020877142 0.10264874 0.12591843

conv1.bias f4 [32]
000000 fa df 61 3d 1d 0d 0e be 3b 43 0a 3e 65 39 86 3d
       0.05514524 -0.1387219 0.13502209 0.06553916
000010 eb 4d bd bc a8 52 02 3e b2 56 f7 3c 97 ef 42 3d
       -0.023108443 0.12726843 0.030192707 0.047591772
000020 e2 59 87 bd 15 05 97 bd 75 ae 97 bd a5 8f 4b bd
       -0.06608941 -0.07374016 -0.07406322 -0.049697537
000030 fa 6b 77 3d 82 ec 5b 3d 08 db cb bd b1 04 fa bd
       0.06040571 0.05369235 -0.09953886 -0.12207926
000040 0b 82 65 3d e5 32 99 bd c2 6a 9f bd cc a8 d4 3d
       0.05603222 -0.074804105 -0.07784034 0.10383758
000050 c1 b3 05 3d 9b 25 de bd 15 6b 90 bd e8 4a 61 bc
       0.03264213 -0.108470164 -0.07051674 -0.013750769
000060 66 8f b0 bd b0 92 91 3d a8 c0 a7 bd 80 bd ba bd
       -0.08621101 0.071080565 -0.08191043 -0.091181755
000070 f7 8b 0a be 5d 13 0a bd 8e 24 b6 3d 67 bb d9 3d
       -0.13529955 -0.033709873 0.08893691 0.10631447

conv1_bn.weight f4 [32]
000000 b7 e7 34 3f a1 cc 21 3f 0d ad e4 3d 18 7a 96 3d
       0.7066607 0.63202864 0.11165819 0.07347506
000010 c2 f7 98 3e 2e 3f 19 3f 65 55 8f 3e 9d db f3 3e
       0.29876524 0.5986203 0.27994838 0.4762849
000020 02 ba 1a 3e 14 e2 9d 3e 26 a5 7b 3e 59 ab 67 3f
       0.15110019 0.30836546 0.24574718 0.9049583
000030 4d 44 1d 3f ad 77 18 3f ff ae 6a 3e 1e 06 d7 3e
       0.61432344 0.5955761 0.22918318 0.41996855
000040 2e be 6b 3f d2 4c f8 3e 4b d3 37 3f 44 e7 e8 3e
       0.92087066 0.4849611 0.7180678 0.45488942
000050 62 06 3d 3f 8b 94 43 3f 74 da 00 3f 01 56 5f 3f
       0.73837864 0.76398534 0.50333333 0.87240607
000060 f6 91 56 3e 3a 1d e9 3e cc 3b 4e 3e 7b 4a 60 3f
       0.20954117 0.4553011 0.20139998 0.8761365
000070 14 9f 5b 3f 9d 95 bc 3d ca 10 11 3f 55 af 37 3f
       0.8578961 0.09208224 0.56666243 0.7175191

conv1_bn.bias f4 [32]
000000 e6 e4 6f 3c b2 78 4f bb 6f 6f 51 3b 5e 34 3b 3c
       0.014641976 -0.0031657633 0.0031957289 0.0114260595
000010 db 73 10 3c 5c 50 30 3c 5b 47 b0 3a ad a7 d5 bb
       0.008816685 0.010761347 0.0013449 -0.0065202327
000020 9e bb 7b 3a 51 8f 47 3c 38 c1 c6 3c e0 2b d9 bb
       0.0009602847 0.012180165 0.024262056 -0.0066275448
000030 ba 99 42 3c 88 81 df 3a 6c 4e a3 bb 7c ef b3 3b
       0.011877472 0.0017052153 -0.004983714 0.0054911952
000040 c8 71 46 3c 6f d3 2d 3c 1c 2c 86 3c f0 b5 88 bc
       0.0121120885 0.010609492 0.016378455 -0.016688317
000050 c9 97 80 3c a1 f7 19 3c f5 8d 2f 3b 94 d5 21 bc
       0.015697377 0.009397418 0.0026787494 -0.009877581
000060 0b ff e1 bb 07 03 9a 3b 52 0f 9f bb 38 c8 7c bc
       -0.0068968586 0.004700068 -0.0048541212 -0.015428595
000070 3f 77 1c 3c 63 c6 2a bc ed 91 ae 3b 6b 13 3e bc
       0.009549915 -0.010423276 0.0053274543 -0.011601309

conv1_bn.running_mean f4 [32]
000000 65 e7 9f be d8 a6 2b 3f 09 d0 72 bd 4d c5 99 3d
       -0.31231228 0.6705146 -0.05928043 0.07508335
000010 e8 35 c6 3e bf 87 72 3f 12 ce 89 3e c6 69 0b 3c
       0.38713002 0.9473838 0.26915032 0.008509105
000020 a4 58 07 be 02 ad 2e be 23 27 e0 be 72 3f ed be
       -0.13217407 -0.17058185 -0.4377986 -0.46337467
000030 65 1e 73 be 96 e9 82 3f 9c 79 0a be f6 32 cd be
       -0.23742063 1.0227535 -0.13522953 -0.40077943
000040 8f fc 0b 3f 3f ec db 3e 46 b1 1c 3f b9 8a 7f bd
       0.5468225 0.4295368 0.61208 -0.062388156
000050 06 2b 34 3f 69 71 9c bd 4f 0f fb be 84 56 5e be
       0.7037815 -0.07638819 -0.49035117 -0.2171269
000060 71 76 70 3e 87 78 36 3e 14 2a 37 3e b3 86 21 bd
       0.23482682 0.17819415 0.17887145 -0.0394351
000070 83 a2 13 bf a2 5a e9 be f5 07 f9 3c 12 54 26 be
       -0.5766985 -0.4557696 0.030399302 -0.16243008

conv1_bn.running_var f4 [32]
000000 16 8f ed 3b 03 11 16 3d 25 a5 bb 3b d0 b8 f5 3a
       0.007249723 0.036637317 0.005726474 0.0018747095
000010 85 86 3d 3c 4d f4 01 3d 9a d4 8f 3b 75 53 ea 3a
       0.0115677165 0.031727124 0.0043893578 0.0017877655
000020 5a 33 69 3b 3e b4 52 3b 50 05 0c 3c 12 00 57 3c
       0.0035583586 0.003215089 0.0085461885 0.013122575
000030 e7 b2 ba 3b f6 72 3b 3d 28 22 26 3b aa dc 0c 3c
       0.0056975964 0.045763932 0.0025349949 0.008597532
000040 5f 9f 68 3c 14 10 80 3c eb 1b cf 3c 6a 4e 7d 3b
       0.014198153 0.015632667 0.025281867 0.0038651475
000050 78 99 be 3c 5e 5e b3 3b 9a d7 2c 3c a6 c0 68 3b
       0.023266539 0.005473896 0.01054945 0.0035515218
000060 e7 c0 ff 3b 31 94 43 3b 39 d3 81 3b 61 85 9b 3b
       0.007804978 0.0029842968 0.0039619473 0.0047461246
000070 29 40 22 3c 3d d0 34 3c 20 91 37 3b 9b fb aa 3b
       0.009902992 0.011035976 0.0028010085 0.005217982

conv2.weight f4 [32, 32, 4, 4]
000000 44 4b cb 3c 2c 78 b1 3c 04 56 fb 3c d0 79 94 bc
       0.024816163 0.021663748 0.030680664 -0.018124491
000010 21 08 b5 bc 41 e8 2c 3d bd 37 0a 3c 50 3d 68 3d
       -0.022098603 0.042213682 0.008436141 0.056699097
000020 fb 90 b0 3c 47 c5 f1 bc 39 94 43 bc 5e 24 b5 3c
       0.021553507 -0.029513014 -0.0119371945 0.022112068
000030 6f 76 c9 3c 0b ca 42 bd 2a 72 41 3d 5a f9 cf bc
       0.024592606 -0.047555964 0.047228016 -0.025387455
000040 73 ee a8 bc 51 93 a3 bc 34 47 e2 3b 6a f4 d6 bc
       -0.020621514 -0.019967707 0.0069054607 -0.026239593
000050 8b 6d 92 3c 00 a8 07 bd 0d f3 22 bc 23 f6 4b 3a
       0.0178745 -0.0331192 -0.009945643 0.00077805127
000060 87 cb fe 3c d6 d4 de bc 23 ca eb 3c 48 39 3c 3d
       0.031102909 -0.027201097 0.02878291 0.045953065
000070 9c 65 02 3d 3a 7e 22 bd 47 42 1f 3d 0e a7 63 3c
       0.031835184 -0.03967116 0.038881566 0.013894809
000080 d5 26 82 3c 88 7f f6 3c 3c 54 b2 3b ab 9a 0a bd
       0.015887657 0.030090109 0.0054421704 -0.03383891
000090 0c 46 ea bc 45 05 08 3d d3 8f a4 bb d6 73 22 3c
       -0.028597854 0.03320815 -0.005022028 0.009915313
0000a0 f8 36 1e 3d a1 60 47 39 de 53 99 bc 7c d8 25 bd
       0.03862664 0.00019014116 -0.018716749 -0.04048966
0000b0 fc c7 d0 bc e0 01 bf 3c 8e 2b f0 3c 1a b6 38 3c
       -0.025485985 0.023316324 0.029317643 0.011273885
0000c0 cc b8 72 bc f3 6d d8 3b 8f 7e 6e bb 01 05 88 bc
       -0.014814567 0.006604904 -0.0036391353 -0.016603949
0000d0 21 11 16 3d e6 55 78 3d b7 d3 2b 3d 6b 4d 1e bd
       0.03663743 0.060628794 0.041949954 -0.03864805
0000e0 48 bd 60 3d 61 42 cd 3c d2 86 34 3c 39 04 10 3d
       0.054868013 0.025056066 0.011018472 0.035160277
0000f0 bb cd 06 bd 07 a1 46 3c b0 26 2c bd fb 4e 16 3d
       -0.032911044 0.012123353 -0.042029083 0.036696415
000100 51 8e 88 bb 9c 1a 5e 3c e7 e5 1f 3d 89 b1 55 3d
       -0.004167356 0.013556149 0.03903761 0.052171264
000110 1d 38 e4 bc f2 62 d4 bb de a0 5e 3d 0a 1e d0 3c
       -0.027858788 -0.0064815218 0.054352634 0.025404949
000120 e7 ed 51 bc aa 3e 4a 3d 4b 99 81 3c be d3 39 3d
       -0.012813068 0.049376167 0.015820166 0.04536795
000130 ee 1f c1 bb 58 eb 4e 3d 9b dc 15 3d 5d 87 af bc
       -0.005893699 0.05051741 0.03658734 -0.02142685
000140 99 13 32 3c 19 d0 50 bc bc 9f 1d 3c e5 6a 1d 3c
       0.01086893 -0.012744927 0.009620603 0.009608005
000150 23 ef 0b 3d 56 98 cb 3c 33 cb 1e bd 98 92 50 3c
       0.034163605 0.024852913 -0.038768005 0.012730263
000160 40 68 5e 3d 84 76 2d 3d ce bb 1f bc ef 1a 9d 3c
       0.05429864 0.042349353 -0.009749366 0.019177882
000170 d2 86 33 3d c1 7e ad bb 59 ee 08 3c aa 2b 38 3b
       0.043829747 -0.0052946513 0.008357608 0.0028102198
000180 f5 b3 0c 3d 01 09 16 3d 36 a0 c5 3c c6 f5 bb 3c
       0.034351308 0.03662968 0.024124246 0.022944342
000190 c1 e3 5f bc 19 89 52 bc 28 c9 d8 bc 48 ba 59 3d
       -0.013665141 -0.012850069 -0.026463106 0.053156167
0001a0 57 f8 2d 3d 18 b9 8b 3c bb 2d 41 3d c5 82 a0 bc
       0.042473163 0.017056033 0.047162753 -0.019593606
0001b0 58 2c 54 3d cb 58 9e bc 9c b9 b9 3c 0d 46 80 bc
       0.051800102 -0.01932945 0.022671513 -0.015658403
0001c0 96 b7 2e bd df b6 10 bd 34 63 3f 3d 30 84 46 3d
       -0.04265555 -0.03533065 0.046725467 0.048465908
0001d0 69 73 c9 bc c0 05 39 bc de f6 d1 3c 70 b6 db 3c
       -0.024591165 -0.011292875 0.02563041 0.026820391
0001e0 2d 8c aa bc 24 ab 63 3d 8a 27 b8 3a 54 b2 30 3c
       -0.020818794 0.055583134 0.001404987 0.010784704
0001f0 22 d8 00 bd 03 9c 0f 3c 62 93 ee bc f1 73 08 bc
       -0.03145612 0.008765223 -0.029123012 -0.008328424
000200 a8 54 2a bd 0f 1f d8 3c 18 07 95 ba 09 bc fd bc
       -0.04158464 0.026381997 -0.0011369912 -0.030973451
000210 aa 91 03 bd 26 16 f5 3b d2 e5 9f 3c fa 67 e9 bb
       -0.032121338 0.007479447 0.019518767 -0.0071229907
000220 a0 9c 37 bd a0 5a 5a 3c 7d b9 d8 bc ab 2c 0e bd
       -0.044827104 0.013327271 -0.026455635 -0.034710567
000230 a4 9c c3 bb e1 24 05 bd 1d 8f ff bb ff a6 51 bc
       -0.0059696008 -0.032505874 -0.007799043 -0.012796163
000240 c2 87 af bb 38 f5 cb bb 9b 28 32 3d e1 27 c7 3c
       -0.0053567598 -0.0062243007 0.043495756 0.024311008
000250 60 8a f3 3b 02 ca 40 bc 1d 31 54 3d 4c 2e 27 bc
       0.007432267 -0.011766912 0.05180465 -0.010203909
000260 4b 33 e9 bb 54 f5 c1 bc 87 4c 19 3d 81 d2 49 bc
       -0.0071167103 -0.023676552 0.037426498 -0.012318254
000270 3a 19 83 3c 73 78 3c b9 ec b0 bb bc ca 3a 53 3d
       0.01600324 -0.00017973948 -0.022911511 0.051569737
000280 ab a2 50 3d de 4a fc 3b 9d 2a 71 3b 91 d4 1c bd
       0.050936382 0.0076993546 0.003679908 -0.038288657
000290 0b af 2a 3d 2c f5 09 bd 1f 50 92 3c cd 70 41 3c
       0.04167084 -0.03368108 0.01786047 0.011806679
0002a0 63 d7 1a bd 66 30 23 bd 2d 49 35 3d b7 e8 48 bc
       -0.037803065 -0.03984108 0.04425924 -0.012262515
0002b0 87 0e 3d b9 73 56 14 bd 17 cb e3 3c 22 22 b9 3c
       -0.00018029856 -0.036215257 0.027806802 0.022599284
0002c0 71 ae 54 3c 7e ba b8 bb c7 53 9f bc 3b 41 ee 3c
       0.012981043 -0.005637466 -0.019449128 0.029083839
0002d0 66 e6 96 3b 88 d9 5b bc 28 ca 5f 3c ae 57 6a 3c
       0.0046051024 -0.013418563 0.013659038 0.014303131
0002e0 e0 51 1f bd 62 12 e4 bc 5f c9 65 b9 ed c9 a1 3c
       -0.03889644 -0.027840797 -0.00021914158 0.019749606
0002f0 85 c4 1e 3b 28 9f ff bb d5 65 c3 3b 4a ad 7c 3c
       0.0024226021 -0.0078009553 0.005963067 0.015422175
000300 91 00 9b 3c 9d 7a 97 3c 75 61 49 bc 9d df a4 bc
       0.018921169 0.018491084 -0.012291302 -0.020126158
000310 7d 49 2e bd 4c b3 76 3c b9 0a 02 3d ff 57 c3 bc
       -0.042550553 0.015057396 0.031748507 -0.02384567
000320 f7 e1 50 3c 1f b2 b9 3c a2 90 7e 3c 87 a6 9e bc
       0.012749187 0.022667943 0.015537413 -0.019366516
000330 e5 65 34 bd 0e 18 32 3c 7d b3 f0 3c 64 c3 1a 3b
       -0.044042487 0.010869993 0.029382462 0.0023614997
000340 78 00 45 3d 66 e9 8d 3c 71 06 b2 3c 24 65 a9 3b
       0.04809615 0.017323207 0.021731587 0.0051695276
000350 e7 db 9b 3c 99 57 dd 3c 60 d1 c3 bc fe 8f 98 3c
       0.019025756 0.027019309 -0.023903549 0.018623348
000360 e5 cc 24 3c 28 ec f4 3c 79 dc 17 bd 12 fd 88 ba
       0.010058616 0.029897764 -0.037075493 -0.0010451397
000370 54 e5 3b 3d 06 de f1 bc 86 1a 80 3c 88 4e 21 ba
       0.045873 -0.029524814 0.015637647 -0.00061533647
000380 5d 92 ac bb 96 07 a0 bc 38 24 48 bd 4c fa 85 3c
       -0.0052664713 -0.019534867 -0.048862666 0.016354702
000390 de 65 1d bd f3 80 af 3b 9d 53 24 bd 07 b1 3c bd
       -0.038427226 0.005355948 -0.040118802 -0.046067264
0003a0 9b fa 89 3b c3 73 12 bd c2 f1 3f bd 40 e1 32 bd
       0.0042107827 -0.03575493 -0.046861418 -0.043671846
0003b0 52 98 3d bd 06 ea 7d 3b d7 d7 48 bd 64 5e c3 3c
       -0.046287842 0.0038744225 -0.049033966 0.02384872
0003c0 70 bf 62 bd 0c 00 c8 3c 86 e0 1d b8 39 e3 2e bd
       -0.05535835 0.024414085 -3.764082e-05 -0.042697165
0003d0 38 ae a8 bc 5e 1c f7 3b 38 b7 ad bb 87 d8 25 3b
       -0.020590886 0.0075412234 -0.0053013824 0.0025306062
0003e0 0a 9b 36 bb 7d 5f c4 3c 42 a1 85 bc 4b 15 eb 3b
       -0.0027863407 0.023971314 -0.016312245 0.007174169
0003f0 fa 8e 2c bd a0 4c 63 3b 36 79 ed bc d8 83 56 3c
       -0.04212854 0.0034683123 -0.028988462 0.013092957

conv2.bias f4 [32]
000000 c0 2c 0a bc e1 1d 23 3c cf cc e2 3b 36 c9 f7 bc
       -0.008433521 0.009955854 0.0069213877 -0.030247312
000010 44 a0 32 bd cf f6 a9 3c 7e e3 0f bc 09 3b 6f bc
       -0.043609872 0.02074757 -0.008782266 -0.014601477
000020 98 a8 c6 3c 2a 3e db bc 64 0a 12 bd e7 30 29 bb
       0.024250314 -0.02676304 -0.03565444 -0.0025816502
000030 fe c0 ee 3c 8e 19 20 bd 7b f4 01 bb d7 e0 8b 3c
       0.02914476 -0.03908687 -0.001982956 0.017074985
000040 d0 60 02 bc 69 d7 c9 3c ab 19 20 3d 34 64 19 bd
       -0.007957652 0.024638848 0.03908698 -0.037449077
000050 87 01 92 3c 68 a5 34 bd 75 77 c4 3a e4 40 16 bd
       0.017822994 -0.044103056 0.0014989214 -0.03668298
000060 bd 47 b1 bc 1a c7 91 3c 4c 97 74 bc 57 81 b1 bc
       -0.021640653 0.017795134 -0.01492865 -0.02166812
000070 ea e4 cc 3c e5 5e 1f bc 71 43 2a bd ca f6 16 3d
       0.025011498 -0.009727214 -0.041568223 0.03685645

conv2_bn.weight f4 [32]
000000 1e df 94 3e e6 c2 eb 3e 59 87 38 3f e6 27 62 3f
       0.29076475 0.46047133 0.72081524 0.8834213
000010 b6 a8 83 3e 69 8f 3b 3c b7 08 2f 3f bb ad 52 3f
       0.25714654 0.011447766 0.6837267 0.8229634
000020 8e c7 93 3e f7 a4 68 3e ed 8e 79 3f 17 ea 26 3f
       0.28863186 0.22719179 0.9748371 0.6520094
000030 ee 4e 46 3f 45 73 60 3f 71 b8 3a 3f ea 12 19 3f
       0.7746419 0.8767589 0.72937685 0.59794486
000040 b9 2e ab 3d 02 a4 bf 3e 45 83 34 3f e1 92 73 3f
       0.08358521 0.37429816 0.705128 0.95145994
000050 5b 0c ac 3d 41 e6 99 3e 36 b2 78 3f f8 60 51 3f
       0.08400794 0.30058482 0.9714693 0.8178859
000060 da c6 cc 3e 90 c8 63 3e 20 57 2b 3e 43 c3 29 3f
       0.39995462 0.22244477 0.16732454 0.6631357
000070 95 7f 2e 3f ca 7e 4b 3f 5b 4b db 3d 8c db b9 3e
       0.68163425 0.7949034 0.10707732 0.36300313

conv2_bn.bias f4 [32]
000000 24 0d c7 3c ba 75 b4 bc 46 35 2d 3c 8f fa 41 bc
       0.024298258 -0.022028793 0.010571783 -0.011839523
000010 f9 4e 41 3b ba 01 7e bc 5a c1 72 bb c7 25 3c bb
       0.0029496534 -0.015503341 -0.0037041516 -0.002870904
000020 eb a6 7a bb 04 cb 65 bc b2 9a 88 3b a5 6b b2 3b
       -0.0038246464 -0.0140254535 0.0041688317 0.005444961
000030 65 30 88 3a 71 0f db 3b c6 68 1a 3d 30 a3 5d 3b
       0.0010390399 0.0066851904 0.037697576 0.003381919
000040 b1 2b 07 3d 90 e8 63 bc 53 d3 14 bb 57 a7 51 3d
       0.03300065 -0.013910428 -0.0022708967 0.05118498
000050 bd a3 ce bb 2a 46 99 bc ec 7b a9 3c 1f 73 da ba
       -0.00630614 -0.018710215 0.020688973 -0.0016666389
000060 07 92 c2 bb 5e 7e 48 3b cf 32 3e 3b 37 30 6b ba
       -0.005937818 0.00305929 0.0029021984 -0.0008971723
000070 f5 f6 27 3b 70 be c8 3b e3 1a eb 3a 87 9b b0 3c
       0.0025629376 0.0061262175 0.001793709 0.021558536

conv2_bn.running_mean f4 [32]
000000 1f 0c 58 3e ce 56 fc 3e 94 9d f5 3d b7 48 1f 3e
       0.21098374 0.49284977 0.11992946 0.15555082
000010 60 9e d4 bc 80 fb 6f be 8c 87 eb bd d6 a9 49 bd
       -0.025954425 -0.23435783 -0.11500463 -0.049234234
000020 69 a8 68 3e f2 8f 48 bd 16 2c 70 be 66 1c 35 3c
       0.22720493 -0.048965402 -0.23454317 0.011054134
000030 f7 17 0c be 56 ee 64 3e 80 d6 15 3e cc ea 87 be
       -0.13681017 0.22356543 0.14632607 -0.26546323
000040 f9 47 8b bd 82 48 2b be b0 89 07 3e 7e a4 76 be
       -0.06800837 -0.16726878 0.13236117 -0.24086186
000050 63 4e 22 3e 1d fa 0c bd f8 73 f9 3c 1f ee 36 3e
       0.15850215 -0.034418214 0.030450806 0.17864273
000060 6b 40 84 be 21 07 95 bc 9f 61 3d be f8 f5 2d 3e
       -0.25830397 -0.018191876 -0.1849427 0.16988361
000070 2a 21 11 3e 4c 4c c3 3d bf b3 6d 3d f9 99 e7 bd
       0.14172807 0.09536037 0.058032747 -0.11308665

conv2_bn.running_var f4 [32]
000000 be 28 84 3e e5 ff e3 3d 01 73 3b 3e 13 57 b7 3e
       0.25812334 0.111327924 0.1830559 0.3580862
000010 7a e5 64 3e 79 09 fb 3d b3 ce ab 3d b1 35 b8 3d
       0.22353163 0.12257666 0.08389034 0.08994616
000020 00 95 cc 3e 6f bc 85 3d 05 47 20 3e e6 8f 25 3f
       0.39957428 0.065300815 0.15652092 0.64672697
000030 93 30 ee 3d 1c 5c 1f 3e da d6 30 3e b6 6a 0c 3e
       0.116303585 0.1556248 0.1726946 0.13712582
000040 80 27 3a 3d 1a d0 ed 3e 0e 98 91 3d 8c 9c 90 3e
       0.045447826 0.4644783 0.0710908 0.28244436
000050 12 4a 30 3e fb a2 db 3d ae e8 d9 3d e2 32 f0 3e
       0.17215756 0.107244454 0.10640083 0.4691382
000060 e1 9e f4 3d cd b8 be 3d 66 89 98 3d 5b 29 be 3e
       0.11944366 0.09312592 0.07448082 0.37140927
000070 91 0b d4 3e d5 3b 30 3e 43 91 92 3d a6 fc 81 3d
       0.41415074 0.17210324 0.07156613 0.06347017

conv3.weight f4 [32, 32, 4, 4]
000000 8a ea 12 bd fd dc 31 bd 58 e2 2e bd c9 42 3a bd
       -0.035868205 -0.04342364 -0.042696327 -0.045473848
000010 21 31 0a bd d9 d5 19 bc f5 e5 49 bd 2d 4d 4f 3c
       -0.03373826 -0.009389364 -0.04929157 0.0126526775
000020 9c 7c 71 3d 64 7a 1e 3d 54 8f 00 bd b0 a6 2c 3c
       0.058956727 0.03869094 -0.03138669 0.010537788
000030 c3 08 ca bc e1 c0 ef 3c ca 4d c8 3c 3e 6d 34 3d
       -0.024662381 0.029266777 0.024451155 0.044049494
000040 6d 2b 12 3d d7 39 9b bc 57 3d 1a bc f8 2e 35 bc
       0.035685945 -0.018948479 -0.009414039 -0.0110585615
000050 94 da 0f bd 8e 6c f4 bc 66 33 df bc 70 2c d5 3c
       -0.03512056 -0.02983692 -0.027246188 0.026022166
000060 a6 45 7d bc a7 96 17 3d b6 39 0b bd 69 31 ca 3c
       -0.0154585 0.037008908 -0.033990584 0.024681764
000070 03 94 0f 3b 67 dd 66 3c d0 20 26 bc 3b fe 4c bd
       0.002190829 0.014090872 -0.010139659 -0.05004714
000080 ff ba 69 bd 97 da e3 3b 80 df 08 3d c2 05 89 bc
       -0.0570631 0.006953548 0.03341627 -0.016726378
000090 ea 31 00 bd d2 9e b8 3c f6 47 15 bd ee 4f f1 3b
       -0.0312976 0.022536669 -0.03644558 0.0073642647
0000a0 ec 7c 3a bd a4 fb 4e 3c 97 95 b5 bc 8d 77 53 bd
       -0.04552929 0.012633238 -0.022166057 -0.051627684
0000b0 4d df fb bc 49 11 35 3d ad 6f 65 bd 04 9a f2 bc
       -0.030746127 0.044205938 -0.056014705 -0.029614456
0000c0 52 ff f1 39 45 11 98 3c 37 7d be 3c 7a fa 32 bd
       0.0004615733 0.018562922 0.023253066 -0.043695904
0000d0 6f 33 aa bc 20 98 83 3a 15 7e 2a 3d cd c7 e7 3c
       -0.020776479 0.0010039844 0.041624147 0.028293515
0000e0 94 3e 17 3d c8 73 f4 3c cc 37 d4 3b 1a 3a 55 bc
       0.036924914 0.029840365 0.006476378 -0.013014341
0000f0 43 1c 0e 3d 35 5b 4c bd 76 8b 33 bd 5a ad 2b 3c
       0.03469492 -0.04989167 -0.043834172 0.010478342
000100 38 22 bc 3c a9 8f 32 3d be de 80 3c 4f f4 84 bd
       0.022965536 0.043594036 0.015731212 -0.06491911
000110 e4 a6 b6 bc 1e 9a 02 3d 5d d9 11 bd be c3 a4 bc
       -0.022296377 0.03188526 -0.035607684 -0.020112868
000120 ab ef b2 3d 26 e4 12 3c 6d 4e 06 3d 0b e2 ab 3c
       0.08737119 0.008965528 0.032789636 0.02098181
000130 1e 41 7f 3c af 24 3b 3d 9c eb 36 3c 82 8b 26 3d
       0.01557949 0.04568928 0.011164572 0.04066039
000140 04 b1 27 3c 05 d4 45 3d e8 4a 10 3d c2 a5 a4 bc
       0.010235075 0.0482979 0.035227686 -0.02009857
000150 ab 79 fc bc ae 10 f1 bc df 50 f4 3c fa 34 4a b9
       -0.030819735 -0.029426899 0.029823719 -0.00019283956
000160 79 a0 7b bc 32 03 66 3a 66 0a 24 bc 88 76 01 bd
       -0.015358084 0.000877428 -0.010012245 -0.03160718
000170 84 07 d0 3c dd 7b 11 3d 7e b2 25 3c 73 a1 39 3d
       0.025394209 0.035518516 0.010113357 0.045319986
000180 99 00 9d bc 61 ac e5 bc d2 28 0e 3d 49 d1 d6 bc
       -0.019165324 -0.028036298 0.034706898 -0.026222842
000190 f0 8d e6 3c 42 5d 0b 3c 23 95 25 bd de 29 64 bc
       0.028143853 0.008506121 -0.04042543 -0.013925998
0001a0 7b f8 1c bd 9c 6c 99 3b e0 42 d8 3b e4 17 5c bb
       -0.038322907 0.0046821367 0.006599769 -0.0033583576
0001b0 93 80 1e 3d 46 ab d1 ba 96 85 41 bc af 9a f0 3c
       0.038696837 -0.0015996478 -0.0118116345 0.029370634
0001c0 7e 83 f3 3a 60 26 21 bc a0 c3 1b 3d cd e6 8c 3c
       0.0018578616 -0.0098358095 0.03802836 0.017199898
0001d0 a4 2b 2f 3d d1 bf 6a 3d 36 12 81 bc 95 21 01 bd
       0.04276623 0.057311837 -0.015755754 -0.031526167
0001e0 41 eb 3c bd 39 5a 95 bc 72 bd 3b 3d 4f f3 43 3d
       -0.046122793 -0.018231498 0.045834966 0.04783946
0001f0 be e2 b6 bc 1e 30 69 38 74 45 dd bc bc a4 5f bd
       -0.022324916 5.559634e-05 -0.027010657 -0.054600462
000200 b0 31 7f bc 6a e3 5b 3d 6f 96 2d bd 0d cf 2c 3d
       -0.015575811 0.053683676 -0.042379793 0.042189647
000210 c3 0e a4 bc 2b 9d f7 3c 1f 3f 5c bb 9d 59 19 bc
       -0.02002657 0.03022631 -0.003360696 -0.009359744
000220 28 3c 22 3c 1e 38 b9 bc c9 9d da ba 84 88 5d bb
       0.009902038 -0.022609767 -0.0016679104 -0.0033803293
000230 df 4e db bc ff 41 3f 3d 70 f7 2e bd 1a b2 20 3d
       -0.026771007 0.0466938 -0.042716444 0.03923235
000240 8b f5 86 bc 39 9e 9b 3a 40 3e 08 3d 7c 7f b1 3b
       -0.016474506 0.0011872716 0.03326249 0.0054168086
000250 e0 8a b5 3b 27 f5 12 bd 2e be 98 3b 2d 05 60 bc
       0.005540237 -0.035878327 0.004661343 -0.013673109
000260 b8 11 1f 3d a8 5f 44 3b ee 11 fa bc bb 76 89 ba
       0.038835257 0.0029964242 -0.030526128 -0.0010487655
000270 ba e3 fd bc 85 7e 64 bc 2d 2b dd bc 29 3f 9b bc
       -0.030992378 -0.01394618 -0.026998127 -0.018951016
000280 55 f9 90 3c 6b 4f 24 bc 14 8e 9c 3c 78 4d 08 bd
       0.017697016 -0.0100287 0.019110717 -0.033277005
000290 bb 35 a8 3c b6 a6 4f 3b 4e e4 cf bb 74 66 5b bc
       0.020533433 0.003168506 -0.0063443547 -0.013391126
0002a0 f8 b5 9d 3c 16 05 2d bc 54 17 bf 3c dd 3c e0 bc
       0.019251809 -0.010560295 0.023326553 -0.027372772
0002b0 0e 01 42 3c d5 d7 46 3d 39 25 2f 3c f0 91 c9 bc
       0.011841072 0.048545677 0.010690027 -0.024605721
0002c0 00 5a 87 bb 36 25 47 3d 08 bc d9 3c 45 43 2f 3d
       -0.004130602 0.04861947 0.026578918 0.042788763
0002d0 9a b7 e9 3c 42 ae 5e bc 2c cf 18 bd 9e 41 2b bc
       0.02852993 -0.013591351 -0.03730695 -0.010452656
0002e0 d5 5e 87 3c 1c e6 48 3c 9f a8 48 3d 2d a3 85 bc
       0.016524712 0.012261894 0.048988935 -0.01631316
0002f0 2c 72 fc bc cb cd 1c 3d f5 8d 68 3c b9 02 e1 3c
       -0.03081616 0.038282197 0.014194001 0.027467119
000300 83 36 5c bd 6c e4 f7 bc af 93 29 bd 83 20 2b 3a
       -0.053762924 -0.030260287 -0.041400608 0.0006527977
000310 33 3e 02 bd 58 d3 21 bd d6 5d 27 3c 02 bb ab bd
       -0.0317976 -0.039508194 0.010215243 -0.08385278
000320 c7 fc f8 3c f1 e1 a2 bb a5 26 27 bd a0 18 91 bc
       0.030393971 -0.004970782 -0.04080834 -0.017711937
000330 ee 32 99 3c 70 d3 c9 3c cc 1c 14 bd 65 50 09 3b
       0.018701043 0.024636954 -0.036160275 0.002095246
000340 e7 8d 83 bc 3e fe 0f 3b cc 7e d8 bc 70 dc bc bc
       -0.016058875 0.0021971609 -0.026427649 -0.023054332
000350 ac c0 36 3b 62 63 2c 3d 7d 4f f0 bc 96 be 25 bc
       0.0027885837 0.042086966 -0.029334778 -0.01011624
000360 ee ba fa 3c d5 d5 0f bc cb c2 8e 3d d8 d2 ac 3c
       0.030606713 -0.008779009 0.069707476 0.021096632
000370 36 a4 8d 3c 48 2b d4 bc 7f 59 16 bd f4 4b 48 3c
       0.017290216 -0.025899544 -0.036706444 0.01222514
000380 6b 3e cc ba d7 f4 75 3c 76 8c 8d bb 46 2d fb bb
       -0.0015582567 0.015011988 -0.0043197228 -0.007665309
000390 1d d4 69 3d 54 e1 92 bd 0f e2 27 bd 42 ac 3a bc
       0.057087053 -0.07171884 -0.04098707 -0.0113936085
0003a0 57 44 cf 3c 57 e8 8a 3c 4e f3 22 3d d7 26 6c 3d
       0.025301142 0.016956491 0.039782815 0.057654228
0003b0 34 8e 94 3c 3b 32 11 3c ff 07 11 3d 63 ed d3 bc
       0.018134214 0.0088620735 0.035408016 -0.02587003
0003c0 23 24 ef bb 6f c0 df 3c e9 88 8b bc e3 11 7e 3b
       -0.007298009 0.02731344 -0.017033057 0.0038767986
0003d0 38 d2 35 ba 50 e4 af bc 57 2a 2e bd b0 43 f0 3c
       -0.0006935927 -0.021471173 -0.042520847 0.02932915
0003e0 a7 d6 23 3d b9 89 ce 3c b6 00 2c 3c f0 d6 4d 3d
       0.03999963 0.025212156 0.010498216 0.05025381
0003f0 ef e2 bf bc 35 7e 09 3d 09 3c 1c 3c 64 37 aa bc
       -0.02342364 0.033567626 0.009535798 -0.020778365

conv3.bias f4 [32]
000000 d4 df 33 bd 74 a6 34 3d 03 cf 23 3d b3 ce 1b bd
       -0.04391463 0.044104055 0.039992344 -0.03803892
000010 e5 bc f3 3c 96 3f d0 bc 6e cd 24 3d 1d a7 0b 3d
       0.029753158 -0.025420945 0.040234976 0.03409492
000020 ba 95 10 bd 50 32 e4 39 5f 7f 82 3b 21 9a d5 bc
       -0.03529904 0.00043525035 0.003982469 -0.026074471
000030 e7 a2 63 3b 3d 8f ba 3c a2 7a 17 3d 66 6c 13 3d
       0.0034734549 0.02277338 0.036982186 0.03599205
000040 21 25 99 3c bd 14 a4 3c b2 3d d4 3b 87 1d 22 3d
       0.018694462 0.02002942 0.006477081 0.03957894
000050 04 c1 ad 3c be c3 28 3d f9 44 05 bc ee fe 2c 3d
       0.021210201 0.0412023 -0.00813412 0.042235307
000060 a9 f8 6f 3c e7 a0 c2 3c 61 28 0f 3d 34 fa aa bb
       0.014646688 0.023758365 0.034950618 -0.005217815
000070 c4 d3 a8 3c ba bb 33 bd 25 48 f8 3c 00 97 85 3c
       0.02060879 -0.043880202 0.030307839 0.016307354

conv3_bn.weight f4 [32]
000000 a9 3d 56 3e 99 6f 55 3f fe a2 e5 3e b6 9f ee 3d
       0.20921959 0.8337341 0.44850916 0.11651556
000010 6e 20 42 3f 56 3f 14 3f 77 60 73 3e 08 d8 c8 3e
       0.75830734 0.5790914 0.23767267 0.3922732
000020 72 9f 00 3f 26 0f 55 3e c4 e3 22 3f f6 d4 df 3e
       0.50243294 0.2080656 0.6362879 0.43717164
000030 fe ba a5 3e 59 37 4a 3f be d8 a8 3e 74 a2 99 3e
       0.32369226 0.78990704 0.3297786 0.30006754
000040 34 8a 20 3e 59 06 c9 3e 1c ef 10 3f a3 96 71 3e
       0.1567772 0.39262655 0.5661485 0.2359262
000050 3f 63 14 3f b0 01 45 3e 7d 07 bb 3e d3 93 be 3e
       0.5796394 0.19238925 0.3652915 0.37222156
000060 b6 7a 79 3f 75 2e 18 3f 6a c9 46 3f 76 54 dc 3e
       0.9745287 0.5944589 0.77651083 0.4303319
000070 03 ca 48 3f 0a bd bd 3e 47 30 eb 3e 9c e9 0c 3f
       0.78433245 0.37058288 0.4593527 0.5504396

conv3_bn.bias f4 [32]
000000 5d 41 38 3c e2 89 e0 bc 22 90 24 3b 7e 12 a5 3a
       0.011246053 -0.027409498 0.0025110324 0.0012594012
000010 9f f0 9b 3c 8c 88 82 bc a1 e2 19 3c 30 29 e2 bb
       0.019035636 -0.015934251 0.009392411 -0.0069018826
000020 f2 32 80 3c 64 63 a8 3c e7 df c6 3b ac d1 7e 3d
       0.015649293 0.020555206 0.0060691717 0.062211677
000030 48 18 da 3c 9f 9a a9 3b fc 1f a0 bb 13 d9 ca 3c
       0.026622906 0.005175903 -0.0048866253 0.024761712
000040 49 31 04 3c 18 77 18 bc 4f 88 ff bc 71 4d 01 3c
       0.008068391 -0.009305738 -0.031192927 0.007891999
000050 40 90 a0 3a 5b 57 f4 3c 4d a7 0d 3d 9b 79 16 bc
       0.0012250021 0.02982681 0.03458338 -0.009184266
000060 ea e3 9a 3c 39 f1 1d bc a7 93 54 bc 64 77 45 39
       0.018907506 -0.0096400315 -0.012974656 0.0001883186
000070 91 ae 61 bc 34 06 56 bc 5e 09 e9 3b 51 b0 ae bb
       -0.01377453 -0.013063002 0.0071117124 -0.005331077

conv3_bn.running_mean f4 [32]
000000 b2 81 06 3d 0d ad bb 3e c9 9f f4 3d 0a 92 09 3f
       0.03283853 0.36655465 0.11944539 0.5373846
000010 70 16 cd 3d 0d 71 2c bc a9 26 01 bd f6 95 76 3c
       0.10014045 -0.010525 -0.03153101 0.015050402
000020 e8 54 0b 3e dc 78 eb 3c ed 6d da 3e c9 dc b4 be
       0.13606608 0.028744154 0.42661992 -0.35324696
000030 8c a9 00 3e 3f 06 66 3e 7a 60 8b 3e ba 6b 15 3e
       0.12564677 0.2246332 0.27222043 0.14591876
000040 13 9a cb 3d 62 74 8c 3e be f5 9a 3b 4e 7a 8d 3e
       0.09941497 0.27432543 0.004729002 0.27632374
000050 79 31 6b 3e 4d 0d e9 be c6 d4 c2 be df d0 54 be
       0.22968091 -0.4551796 -0.38052958 -0.20782803
000060 0d c1 d9 be 9c e1 af 3e 76 c6 ae 3e 52 8f 8a 3e
       -0.425301 0.34351814 0.3413579 0.2706247
000070 4b 66 31 3e ce eb 36 3e 48 55 3c 3e 30 30 8e 3e
       0.17324178 0.1786339 0.18391907 0.2777114

conv3_bn.running_var f4 [32]
000000 19 8e ad 3d 2e f6 19 3f 2d 27 59 3e 70 cb e9 3d
       0.084743686 0.60141265 0.2120635 0.11415756
000010 c5 e5 5d 3e 5e 7b 8a 3e 46 4e 95 3e e1 15 af 3d
       0.21669681 0.27047247 0.2916128 0.08549095
000020 24 d2 0f 3e a9 08 78 3d 83 af 6c 3e f3 8f 0b 3e
       0.14045006 0.060555134 0.23113827 0.13629131
000030 0d 86 9e 3d 4a d4 9f 3e 53 7e 98 3e 96 8f e8 3d
       0.07740412 0.3121665 0.29783878 0.11355512
000040 7b e2 f5 3d 15 81 f0 3d ee e4 25 3e 3b 9c 7a 3d
       0.12006088 0.117433704 0.16200611 0.06118415
000050 c8 22 8e 3e f5 6e 35 3e 99 ab 16 3e e9 30 98 3d
       0.2776091 0.17718108 0.14713897 0.07431204
000060 fa 59 93 3e 2a 4e 71 3e c6 c3 f1 3e ec 3b 34 3e
       0.28779584 0.23564973 0.47219676 0.17600983
000070 15 ef 9a 3e 60 3d 7e 3e b3 1d 7c 3e ad 21 b6 3e
       0.3026053 0.248281 0.24620704 0.35572568

linear1.weight f4 [32, 6272]
000000 6a b5 19 bc 31 b9 84 3c cd b2 16 3c 37 22 db ba
       -0.009381631 0.016201587 0.009197903 -0.0016718571
000010 bf 16 e8 3b b9 a6 49 3c eb cb a0 3a f0 8a 23 3b
       0.0070827897 0.012307816 0.0012267804 0.002495464
000020 bb 98 74 3b fe 96 d2 bb cf 0d 47 bb 73 22 33 bc
       0.003732248 -0.006426691 -0.003037322 -0.010933506
000030 93 ae c5 38 4b cd c2 3b 56 a5 17 39 db c6 c7 3c
       9.426209e-05 0.005944883 0.00014462075 0.024386814
000040 06 0e 08 3c 7e ec 28 3b 22 24 ae 3a 86 ac 31 bc
       0.008304125 0.0025775726 0.0013285915 -0.010844355
000050 fa 87 13 bb a8 10 ce 3b 17 3a dd bb c6 e6 60 bb
       -0.0022511468 0.0062886067 -0.0067513096 -0.003431724
000060 33 bd 44 bc e7 ef 3f 3c 39 70 45 bc 89 9f be 3b
       -0.012007999 0.011714912 -0.012050682 0.005817358
000070 11 16 a3 b9 ac 30 64 3b 7f 3c 3d 3c 3e c9 c4 ba
       -0.00031106223 0.003481905 0.011550068 -0.0015013588
000080 9c b9 48 b9 00 5a a5 bc ba 1c 46 bc 68 f2 00 3a
       -0.00019142631 -0.020184517 -0.01209181 0.0004918934
000090 6a 8d 5f 3a 22 6c 82 3c d1 5c 3b 3c 07 9d d8 3b
       0.0008527847 0.015920702 0.011435703 0.006610516
0000a0 ce 82 90 bb 72 31 14 3c 1c b7 22 bb 43 14 e8 3b
       -0.0044101244 0.009044992 -0.002482838 0.0070824935
0000b0 ce 4c 8e 3c 1a 1c 8a 39 44 8d c7 ba 7b a8 9b 3c
       0.017370608 0.00026342348 -0.0015224596 0.019001236
0000c0 a0 f6 70 3b a6 7d 84 bc d3 04 67 3b 76 12 45 3a
       0.0036768094 -0.016173195 0.0035250678 0.00075177045
0000d0 ad c1 0c 3c d5 2b 0d 3b 43 67 08 3c 74 bf 58 ba
       0.008591098 0.0021541019 0.008325401 -0.0008268275
0000e0 54 16 0b 3c ec b3 cd 3c 89 be 67 3c 29 66 0b bc
       0.00848921 0.025110207 0.014144548 -0.008508244
0000f0 35 fe e4 bb fd 64 7e 3b 5b ed 1e bc e0 29 68 bc
       -0.0069883117 0.0038817518 -0.009700145 -0.01417014
000100 1c 16 43 3c 67 56 8e 3b cb 86 03 3a 53 85 ec 3b
       0.011907127 0.004343796 0.0005017339 0.007218042
000110 8a 43 50 3a 54 fe 64 3b 3a db 0d 3c d9 e8 04 3a
       0.00079446344 0.003494163 0.008658225 0.00050700974
000120 8f c1 85 3b 0b e1 91 3c fb b8 56 bb 4e b1 d1 bb
       0.004081912 0.017807504 -0.0032764066 -0.00639931
000130 7f 2d de bb 75 d9 32 bc 50 e9 b5 bb ba ff 09 3b
       -0.006780326 -0.010916104 -0.0055514947 0.0021056966
000140 67 10 aa bc 1c 3d e0 ba ec 9b b8 3c 77 33 6b ba
       -0.020759774 -0.0017108056 0.022535287 -0.00089722074
000150 d2 41 d6 bb d5 47 ca 3b e4 09 49 bb 87 55 4f bc
       -0.006538608 0.006173114 -0.0030676061 -0.012654669
000160 f6 2c 33 3b 89 07 96 bc 6b 86 ad 3c 8f 7f 57 3c
       0.0027340031 -0.01831414 0.02118226 0.013152971
000170 cd 37 29 3c 98 db 61 3d a7 16 bd bb e9 fd de 3c
       0.010328245 0.05514106 -0.0057705226 0.027220683
000180 9a 77 61 ba 83 ff 58 3c b7 78 c0 bc 90 be aa bb
       -0.0008600891 0.0132445125 -0.023495061 -0.005210705
000190 d4 cb ac 3b d6 7d 0f 3b d0 f7 dd 3b d6 e4 60 bc
       0.0052733216 0.0021895072 0.0067739263 -0.013726434
0001a0 dc c9 eb bb 59 ef 1a bc a9 d7 a8 3c 9a 5b e6 3c
       -0.0071956944 -0.009456479 0.020610647 0.02811985
0001b0 6f f8 c3 ba 09 ba 02 bc 41 5c a6 b9 25 a9 88 bc
       -0.0014951358 -0.007978925 -0.00031730722 -0.016682217
0001c0 bc ed f3 3b 9e aa d7 3c 13 5e 08 3c f4 fe 38 3c
       0.0074441116 0.026326474 0.00832321 0.011291254
0001d0 7a 82 3b bb 7c e7 21 3c 64 74 31 bd 0d 58 21 bc
       -0.0028611706 0.00988185 -0.04332389 -0.009847653
0001e0 4b 9f 73 bc 67 38 d6 3b ab 70 41 3c cf b4 93 3c
       -0.014869521 0.0065374854 0.011806647 0.018030552
0001f0 fc 94 8e bb 04 d5 27 bb 36 44 84 38 44 2e 7a bb
       -0.0043512564 -0.0025609145 6.306956e-05 -0.003817455
000200 64 dc bb bc 8d e2 0f 3b ea a0 c3 bc 1e a2 98 3d
       -0.022932239 0.0021955103 -0.02388044 0.074527964
000210 b6 fa 0f 3c bf ce 77 3a 1a 7a 71 bc a9 53 6b 3c
       0.0087878015 0.000945311 -0.014738584 0.014363208
000220 9a 85 a3 bb 5c e8 ce 3b 87 42 25 3c 59 31 f4 3a
       -0.004990292 0.0063143205 0.010086662 0.0018630429
000230 69 bc 53 3c 60 7b 89 bb 22 17 d9 3b 95 e0 7f bb
       0.012923338 -0.0041956156 0.006625072 -0.0039043773
000240 f9 0e 40 3c 5a 64 0c 3d b4 83 ac 3c af 87 43 3c
       0.01172232 0.03427539 0.021058895 0.011934205
000250 8b f3 37 3c 5c 96 1f 3b e4 a1 11 bb 9b 43 c1 bb
       0.011227499 0.0024351096 -0.0022221738 -0.005897952
000260 77 60 18 3c 0d 66 1b bb 6f 20 14 3c 77 c4 17 3c
       0.009300343 -0.002371195 0.009040936 0.009263149
000270 0f 5e 3d bc 77 30 b2 3c aa 66 77 3b 1b d2 92 bb
       -0.01155807 0.021751625 0.0037750402 -0.004480613
000280 bb ba 36 3c 5b 98 94 3b 72 43 83 3a 10 8f 7e 3b
       0.011152918 0.0045347637 0.0010014607 0.0038842596
000290 23 7f 85 bb 8e d9 54 3c 42 dd e3 bb b7 18 3b bc
       -0.004073994 0.012991322 -0.006953866 -0.011419467
0002a0 fe eb b4 bc 2a 2e 41 bd 78 a5 ac 3c 2d b9 11 3d
       -0.022085186 -0.047163166 0.021074995 0.035576988
0002b0 cf 76 9a 3a 91 24 d8 bb dd 06 5e bb 8e 35 0b 3c
       0.0011784675 -0.006596156 -0.0033878603 0.008496655
0002c0 40 bf 5a 3c 96 12 87 bc c2 68 2c bb e7 83 84 bb
       0.013351262 -0.016488355 -0.0026307558 -0.0040440443
0002d0 65 b3 f2 b9 fe 6d 31 bc 2e 9a 65 3a 3f 8b ca bc
       -0.00046291496 -0.010829447 0.00087586313 -0.0247246
0002e0 8e 43 84 bc 7b b2 15 3d 0b f0 11 3d 65 0b da 3b
       -0.016145494 0.036547165 0.035629313 0.0066541904
0002f0 7c dc 33 3b 15 bd 0d bb d8 9b 6f 3a ca 5b 4e bc
       0.0027444651 -0.0021627594 0.0009140349 -0.012595126
000300 71 b7 34 bb 04 3a de 3b a2 22 3e 3c 89 9a f2 bb
       -0.002757516 0.0067818183 0.011604937 -0.007403676
000310 84 2c 94 3b 1b 72 d8 3a 2b b1 a2 3b 77 a8 10 bb
       0.0045219082 0.0016513498 0.0049649677 -0.002207307
000320 d6 35 36 bc e3 0a 1e 3c 13 10 bf 3b 13 29 28 bc
       -0.011121234 0.00964615 0.0058307736 -0.010263699
000330 91 31 2b bb a7 0d 18 3c 11 27 11 bc 05 55 44 bb
       -0.0026122073 0.009280599 -0.008859412 -0.0029957902
000340 a0 18 da bb e9 9e ea 3b 2a ec 09 3c 08 c7 d6 3b
       -0.0066557676 0.007160057 0.008418122 0.006554488
000350 fb b0 47 3a d0 a4 3d bb 82 39 61 bc 82 67 3e 3b
       0.00076176197 -0.0028937347 -0.013746621 0.0029053395
000360 e3 d2 1e bc ab 18 1d bc 1b 09 eb 3a f1 2f af bb
       -0.009693834 -0.009588401 0.0017931791 -0.0053462912
000370 e0 d2 e9 3b 52 87 86 bc e0 ab 7c 3b a2 98 93 3c
       0.007135734 -0.016421948 0.0038554594 0.018017117
000380 33 37 21 bc 3f 19 b5 bb d2 d8 a2 3b ce ac d7 bb
       -0.009839821 -0.005526691 0.0049696947 -0.006581879
000390 8e b4 98 bb e6 c1 17 bc bd f9 86 3c bd 94 03 3c
       -0.0046601957 -0.009262538 0.016476506 0.008031067
0003a0 9a fc 1b 3c 0b 16 04 bb b9 e4 74 bc 0d 1d c0 bb
       0.009520674 -0.002015474 -0.01494711 -0.005862838
0003b0 82 8e 6e bb e8 d9 31 3b 7e 82 46 3a 91 e2 6f 3c
       -0.003640086 0.002713794 0.00075725454 0.01464142
0003c0 ea 97 e4 3c 42 01 95 3a ac 7e af 3c 3d 82 c4 bc
       0.02790447 0.0011368173 0.021422707 -0.023987884
0003d0 3b 85 10 3c f2 1e 62 bb 34 4a 4d bc 5e 9d 85 ba
       0.008820827 -0.0034503308 -0.012529898 -0.0010193994
0003e0 a7 b4 54 bc 37 2d 50 3c bf 3d 28 bc 8d 1f 7e bc
       -0.012982524 0.012706093 -0.010268628 -0.015510452
0003f0 b9 25 19 38 e0 98 18 bc f7 df 81 bc b1 4a c8 3a
       3.6513175e-05 -0.009313792 -0.015853865 0.0015281049

linear1.bias f4 [32]
000000 15 84 35 bc 77 86 9f bb 04 f3 7c 3a d6 c6 5e 3b
       -0.011078854 -0.0048683244 0.0009649249 0.0033993027
000010 d9 29 4a 3c be 40 36 bc e6 d6 21 bc 4e dd 82 39
       0.012339079 -0.011123834 -0.009877896 0.00024960417
000020 1b ea 02 3c c3 18 65 ba 07 40 1f bc 50 15 33 bc
       0.007990385 -0.00087393465 -0.009719855 -0.010930374
000030 e9 61 be 3b 5a d5 a2 bb e7 5a 37 bc a6 f0 8f bb
       0.0058100116 -0.004969281 -0.011191106 -0.004392701
000040 d4 1d 0a 3c d5 79 29 bb 16 94 40 3b eb 4c 41 bb
       0.008429963 -0.002585997 0.002938514 -0.002949531
000050 5d 7b 0c 3a 4c f3 a7 3b 9c 38 9d 3b 8d 3c 70 bb
       0.0005358959 0.005125439 0.004798008 -0.0036657185
000060 5c 6a 52 ba 10 12 a4 bb f9 10 5e 3b f4 a5 0d bc
       -0.0008026713 -0.005007036 0.0033884628 -0.008645523
000070 a0 d3 ee bb 34 29 15 bb 93 7d da ba cf bf b0 3b
       -0.0072884113 -0.0022760155 -0.0016669504 0.005393959

linear1_bn.weight f4 [32]
000000 50 21 83 3e 84 1e 7a 3f e5 ee 05 3e 3b f1 59 3f
       0.25611353 0.97702813 0.13079412 0.85133713
000010 b4 8c 35 3f 63 b3 8f 3d 72 6f 91 3e 57 23 4b 3f
       0.7091782 0.07016637 0.2840534 0.793508
000020 08 d0 3e 3f bc f2 3e 3e 0a 2f 73 3e d2 84 54 3e
       0.7453618 0.18647283 0.23748413 0.20753792
000030 b6 3b 45 3f 26 b4 f0 3e 43 9c 2c 3f bc b4 47 3f
       0.77044237 0.47012442 0.67425936 0.78010154
000040 39 b7 33 3f dd a4 b3 3e d5 17 03 3f ac da 4c 3e
       0.7020145 0.35086718 0.5120824 0.20005292
000050 1e 0a 25 3f 84 65 91 3c 93 e8 43 3f 12 be 26 3d
       0.6446856 0.017748602 0.76526755 0.04070861
000060 2e fc 9d 3e 01 74 5f 3f 7f 2a 23 3e 95 bd de 3e
       0.3085646 0.8728638 0.1593418 0.43504015
000070 d8 db f9 3e a6 56 02 3f 59 dd 57 3f a4 ca 34 3f
       0.4880054 0.50913465 0.84322125 0.70621705

linear1_bn.bias f4 [32]
000000 b3 9b d3 bd 44 ea 03 3d a8 15 5d 3d d4 9c 33 3d
       -0.10332432 0.032205835 0.05397573 0.043850735
000010 20 f5 ae 3c 2f 35 5b 3d 50 28 b1 3c 9c 2a a1 bc
       0.02135712 0.053517517 0.021625668 -0.019673638
000020 b5 9c 16 3c a0 78 52 bc 9f ae e5 3c 8a 8e c5 3b
       0.009192635 -0.012846142 0.028037367 0.006028955
000030 5b fb ef bb e5 f3 12 3a 96 6d 5f 3d 38 66 e2 3c
       -0.007323665 0.0005605801 0.05454787 0.027636632
000040 d1 e8 66 3c f5 78 08 3d 6c fc 28 3d bc 13 82 3c
       0.014093594 0.03331848 0.041256353 0.01587855
000050 f9 7c a5 3c 0a 78 a8 3d 5d c1 b2 3c 76 84 af 3d
       0.020201193 0.08226021 0.021820718 0.08570187
000060 c5 32 b2 bd 6e 63 93 3c 59 bb 99 bb 31 68 84 3c
       -0.0870109 0.017991748 -0.004691523 0.016162964
000070 d2 94 c9 3c 50 6e 04 3d 67 4e 20 3d e4 36 89 bc
       0.024607096 0.032331765 0.03913727 -0.016749807

linear1_bn.running_mean f4 [32]
000000 f8 5b 9d bf d7 e5 48 c0 ec 78 87 3f 89 6e 14 3e
       -1.2293692 -3.1390283 1.0583777 0.14495291
000010 10 3e 4b 40 4d ee 36 be 94 b2 e4 bf e7 cf 04 40
       3.175663 -0.17864342 -1.7866998 2.0751894
000020 c8 fa 95 be 1f 14 2d c0 17 d0 b8 3f 07 15 a8 3f
       -0.29292893 -2.704353 1.4438504 1.3131417
000030 e7 9f 85 3f c1 6e 03 40 e9 28 2d 40 7a 41 a7 3f
       1.0439423 2.053635 2.705622 1.3066857
000040 8e b2 0b 40 95 8c 12 40 b0 ab 02 c0 9e a2 35 40
       2.182773 2.2898304 -2.041729 2.8380504
000050 74 f5 3e 40 52 af 9e 3e 6a 2d 9b 3f 48 e6 91 bf
       2.9837313 0.30993134 1.2123234 -1.1398401
000060 7d b1 5c 40 ca c2 36 c0 4e ea ed 3f 08 a2 6b 40
       3.448333 -2.855639 1.8587129 3.6817646
000070 7d 6c 3a 40 3b 03 fe bf c3 b6 43 c0 bb 62 45 40
       2.9128716 -1.9844736 -3.05803 3.084151

linear1_bn.running_var f4 [32]
000000 6b 62 4f 40 c4 17 38 40 9b ef 00 40 d6 07 d2 3f
       3.240382 2.8764505 2.0146244 1.6408641
000010 d2 b0 0f 41 43 aa 94 3f db de 80 40 57 df e3 40
       8.980669 1.161446 4.027204 7.121013
000020 36 1d e2 3f 74 5d 07 40 f0 aa 49 40 a7 2d 28 40
       1.7665164 2.115079 3.1510582 2.6277864
000030 ef 0a 3c 40 1e b0 47 40 89 22 27 41 76 2b 0a 41
       2.9381673 3.1201243 10.445931 8.635611
000040 b0 5c bb 3f 2e 91 b7 40 2c 16 03 40 89 3c 05 40
       1.4637661 5.736472 2.0482283 2.0818198
000050 bb 34 d3 40 fc ad b9 40 94 50 ab 40 fa 64 6d 40
       6.600187 5.8024883 5.353586 3.7092881
000060 c3 0d a0 40 cc 3e 46 40 e7 dc 8b 40 e4 3e 9f 40
       5.00168 3.0975828 4.3707156 4.976427
000070 9e ba b8 40 38 d0 e3 3f 7d 01 a2 40 ea 99 f2 40
       5.7727804 1.7797918 5.0626817 7.5812883
