saved_models/gear_unconstrained_9.pt (torch_old, 954435 bytes, 28 tensors)

conv1.weight f4 [32, 3, 4, 4]
0	0xbe778462	-0.24171594
1	0xbe9406f4	-0.28911555
2	0x3e23b5e2	0.15987352
3	0x3ecf5cb0	0.40500402
4	0x3ede698a	0.43439895
5	0x3e974515	0.29544893
6	0xbea009fb	-0.31257614
7	0x3d786f2b	0.060652893
8	0xbd9eac31	-0.07747687
9	0xbf2930e5	-0.6609023
10	0xbf0ecb06	-0.5577854
11	0x3d9f261a	0.07770939
12	0x3dcaab6b	0.09895977
13	0xbea8e94d	-0.32990494
14	0xbd07d212	-0.033159323
15	0xbf02aa06	-0.51040685
16	0xbdc61938	-0.09672779
17	0xbdd0805f	-0.10180735
18	0x3e4dff33	0.20116882
19	0xbd8cce66	-0.06875305
20	0x3f069cc9	0.52582985
21	0x3f0c695a	0.54848254
22	0x3e93dcd0	0.28879404
23	0xbe85c35c	-0.2612561
24	0x3e2c0d41	0.16801931
25	0xbed29539	-0.41129473
26	0xbd8d43c1	-0.06897689
27	0x3f001ebf	0.50046915
28	0x3bd8fda2	0.0066220323
29	0xbd8f8cb7	-0.07009261
30	0x3e9a0dd6	0.3008868
31	0x3df9f47f	0.12204837
32	0xbf01b158	-0.5066123
33	0xbdc44e63	-0.095852636
34	0xbe968cd0	-0.29404306
35	0xbdcb4572	-0.09925355
36	0x3d7d3af4	0.0618238
37	0x3ee443b5	0.44582906
38	0x3eb99e95	0.362538
39	0xbeceb233	-0.4037033
40	0xbd9974d3	-0.074929856
41	0xbf00c31b	-0.5029771
42	0x3b0789ab	0.0020681422
43	0x3eb0b4e1	0.34513
44	0x3eb3350a	0.35001403
45	0xbda46930	-0.080278754
46	0x3f084b9c	0.5324037
47	0xbe57fedd	-0.21093316
48	0x3e661561	0.22469093
49	0x3e5fcea6	0.21856174
50	0xbda03f2e	-0.078245506
51	0xbe42ab66	-0.19010696
52	0x3f05cffd	0.5227049
53	0x3da06c52	0.078331605
54	0x3e943e89	0.2895396
55	0x3cbde4e0	0.023180425
56	0x3dda6350	0.106634736
57	0x3f23bb8b	0.6395804
58	0x3f29a65b	0.66269463
59	0xbeafcbb0	-0.3433509
60	0x3e82f86d	0.2558016
61	0x3ebbe27a	0.36696225
62	0x3e1335da	0.14376011
63	0x3de6caa5	0.1126912
64	0xbcc9d382	-0.024636988
65	0x3ce7e3af	0.02830681
66	0xbe74c1af	-0.2390201
67	0xbe8fb7f1	-0.28070024
68	0x3e27bd69	0.16380848
69	0xbf0aeab8	-0.542644
70	0x3eb2212c	0.34790933
71	0xbe0ee2f0	-0.13953757
72	0xbe8a9ba6	-0.27071875
73	0x3e53d4a6	0.20686588
74	0x3f203f55	0.62596637
75	0xbe67eeea	-0.22649732
76	0xbddf7aeb	-0.109121166
77	0x3e18a161	0.14905311
78	0x3e3884e5	0.18019445
79	0x3de57802	0.1120453
80	0x3ea3cf1d	0.31993952
81	0x3ebba055	0.3664576
82	0x3ea3441d	0.31887904
83	0x3e55c23c	0.20874876
84	0x3d90c3ea	0.07068618
85	0xbe40fbba	-0.18846026
86	0x3ee0a56e	0.43876213
87	0x3e4c3886	0.19943437
88	0x3e0d832b	0.13819568
89	0x3e8ea389	0.27859142
90	0x3e87926b	0.26478896
91	0xbd945f41	-0.07244731
92	0x3d3d6452	0.04623825
93	0xbd1cc9c4	-0.038278356
94	0x3d83a001	0.06427003
95	0x3e6e70fe	0.2328529
96	0x3eb96a0f	0.3621373
97	0xbe604143	-0.21899895
98	0x3ec18ace	0.37801212
99	0x3eb1fe6e	0.34764427
100	0xbc1af40f	-0.009457602
101	0xbe9459e5	-0.28974834
102	0x3d5d7381	0.05406523
103	0x3e2ad70e	0.166836
104	0x3e0df6a9	0.13863625
105	0x3e25b8d1	0.16183783
106	0x3e04319d	0.12909551
107	0x3dee8e60	0.116482496
108	0x3ced7f4d	0.028991366
109	0xbe4ad61c	-0.19808239
110	0xbf16efe0	-0.5895977
111	0xbdb025be	-0.08600949
112	0x3eb594e4	0.35465157
113	0xbe051436	-0.12995991
114	0x3e46a4e6	0.19398841
115	0x3e580ee6	0.21099433
116	0xbe8cdefc	-0.27513874
117	0xbda70d96	-0.08156888
118	0xbe6dd267	-0.23224793
119	0x3dc48b04	0.095968276
120	0xbdaac484	-0.08338264
121	0x3ea06442	0.3132649
122	0xbe429116	-0.19000658
123	0xbc4226f5	-0.011850108
124	0x3e3f6232	0.18689802
125	0xbee070a5	-0.4383594
126	0xbf25fdc9	-0.6484037
127	0x3d063bbd	0.032771815
128	0x3e2de0a8	0.16980231
129	0x3eb1f6f9	0.34758738
130	0x3f011dd3	0.50436133
131	0x3f1e40e8	0.6181779
132	0xbe88f6ef	-0.26750895
133	0x3ef53b2c	0.47896707
134	0x3b4f286a	0.0031609782
135	0x3eaae8d2	0.33380753
136	0xbe621cae	-0.22081253
137	0x3df55d4d	0.11980686
138	0xbda69b45	-0.08135084
139	0x3cdd2e98	0.026999757
140	0x3d6e8b93	0.058238577
141	0xbf12d3ce	-0.5735444
142	0xbf19e4ca	-0.6011473
143	0xbe1de915	-0.15420945
144	0x3e1fa77d	0.15591235
145	0x3ecac9ef	0.39607188
146	0x3e7d2592	0.24721363
147	0xbe22056a	-0.15822378
148	0xbcf60fd0	-0.030036837
149	0xbbce6565	-0.0062987083
150	0x3eaa43fc	0.33254993
151	0xbeae3de0	-0.34031582
152	0xbdb882af	-0.09009301
153	0xbe802b58	-0.2503307
154	0xbe48ff9e	-0.1962876
155	0x3e4f04e5	0.20216711
156	0x3e6fe7bd	0.23428245
157	0xbd02eea9	-0.031965885
158	0xbd13e446	-0.03610637
159	0x3ee04764	0.43804467
160	0xbe5cec5f	-0.21574543
161	0xbd7801b6	-0.060548507
162	0xbed11800	-0.40838623
163	0xbf17b741	-0.59264
164	0xbe51781b	-0.20455973
165	0xbe517c84	-0.20457655
166	0x3e21d323	0.15803199
167	0xbf01eda0	-0.5075321
168	0xbd8ce256	-0.06879108
169	0xbc8ee033	-0.01744089
170	0x3dc954ea	0.09830649
171	0x3e8f0870	0.27936125
172	0x3e83aa34	0.25715792
173	0x3e905e20	0.28196812
174	0xbd3eb3cc	-0.046558186
175	0x3ee428dc	0.44562423
176	0xbe980d87	-0.2969782
177	0xbecb4f0a	-0.3970874
178	0xbe0e6a0d	-0.13907643
179	0xbe907ba3	-0.28219327
180	0xbeef0b39	-0.4668825
181	0xbe7726e4	-0.2413593
182	0xbe21c1c7	-0.15796576
183	0xbeee3480	-0.4652443
184	0xbdab7a22	-0.08372904
185	0xbf0dc61e	-0.5538043
186	0xbe7e836c	-0.24854821
187	0x3f0f6dae	0.5602673
188	0xbefbfe9c	-0.4921769
189	0xbf0439af	-0.5165052
190	0xbcfbfce1	-0.03076023
191	0x3f04e16a	0.51906455
192	0x3e9ee158	0.310313
193	0xbc81042f	-0.015749065
194	0xbd9a3bb9	-0.075309224
195	0xbc5b2039	-0.013374382
196	0x3dbf3b50	0.09337485
197	0x3dbe5fb4	0.09295598
198	0xbefeff30	-0.49804068
199	0x3ee8a87c	0.45441043
200	0x3ec3939d	0.38198557
201	0xbe62e9d0	-0.22159505
202	0x3eef4e3b	0.46739373
203	0xbceb1b24	-0.028699465
204	0x3c9ba0d3	0.018997585
205	0xbd81dfb9	-0.063415
206	0xbe4b993d	-0.19882675
207	0xbf083e99	-0.53220516
208	0x3f0a89e0	0.5411663
209	0xbe1be5ad	-0.15224333
210	0x3ed03a4d	0.4066948
211	0xbe404732	-0.18777159
212	0xbe34a0bc	-0.1763944
213	0xbe115cdd	-0.14195581
214	0xbe4097af	-0.18807863
215	0x3f1e3aa0	0.61808205
216	0x3e0f2ae4	0.13981205
217	0x3d9cf5ff	0.076641075
218	0x3f2df2bc	0.6794851
219	0x3e67b56d	0.22627802
220	0xbe8cd6f1	-0.27507737
221	0x3e29aee6	0.16570625
222	0xbe2b1f41	-0.16711141
223	0x3d30bf04	0.043150917
224	0x3d60413f	0.054749724
225	0xbd936d50	-0.07198584
226	0xbdb725df	-0.0894277
227	0xbef2bc72	-0.47409397
228	0xbe1f61d4	-0.15564662
229	0x3e11aad2	0.14225319
230	0xbebc892e	-0.3682341
231	0x3e976890	0.29571962
232	0x3d19e1c0	0.037568808
233	0x3c059e84	0.008155469
234	0x3eab6687	0.3347666
235	0x3cb48135	0.022034267
236	0x3dcd1a64	0.10014799
237	0x3e8dd794	0.27703536
238	0xbdd164c6	-0.10224299
239	0x3d13d07d	0.0360875
240	0x3c08e665	0.008355712
241	0xbe7a299f	-0.2442994
242	0xbbb12433	-0.0054059266
243	0xbe0c38b5	-0.13693507
244	0x3e40def2	0.18835047
245	0x3e7cc836	0.2468575
246	0xbd876af4	-0.066121966
247	0x3e64d440	0.22346592
248	0xbebf6157	-0.37378952
249	0xbe5ea5c5	-0.21742924
250	0x3f0ee5c5	0.5581935
251	0xbd730adc	-0.05933653
252	0x3e138fc1	0.14410307
253	0x3c5a4451	0.013321952
254	0x3ef15cf6	0.47141236
255	0x3e28eb73	0.16496067

conv1.bias f4 [32]
0	0x3e0d4827	0.13797055
1	0x3e08d141	0.13361074
2	0xbcb692c6	-0.022286784
3	0xbc9369b9	-0.017994748
4	0x3dc91cb1	0.098199256
5	0xbdf91158	-0.12161511
6	0xbdd91c6e	-0.10601126
7	0x3d79fd96	0.061032854
8	0x3b0a5dab	0.002111296
9	0xbaab2036	-0.0013055864
10	0xbd7611a3	-0.060075413
11	0xbddde544	-0.108347446
12	0x3dbe1eea	0.0928324
13	0xbdcebe3e	-0.100948796
14	0x3d944857	0.0724036
15	0xbca21c03	-0.019788748
16	0x3e05086b	0.12991492
17	0x3c9a1e81	0.018813374
18	0xbdf2679c	-0.11836168
19	0xbd5138ee	-0.051079683
20	0xbdc7cea4	-0.097562104
21	0x3cc38aa5	0.023869822
22	0x3d9cec92	0.0766231
23	0x3d0ef4e4	0.034901515
24	0xbc806541	-0.015673282
25	0x3d3cbb67	0.04607716
26	0x3db28c35	0.087181486
27	0xbdcf27ff	-0.101150505
28	0x3d0e9cd1	0.03481752
29	0x3da0e81a	0.0785677
30	0xbe0d9c1d	-0.13829084
31	0x3c318d10	0.010836855

conv1_bn.weight f4 [32]
0	0x3eb82fee	0.35974067
1	0x3f3f2c24	0.7467673
2	0x3f12a711	0.57286173
3	0x3f5fa188	0.8735585
4	0x3ecd8f09	0.4014819
5	0x3ea2ec07	0.318207
6	0x3f85d67b	1.0456079
7	0x3ef1584c	0.47137678
8	0x3f2102c9	0.62894875
9	0x3f1c1815	0.60974246
10	0x3f1f14a0	0.62140846
11	0x3f3faac2	0.7486993
12	0x3ef2dafc	0.47432697
13	0x3f2a6919	0.66566616
14	0x3f16f931	0.58973986
15	0x3f367bcf	0.71282667
16	0x3f4f8bb8	0.8107257
17	0x3f73bff1	0.95214754
18	0x3f4844cf	0.78229994
19	0x3f04b6da	0.5184151
20	0x3f03518c	0.51296306
21	0x3effb209	0.49940518
22	0x3f252d6e	0.64522445
23	0x3f2ab19d	0.66677266
24	0x3f070363	0.5273954
25	0x3f20ac38	0.62762785
26	0x3f81e949	1.0149318
27	0x3f41cd60	0.75704
28	0x3f76ae32	0.9635955
29	0x3f3d8eef	0.74046224
30	0x3f0b8964	0.54506516
31	0x3f16146e	0.58624923

conv1_bn.bias f4 [32]
0	0x3ef4be09	0.47801235
1	0xbe03461a	-0.1281971
2	0xbea0786a	-0.3134187
3	0xbe2f982e	-0.17147896
4	0xbe4d3922	-0.20041326
5	0xbc46857b	-0.012116785
6	0xbbda7eca	-0.0066679465
7	0xbe0759c5	-0.13217838
8	0xbdfc34bd	-0.123147465
9	0xbe49f8c0	-0.19723797
10	0xbe3c0365	-0.1836067
11	0xbec5a92c	-0.3860563
12	0xbdf640c1	-0.120240696
13	0xbe067264	-0.13129574
14	0xbe69c50f	-0.22829078
15	0x3de75e01	0.11297227
16	0xbe3be357	-0.18348442
17	0xbde8764a	-0.11350687
18	0xbd56de0a	-0.052457847
19	0xbec9ea4e	-0.39436573
20	0xbd26fe36	-0.04076978
21	0xbd1a580f	-0.037681635
22	0xbe22f391	-0.15913226
23	0xbe516220	-0.20447588
24	0xbd9989db	-0.07496997
25	0xbde920db	-0.1138322
26	0xbdafd727	-0.08585959
27	0xbdee6513	-0.11640372
28	0x3c37b369	0.011212208
29	0xbda9d0e6	-0.08291797
30	0xbe61cb1f	-0.22050141
31	0xbe6dae29	-0.23210968

conv1_bn.running_mean f4 [32]
0	0x3db7a2f4	0.08966628
1	0x405e17b7	3.4701974
2	0x3e86052a	0.26175815
3	0xbff2a79e	-1.8957403
4	0x3f972451	1.1807958
5	0x3f9aa09d	1.2080265
6	0xbfd9d9f9	-1.7019645
7	0x3f2f0032	0.68359673
8	0x3f0a2b67	0.53972477
9	0x3f11fb74	0.5702431
10	0x3f06f4da	0.52717364
11	0x3f464d8d	0.77462083
12	0x3f195866	0.5990051
13	0xbef9c1d5	-0.48780695
14	0xbe94f6fc	-0.29094684
15	0xc00ecac9	-2.231127
16	0xbf59e15b	-0.8510949
17	0xbf856a68	-1.0423098
18	0x3f93fdff	1.1561888
19	0x3f0228e4	0.50843644
20	0x3a9eaa56	0.0012105207
21	0x3f9c8e30	1.2230892
22	0x3fe5d1a4	1.7954602
23	0x3d45f4d0	0.048329175
24	0x3f59233c	0.8481939
25	0x4002bdd6	2.0428367
26	0xbf6d9811	-0.9281016
27	0xbf00f651	-0.5037585
28	0xc01e488c	-2.473178
29	0xbfeabd1f	-1.8338965
30	0xbe800093	-0.25000438
31	0xbee75c65	-0.4518768

conv1_bn.running_var f4 [32]
0	0x3d1b7d67	0.03796139
1	0x3f1c3b92	0.610284
2	0x3de59dba	0.112117246
3	0x3e83a5b8	0.2571237
4	0x3dae38dc	0.08506939
5	0x3de4f557	0.11179607
6	0x3e393856	0.18087897
7	0x3d85c464	0.06531599
8	0x3d96f7e3	0.073714994
9	0x3d6abfd9	0.057311866
10	0x3dd10125	0.102052964
11	0x3db5e092	0.08880724
12	0x3d92b3bd	0.071631886
13	0x3d698210	0.057008803
14	0x3df4e4ca	0.119577006
15	0x3e861781	0.26189807
16	0x3daf153d	0.08548973
17	0x3dfbddf0	0.122981906
18	0x3e6e2103	0.2325478
19	0x3d7084b7	0.058720317
20	0x3d48f142	0.049058206
21	0x3dfb06c4	0.1225715
22	0x3e602f71	0.21893097
23	0x3d5d8e34	0.054090694
24	0x3ddb444b	0.10706385
25	0x3e6a3605	0.2287217
26	0x3d9f92b5	0.07791654
27	0x3d90848a	0.0705653
28	0x3ebd819e	0.37012953
29	0x3e68bcfa	0.22728339
30	0x3d1a00f9	0.037598584
31	0x3da4e18a	0.08050831

conv2.weight f4 [32, 32, 4, 4]
0	0x3c92aed1	0.017905625
1	0x3e1b9191	0.15192248
2	0xbe94df1d	-0.29076472
3	0x3e09bab5	0.1345013
4	0xbdfbe79b	-0.123000346
5	0x3e9b0351	0.30275968
6	0xbebbcc88	-0.36679482
7	0xbd8f3b3e	-0.069937214
8	0xbeaa7b8c	-0.33297384
9	0x3f03087f	0.5118484
10	0x3e49ec19	0.1971897
11	0x3ea34765	0.31890407
12	0xbe271679	-0.16317166
13	0xbe1f1eff	-0.15539168
14	0x3e9bad9b	0.30405888
15	0x3e559280	0.20856667
16	0x3ec46daa	0.38364917
17	0x3c9001ba	0.017578948
18	0x3e689668	0.22713625
19	0x3e5fab06	0.21842584
20	0x3c441b59	0.011969411
21	0x3d8d8d51	0.069117196
22	0x3db44264	0.088017255
23	0x3e600f96	0.21880946
24	0x3ec3c79e	0.38238233
25	0x3e0a0217	0.1347736
26	0x3e359bfc	0.17735285
27	0x3e29ffcc	0.16601485
28	0xbe18868e	-0.14895079
29	0x3e5c2421	0.21498157
30	0x3ce739f2	0.028225873
31	0x3e98c1e4	0.29835427
32	0x3e1c4455	0.15260442
33	0x3e9d35bc	0.3070506
34	0xbb119807	-0.002221586
35	0x3e2a4b9f	0.1663041
36	0xbe87431a	-0.26418382
37	0x3d52c394	0.05145605
38	0x3dd8817e	0.10571574
39	0x3e43e09d	0.19128652
40	0xbdfc2978	-0.12312597
41	0x3e6c9d62	0.23106912
42	0x3e41cc5a	0.1892561
43	0x3eb16de4	0.34654152
44	0xbeca5d7f	-0.39524457
45	0xbdee93ce	-0.11649285
46	0xbc077a17	-0.008268855
47	0x3e2b2563	0.1671348
48	0xbe0c4173	-0.13696842
49	0x3c827692	0.01592568
50	0x3e477b2f	0.19480585
51	0x3eef56a3	0.46745786
52	0xbe2bfa5c	-0.16794723
53	0xbe6028e7	-0.21890603
54	0x3e0ba47b	0.13636963
55	0xbe27d502	-0.1638985
56	0xbec696a4	-0.38786805
57	0x3df8d26e	0.12149511
58	0x3c09ec23	0.008418116
59	0xbf642c4b	-0.89130086
60	0xbeb0934f	-0.34487388
61	0xbec2d9ff	-0.38056943
62	0xbe820479	-0.25394037
63	0x3e3dbba2	0.18528607
64	0xbd924fd0	-0.07144129
65	0x3c7f280a	0.015573511
66	0x3ee263ce	0.4421677
67	0x3e9a75e1	0.3016806
68	0xbe3a3ab4	-0.18186456
69	0x3e3fab64	0.18717724
70	0x3d26c0c0	0.040711164
71	0x3e1b1e3d	0.15148254
72	0x3d9667c5	0.07344011
73	0xbe5acb98	-0.21366727
74	0xbd089b16	-0.033351026
75	0x3e1af234	0.15131456
76	0xbdd19d4d	-0.10235081
77	0xbd0beccf	-0.034161385
78	0x3b8b946f	0.004259638
79	0x3da98f7b	0.0827932
80	0x3e2a32be	0.16620919
81	0x3e253139	0.16132058
82	0x3c62855b	0.01382574
83	0x3dd9ebd6	0.10640685
84	0x3e5115a8	0.20418417
85	0xbd8995e7	-0.06718045
86	0x3d41a6ba	0.047278143
87	0x3e07e184	0.13269621
88	0x3d340639	0.043951247
89	0x3e7064ab	0.23475902
90	0x3cda97e7	0.02668376
91	0x3e96aa07	0.29426596
92	0x3bf72f7b	0.007543502
93	0x3dcfd556	0.101481125
94	0x3d3a7b2b	0.04552762
95	0x3eae37fa	0.34027082
96	0x3dcc8e29	0.099880524
97	0xbf051863	-0.51990336
98	0x3e99c358	0.30031848
99	0x3cd973ad	0.026544416
100	0x3d0d7214	0.03453262
101	0x3e96bf14	0.29442656
102	0xbc5d24d2	-0.013497548
103	0xbe0e86c8	-0.13918602
104	0x3d614459	0.054996822
105	0xbe06a6b4	-0.1314953
106	0xbe3008cf	-0.1719086
107	0x3f03cc63	0.51483744
108	0xbbaf0b11	-0.0053418954
109	0x3c93832a	0.01800688
110	0x3e56feda	0.20995656
111	0xbf0a420d	-0.54007035
112	0xbd0524f3	-0.03250594
113	0xbca96e11	-0.020682367
114	0x3e9bd13e	0.30433077
115	0x3d03f9f2	0.03222079
116	0xbe7bc76a	-0.24587789
117	0xbed6745b	-0.41885647
118	0x3e376731	0.17910458
119	0xbe14003b	-0.14453213
120	0xbe267771	-0.16256501
121	0x3e89c465	0.2690765
122	0x3df1980b	0.11796578
123	0xbd93397e	-0.071887
124	0xbe020acf	-0.12699436
125	0xbe1da812	-0.15396145
126	0x3df285a7	0.118418984
127	0xbe534e2b	-0.20635287
128	0xbe3dac19	-0.18522681
129	0xbe4530f7	-0.1925696
130	0x3ecd1630	0.4005599
131	0x3e5b5be0	0.21421766
132	0xbde38fe3	-0.111114286
133	0xbea79a2c	-0.3273481
134	0xbe56b6ce	-0.20968172
135	0xbe24be60	-0.16088247
136	0xbd750be2	-0.059825785
137	0xbd94a6ec	-0.072584
138	0x3da659a3	0.081225656
139	0x3e1acac4	0.15116411
140	0xbe82732f	-0.25478503
141	0x3e9bc4a4	0.30423462
142	0x3ec55cf2	0.38547474
143	0x3f030e6f	0.511939
144	0xbde130bd	-0.10995624
145	0xbea823df	-0.32839867
146	0x3e55259d	0.2081513
147	0x3de82a3c	0.113361806
148	0x3e113b8e	0.14182875
149	0x3ed69ab8	0.41914916
150	0xbe903a59	-0.28169516
151	0xbe823682	-0.2543221
152	0xbd87a181	-0.06622601
153	0xbf004baa	-0.50115454
154	0x3d13c82c	0.03607957
155	0x3e878de1	0.26475433
156	0xbe283baa	-0.1642901
157	0xbe79f7df	-0.24410962
158	0x3e154047	0.14575301
159	0xbe9cb460	-0.30606365
160	0x3e8475b2	0.25871044
161	0xbd12c343	-0.035830747
162	0xbe9ad6fe	-0.3024215
163	0xbe8476b2	-0.25871807
164	0x3d87b2f1	0.06625927
165	0x3eacbe75	0.33739057
166	0xbc267f5b	-0.0101622
167	0xbf0e0eac	-0.5549114
168	0x3d09e6af	0.033667263
169	0xbe1ca3ec	-0.15296906
170	0xbce0b0b2	-0.027428005
171	0x3e33fd98	0.17577207
172	0x3dc347ad	0.095351554
173	0x3e2a9d82	0.16661647
174	0xbdeeb256	-0.11655109
175	0x3e24e1d6	0.16101775
176	0xbda7f884	-0.082016975
177	0x3d6ae7c3	0.05734993
178	0xbe6e1d26	-0.23253307
179	0x3e82dc48	0.25558686
180	0x3dc47667	0.09592896
181	0xbcca74c4	-0.024713881
182	0x3d1c8057	0.038208332
183	0xbe694f6b	-0.22784202
184	0x3e844b5b	0.25838742
185	0xbe02e356	-0.12782034
186	0x3e5d7387	0.21626101
187	0x3e16a480	0.1471119
188	0x3a2f3028	0.0006682896
189	0xbdc1503a	-0.0943913
190	0xbef17806	-0.47161883
191	0xbe98a709	-0.29814938
192	0x3ddb7d44	0.10717252
193	0xbdb92e85	-0.09042076
194	0xbebe1cfa	-0.37131482
195	0x3ebac430	0.36477804
196	0x3e3ac705	0.18239982
197	0x3e8a08b6	0.2695977
198	0x3e485200	0.1956253
199	0x3d82588d	0.06364546
200	0xbea197ef	-0.3156123
201	0x3e21ebcf	0.1581261
202	0x3e71a9f7	0.23599993
203	0xbec99d05	-0.3937761
204	0x3e5236da	0.20528737
205	0x3e76c82a	0.24099794
206	0xbee4f84a	-0.4472068
207	0x3e453a60	0.1926055
208	0x3ed8e02b	0.42358527
209	0xbcdcb5a7	-0.026942087
210	0xbd638dc9	-0.05555514
211	0x3d94efaa	0.07272275
212	0x3dad6a7c	0.08467576
213	0xbe8e6040	-0.27807808
214	0xbe9bac4e	-0.30404896
215	0x3dff764d	0.12473736
216	0x3d566158	0.052338928
217	0xbc5c6536	-0.013451865
218	0xbcbd9c62	-0.023145858
219	0x3c1b914e	0.009495093
220	0x3e0829b2	0.13297155
221	0x3d9c4229	0.076298065
222	0xbd29098a	-0.041268863
223	0xbe86d89c	-0.26337135
224	0xbdb60959	-0.08888502
225	0x3e943c56	0.28952283
226	0x3e442b09	0.19157042
227	0xbe227e36	-0.15868458
228	0x3e2d4c9e	0.16923758
229	0xbe5a498e	-0.21317121
230	0x3e5a3b2c	0.21311635
231	0xbdeb0156	-0.11474864
232	0xbd6a291b	-0.057168107
233	0x3c8e7001	0.017387392
234	0x3ec0042a	0.37503177
235	0xbd45cc7b	-0.04829071
236	0xbe7a22c7	-0.24427329
237	0xbe284610	-0.16432977
238	0xbc882518	-0.01661925
239	0x3e9cfd94	0.30662215
240	0x3d36b3dd	0.044605125
241	0x3e45cc74	0.19316274
242	0xbe7aea74	-0.245035
243	0x3be1c23c	0.0068896096
244	0xbd7d3488	-0.061817676
245	0xbe278362	-0.16358712
246	0x3e9d9e52	0.3078485
247	0xbdb4b464	-0.08823469
248	0xbe0c4af4	-0.13700467
249	0x3e677e51	0.2260678
250	0xbba25c18	-0.004954826
251	0xbedcb3c9	-0.43105915
252	0xbe170879	-0.14749326
253	0xbd625403	-0.0552559
254	0xbd25da1e	-0.040491216
255	0x3e8f46f7	0.2798383

conv2.bias f4 [32]
0	0xbcd41e00	-0.025893211
1	0xbb041d0b	-0.0020158913
2	0x3ade6dc0	0.0016969964
3	0x3ca127c0	0.019672275
4	0x3c719e74	0.014747251
5	0x3c97ff9f	0.018554507
6	0xbd11d93d	-0.035607565
7	0x3d093193	0.033494543
8	0x3d1189ff	0.035531994
9	0xbc0f81b9	-0.008758956
10	0xbb91c96d	-0.0044490607
11	0xbbc2dc29	-0.0059466553
12	0x3bcd8d00	0.006272912
13	0x3cf37d9e	0.029722985
14	0xbc919b63	-0.01777429
15	0xbd307743	-0.043082487
16	0x3ba3345a	0.004980606
17	0xbca0360d	-0.019557023
18	0x3ce83ff8	0.028350815
19	0xbb263445	-0.0025360745
20	0xbd0a7e8a	-0.033812083
21	0xbc776f34	-0.0151021965
22	0xbd17672d	-0.03696363
23	0x3d32c458	0.04364428
24	0x3c398cf6	0.011325112
25	0x3ce89ce2	0.02839512
26	0xbcad3eda	-0.021148134
27	0x3c9e9c43	0.01936162
28	0x3cb04756	0.02151839
29	0xbc00d1b5	-0.007862498
30	0x3c3fc202	0.01170397
31	0x3c56e917	0.013117096

conv2_bn.weight f4 [32]
0	0x3eb81eb7	0.35960934
1	0x3ed5e0a9	0.41772965
2	0x3f103d1f	0.56343263
3	0x3f5afd12	0.85542405
4	0x3eaea2cc	0.3410858
5	0x3ee20df9	0.44151285
6	0x3f9c3e94	1.2206597
7	0x3f0fdf0b	0.5619971
8	0x3ed334d0	0.4125123
9	0x3ec4ed94	0.38462508
10	0x3f203fe7	0.6259751
11	0x3f5517d7	0.832395
12	0x3eb60a7a	0.35554868
13	0xbc536164	-0.012901638
14	0x3ee847b3	0.45367202
15	0x3f182659	0.59433514
16	0x3f1d5130	0.6145201
17	0x3efa9d1e	0.48947996
18	0x3f480733	0.78135985
19	0x3f327e8d	0.6972435
20	0x3f76b368	0.963675
21	0x3ecd9914	0.40155852
22	0x3f585589	0.84505516
23	0x3e9e5ce7	0.30930254
24	0x3f04bd58	0.51851416
25	0x3f5c6f60	0.86107445
26	0x3f205b33	0.6263916
27	0x3ecde891	0.40216497
28	0x3f689f67	0.9086823
29	0x3f7ada15	0.97989017
30	0x3f0a2a29	0.5397058
31	0x3ec6543d	0.38736144

conv2_bn.bias f4 [32]
0	0xbe5c8194	-0.21533805
1	0xbeafed8b	-0.34360918
2	0xbdfe9885	-0.124314345
3	0xbddf9395	-0.10916821
4	0xbe3ad1d8	-0.18244112
5	0xbeb2f833	-0.34954986
6	0xbd13fa0d	-0.03612714
7	0xbe8b9759	-0.27263907
8	0xbd9fe51c	-0.07807371
9	0xbe672648	-0.22573197
10	0xbb30dd5a	-0.0026987405
11	0x3c2ef4ff	0.010678529
12	0xbe2cb362	-0.16865304
13	0xbda5a602	-0.08088304
14	0x3d8216b3	0.06351986
15	0x3cc02519	0.02345519
16	0xbec5e4df	-0.38651177
17	0xbdecd312	-0.11563696
18	0xbce6d7de	-0.028179105
19	0x3af49401	0.0018659831
20	0xbd07a33d	-0.03311466
21	0xbe8c4977	-0.273998
22	0x3dd0ea01	0.10200883
23	0x3d955ad0	0.07292712
24	0xbe74a73e	-0.23891923
25	0xbac8e9d1	-0.0015328472
26	0xbd070702	-0.032965668
27	0xbea734c8	-0.32657456
28	0xbb6db309	-0.0036270043
29	0xbd92d1b0	-0.07168901
30	0x3d90d133	0.070711516
31	0xbc5dd272	-0.013538944

conv2_bn.running_mean f4 [32]
0	0x3f60c1e5	0.8779586
1	0xbc06d64d	-0.008229804
2	0xc041ed8f	-3.0301244
3	0xbf71f44c	-0.9451339
4	0x3f601ada	0.8754097
5	0xbf14bf0b	-0.5810401
6	0x3cb4bbcc	0.022062205
7	0x3fc58faa	1.5434468
8	0x40060a91	2.094395
9	0xbe9e83e4	-0.3096
10	0xbf4503a6	-0.7695869
11	0xc002daec	-2.044612
12	0xbf976ee6	-1.1830719
13	0xbdbae760	-0.091261625
14	0xc0335fec	-2.8027296
15	0xc021ab64	-2.5260859
16	0x40104cdd	2.2546914
17	0xbf2b1554	-0.6682942
18	0xc01d721a	-2.4600892
19	0xbf9fedbb	-1.2494425
20	0xc013b52d	-2.307933
21	0xbf50c77f	-0.81554407
22	0xc06d09e8	-3.7037296
23	0x3fc61c39	1.5477363
24	0xbf306422	-0.6890279
25	0xbfdca525	-1.7237898
26	0xbee3d29f	-0.4449663
27	0xbefc37ad	-0.49261227
28	0xbfb83f7a	-1.4394372
29	0xbfa2cf85	-1.271958
30	0xbf889bca	-1.0672543
31	0xbfe3cfd2	-1.7797797

conv2_bn.running_var f4 [32]
0	0x4103d67a	8.239862
1	0x4109dbe2	8.616182
2	0x41732f05	15.198979
3	0x41c0f1be	24.118038
4	0x40d7b7d8	6.741192
5	0x40f7fcb5	7.749598
6	0x421647d1	37.570133
7	0x417e5363	15.895358
8	0x411bec9b	9.745265
9	0x4103da70	8.240829
10	0x415a1d3a	13.632135
11	0x41ed107b	29.633047
12	0x40c4df16	6.152232
13	0x3e8c8127	0.27442285
14	0x410194d1	8.098832
15	0x418c0e8e	17.507107
16	0x41af68d3	21.926184
17	0x410ec50c	8.923107
18	0x4190d5e1	18.104433
19	0x418242f3	16.28269
20	0x41db2244	27.391731
21	0x40b0089b	5.5010505
22	0x41fb0b63	31.38056
23	0x409f6870	4.9814987
24	0x414a8e65	12.659764
25	0x419efb2e	19.872646
26	0x412ce43b	10.80572
27	0x408727e8	4.2236214
28	0x41fe2a16	31.77055
29	0x41c9ff1f	25.24957
30	0x41278793	10.470599
31	0x40b2e144	5.5899982

conv3.weight f4 [32, 32, 4, 4]
0	0xbdeac349	-0.11463029
1	0x3ebdf516	0.37101048
2	0x3c9ce784	0.019153364
3	0xbeb46dc2	-0.3523999
4	0xbec9d7b0	-0.3942237
5	0xbd7c783d	-0.061638106
6	0x3e985b76	0.2975728
7	0x3dbd7138	0.092501104
8	0xbf07a14d	-0.529805
9	0x3e0aa197	0.13538204
10	0xbe1623db	-0.14662115
11	0xbf15b77c	-0.584831
12	0x3cf8437d	0.030305618
13	0xbe5dc0b4	-0.21655542
14	0x3d6d53f2	0.057941385
15	0x3d032a39	0.03202269
16	0xbcd7f2c3	-0.026360875
17	0x3ea7b1a1	0.32752708
18	0x3ea5e051	0.32397702
19	0xbeb6f854	-0.35736334
20	0xbeabbfb2	-0.3354469
21	0xbf0819e3	-0.531645
22	0x3e5bfae2	0.21482423
23	0x3db8b600	0.09019089
24	0xbee51582	-0.44742972
25	0xbcf16308	-0.029466167
26	0xbda7d104	-0.081941634
27	0xbe52d42a	-0.20588747
28	0xbe4d8a55	-0.200723
29	0x3f079f27	0.5297722
30	0x3d255dea	0.040372767
31	0xbe8851e1	-0.2662497
32	0xbef284d3	-0.47366962
33	0x3e96c71b	0.2944878
34	0xbeaa5fa0	-0.3327608
35	0xbc95a316	-0.018266242
36	0x3d50eccb	0.051007073
37	0xbf1236e9	-0.57115036
38	0x3cab78e1	0.020931663
39	0x3ee89fa5	0.454343
40	0xbeb76a51	-0.358233
41	0x3e838806	0.25689715
42	0xbe364f72	-0.17803743
43	0xbe43f5d9	-0.19136752
44	0x3ec7c109	0.39014462
45	0xbdec020b	-0.11523827
46	0xbe7c2428	-0.24623168
47	0xbdb5a1ef	-0.08868777
48	0x3cff4312	0.031159911
49	0xbed77ea5	-0.4208881
50	0xbcf2cdce	-0.029639151
51	0xbea721d9	-0.3264301
52	0x3eb8b612	0.3607641
53	0xbea9d1c7	-0.3316786
54	0xbeb1ba41	-0.34712413
55	0xbe8ca04e	-0.27466053
56	0x3f46d01c	0.776613
57	0x3ea109eb	0.3145288
58	0x3d5f4995	0.054513533
59	0x3e1bb061	0.15204002
60	0x3ea24f6a	0.31701213
61	0xbf31799f	-0.69326204
62	0xbeed9713	-0.46404323
63	0xbecc576b	-0.39910445
64	0x3f12f55e	0.5740565
65	0xbe93c8bf	-0.28864095
66	0xbe8f49dc	-0.27986038
67	0x3d41895e	0.047250144
68	0xbf1b533e	-0.6067389
69	0x3ee43b86	0.44576663
70	0xbea82ca0	-0.32846546
71	0xbe580c65	-0.21098478
72	0xbf3690d0	-0.71314716
73	0xbda22dc7	-0.079188876
74	0x3e40c0f9	0.18823613
75	0x3e68b822	0.22726491
76	0x3dea6ea7	0.114468865
77	0x3e0037e5	0.12521322
78	0x3d12ea06	0.035867713
79	0xbdcbaa19	-0.09944553
80	0x3c86ab7f	0.016439198
81	0xbda5891b	-0.080827914
82	0x3eb0aa21	0.34504798
83	0x3e1447d7	0.1448053
84	0xbd3389b3	-0.043832492
85	0xbe5a4b74	-0.21317846
86	0xbcbbc09f	-0.022918997
87	0xbe9c9e2c	-0.30589426
88	0xbee0ebcd	-0.43929902
89	0xbd9014c5	-0.070352115
90	0x3d810046	0.0629888
91	0xbdcf6d8a	-0.10128315
92	0xbe387f6d	-0.18017359
93	0xbef18dfd	-0.4717864
94	0x3d2bbe4a	0.04192952
95	0xbda3a820	-0.07991052
96	0x3e625a4b	0.22104757
97	0xbe9bc4c4	-0.30423558
98	0x3dc78413	0.09741988
99	0xbe2dd4f3	-0.16975765
100	0x3e037166	0.12836227
101	0xbd8c5f07	-0.068540625
102	0xbda1d368	-0.07901651
103	0xbb3f1274	-0.0029155286
104	0xbe2acdbb	-0.16680042
105	0xbd93f634	-0.07224694
106	0xbef6b6b7	-0.48186275
107	0x3d2c60b3	0.042084407
108	0x3d06c1ee	0.03289979
109	0x3c5a7c15	0.0133352475
110	0x3ef17fa3	0.47167692
111	0xbdd6dc96	-0.10491292
112	0xbcf69a23	-0.030102795
113	0x3e6cb497	0.23115765
114	0x3ba97424	0.0051713157
115	0x3d58d6b8	0.052939147
116	0xbe4a2d7a	-0.1974391
117	0x3d38f8d7	0.045159187
118	0xbedb3ffe	-0.4282226
119	0x3d398b35	0.045298774
120	0xbe6328f5	-0.22183593
121	0x3c95b0fc	0.01827287
122	0xbd1d80b1	-0.038452808
123	0xbf0c58fa	-0.5482327
124	0x3ea0ce44	0.31407368
125	0xbd3d8411	-0.046268526
126	0xbd85c236	-0.065311834
127	0xbcaa067e	-0.020755049
128	0xbcd7ae52	-0.02632824
129	0xbef752bd	-0.48305312
130	0xbe14fe54	-0.14550143
131	0xbd240528	-0.04004398
132	0x3bbccbfb	0.005761621
133	0xbe12394f	-0.14279674
134	0xbe56348c	-0.20918483
135	0x3d3cbf49	0.04608086
136	0xbed3ce90	-0.41368532
137	0x3cd6937c	0.026193373
138	0x3f2ad24b	0.6672713
139	0x3da7c50d	0.08191881
140	0x3e872290	0.26393557
141	0xbe763450	-0.24043393
142	0xbeb3c6c4	-0.35112584
143	0xbddf3f18	-0.10900706
144	0x3ef52253	0.4787775
145	0xbecd5628	-0.40104795
146	0x3e90f5c9	0.2831252
147	0xbed9cd24	-0.42539322
148	0xbe1617af	-0.14657472
149	0xbeff5fb9	-0.49877718
150	0xbe0b8aa8	-0.13627112
151	0xbea0e1d6	-0.314223
152	0xbd9c858c	-0.076426595
153	0xbe072099	-0.13196029
154	0x3eb33218	0.34999156
155	0xbe4be18f	-0.19910263
156	0x3e53c79c	0.20681614
157	0xbe0f2c32	-0.13981703
158	0xbd60d199	-0.054887388
159	0x3e970d8c	0.29502523
160	0x3e8505ef	0.2598109
161	0xbd56a100	-0.052399635
162	0xbe0064b6	-0.12538418
163	0xbe32e65a	-0.17470685
164	0xbe17d0f5	-0.14825805
165	0xbea2222e	-0.31666702
166	0xbdaeb5f5	-0.08530799
167	0xbe023448	-0.12715256
168	0x3ef9a381	0.48757556
169	0xbe829314	-0.25502837
170	0xbd3e8ca9	-0.046520863
171	0x3d93cf93	0.07217326
172	0xbc9dca1d	-0.019261414
173	0xbd756f53	-0.05992062
174	0xbed43ecd	-0.41454163
175	0xbeb26d34	-0.3484894
176	0x3ea1f111	0.31629232
177	0xbcbffa6d	-0.023434842
178	0xbe2f690a	-0.17129913
179	0x3cbf2958	0.023335144
180	0x3e43e4c0	0.1913023
181	0x3e6ac4ef	0.22926687
182	0xbe2c91d4	-0.16852504
183	0xbecab218	-0.39589
184	0x3e0ff49c	0.14058155
185	0xbeb772bc	-0.35829723
186	0xbec3afb3	-0.38219985
187	0xbf040255	-0.5156606
188	0xbdb701a5	-0.089358605
189	0x3d9799ff	0.07402419
190	0xbcd7f377	-0.02636121
191	0xbe97e0c9	-0.29663685
192	0xbb3f6f1e	-0.0029210518
193	0x3d307340	0.04307866
194	0x3ea2b09f	0.31775376
195	0xbe49b915	-0.1969951
196	0x3e8f1bb6	0.2795083
197	0xbe0480ba	-0.1293973
198	0xbe97f410	-0.29678392
199	0x3e852d32	0.26011044
200	0x3da22f6a	0.079192
201	0xbc82abb6	-0.015951019
202	0x3d97f8ce	0.074205026
203	0x3e0c5ce7	0.13707314
204	0xbdd02ff6	-0.10165398
205	0xbe51fb7f	-0.20506094
206	0x3e3bcc4b	0.1833965
207	0x3e7cbb3c	0.24680799
208	0x3bcc6feb	0.0062389276
209	0xbc4e26ac	-0.012582462
210	0xbd237383	-0.039905082
211	0x3b7ffb91	0.0039059857
212	0x3bd53d95	0.0065075853
213	0xbc894554	-0.016756691
214	0x3b2d3f07	0.0026435272
215	0x3cf44740	0.02981913
216	0x3c71a3fb	0.014748569
217	0xbd1baa65	-0.038004298
218	0xbc847a9a	-0.016171742
219	0xbc2f321e	-0.010693101
220	0xbd15aecb	-0.03654365
221	0x3d376bd4	0.044780567
222	0x3c67dc45	0.014151637
223	0xbd33cd12	-0.043896742
224	0xbea3a65d	-0.31962863
225	0x3eaf9080	0.34289932
226	0x3e8ae019	0.27124098
227	0xbe40940c	-0.18806475
228	0x3e307268	0.17231143
229	0x3e0823c4	0.13294894
230	0x3eb66cfd	0.35630026
231	0x3e1b97dd	0.1519465
232	0xbdbeba7c	-0.09312913
233	0xbd81655a	-0.063181594
234	0xbd9aae4b	-0.07552775
235	0xbe9c89d2	-0.305739
236	0x3db77a48	0.0895887
237	0xbe85adb3	-0.26109084
238	0xbdb914b5	-0.09037153
239	0x3e6a13ee	0.22859165
240	0x3dce7ba6	0.10082178
241	0xbd88958d	-0.066691495
242	0x3e7e4590	0.24831223
243	0x3e68fbfd	0.22752376
244	0x3b9f698c	0.004864877
245	0x3e95a600	0.2922821
246	0xbdf29c19	-0.118461795
247	0xbeaa46ea	-0.33257228
248	0x3e19d093	0.15020971
249	0xbe886a6d	-0.26643696
250	0xbec9395e	-0.3930158
251	0xbf00d711	-0.50328165
252	0xbdd689f1	-0.10475529
253	0xbcd4d01d	-0.025978142
254	0x3c8db895	0.01729993
255	0xbe24e351	-0.1610234

conv3.bias f4 [32]
0	0x3d078b71	0.033091966
1	0xbac699a2	-0.0015151987
2	0x3cedd376	0.029031496
3	0xbcb8c0cb	-0.022552868
4	0xbd16f72a	-0.036856808
5	0xbd2a17f0	-0.041526735
6	0xbb876eeb	-0.0041330955
7	0x3d0265e0	0.031835437
8	0xbc01f5d2	-0.007932143
9	0xbc4c156b	-0.012456278
10	0x3ce0730f	0.027398614
11	0x3cde9392	0.027169976
12	0xbc8da17b	-0.017288914
13	0xbadfebaf	-0.0017083789
14	0xbd1eb818	-0.038749784
15	0xbaddab64	-0.001691204
16	0x3c9dafa0	0.019248784
17	0x3c468dd5	0.012118776
18	0x3baf8dfd	0.0053575025
19	0xbc47ecc0	-0.012202442
20	0xbbed76fc	-0.00724685
21	0x3d064ba2	0.032786973
22	0x3cb5f663	0.022212213
23	0xbba2a435	-0.0049634227
24	0x3bdddf25	0.0067709857
25	0x3ceccc2b	0.028905949
26	0x3a32d41e	0.0006821769
27	0xbc172477	-0.0092250025
28	0xbb10e6f2	-0.002211031
29	0xbbed0883	-0.0072336807
30	0x3c915077	0.017738564
31	0x3d2c7c6d	0.04211085

conv3_bn.weight f4 [32]
0	0x3f50e2da	0.8159615
1	0x3f8d99de	1.1062582
2	0x3f0d8dc6	0.55294454
3	0x3f17dfab	0.59325665
4	0x3f1ad2af	0.6047773
5	0xbf04aa1a	-0.51822054
6	0x3f34411d	0.70411855
7	0x3f2d4e6d	0.67697793
8	0x3f127d93	0.5722286
9	0x3f8c0703	1.093964
10	0x3f29cbd4	0.6632664
11	0x3f63cd3c	0.8898504
12	0x3ef97a7c	0.4872626
13	0x3f233fcb	0.63769215
14	0x3f47828e	0.77933586
15	0x3fa5dd9b	1.2958254
16	0x3f86250b	1.0480055
17	0x3f273b5f	0.6532497
18	0x3f0253b7	0.5090899
19	0x3f09ea4b	0.5387313
20	0x3f1d0d2b	0.6134822
21	0x3f214a82	0.63004315
22	0x3fb622dd	1.422939
23	0x3f0c4e8c	0.54807353
24	0x3f19a6d4	0.60020185
25	0x3f3f18c0	0.7464714
26	0x3f435b1f	0.76310915
27	0x3f23794d	0.63856965
28	0x3f08f072	0.5349189
29	0x3f1bdc3a	0.60882914
30	0x3f16146c	0.5862491
31	0x3fa3ff65	1.2812315

conv3_bn.bias f4 [32]
0	0xbe838ddf	-0.25694177
1	0x3c8f7b9c	0.017514996
2	0xbec5699f	-0.38557145
3	0xbea6b6d4	-0.32561362
4	0xbe76288c	-0.24038905
5	0x3e61a9ed	0.22037478
6	0x3d961341	0.07327891
7	0x3d4d7614	0.050161436
8	0xbcbd3d82	-0.023100618
9	0xbe3a7d26	-0.18211803
10	0xbe532a77	-0.20621668
11	0xbe1efa0c	-0.15525073
12	0xbe924c0c	-0.28573644
13	0xbe33d43f	-0.17561434
14	0xbe9c15f3	-0.30485496
15	0xbdc53dae	-0.09630905
16	0xbda675be	-0.08127926
17	0xbe823230	-0.25428915
18	0xbe2ca92d	-0.1686141
19	0xbdc1dee3	-0.094663404
20	0xbd2b7da4	-0.041867867
21	0xbe9c74f0	-0.30557966
22	0xbdad72eb	-0.084691845
23	0xbd8bb6de	-0.068219885
24	0xbe8d6b0f	-0.27620742
25	0x3d0b0447	0.033939626
26	0xbe727f36	-0.2368134
27	0xbec21254	-0.37904608
28	0xbe8ce046	-0.27514857
29	0xbe9d7b87	-0.30758306
30	0xbec19255	-0.37806955
31	0xbd0dc103	-0.0346079

conv3_bn.running_mean f4 [32]
0	0xc0a79f06	-5.238162
1	0xbf2ec109	-0.682633
2	0x3d9e95d4	0.07743421
3	0xc090bfe0	-4.5234222
4	0xc09787f8	-4.7353477
5	0x404848d0	3.1294441
6	0x3fed8fae	1.8559473
7	0xbef37404	-0.4754945
8	0xc04b8eb2	-3.1805844
9	0xc0264d53	-2.5984695
10	0xbe0f7560	-0.14009619
11	0x408b34c8	4.350193
12	0x3e8445eb	0.25834593
13	0xc063e97a	-3.5611253
14	0xbf3acd6a	-0.72969687
15	0xbf777806	-0.96667516
16	0x40051953	2.0796707
17	0xc00e0401	-2.2189944
18	0xc10de8b9	-8.869317
19	0x407e4bf0	3.9733849
20	0x4034d24e	2.825336
21	0xbfb2a4e7	-1.3956574
22	0xbfcb75a5	-1.5895277
23	0xc058467d	-3.3793023
24	0xc053b4f4	-3.3079195
25	0xc091283d	-4.536162
26	0xbf0c0494	-0.54694486
27	0xc055f7df	-3.3432539
28	0xc069be79	-3.6522505
29	0xbfd41e5a	-1.6571763
30	0xbfc681f3	-1.5508407
31	0x3ead6413	0.33865413

conv3_bn.running_var f4 [32]
0	0x4034695c	2.8189306
1	0x40892212	4.285409
2	0x403cb2f0	2.9484215
3	0x407187d5	3.7739155
4	0x401196ef	2.2748373
5	0x407d578c	3.9584684
6	0x405d9a4b	3.4625423
7	0x40423f97	3.0351312
8	0x4009a59f	2.1507337
9	0x40871704	4.2215595
10	0x40a43565	5.131518
11	0x40956e32	4.6697016
12	0x3fec07bf	1.8439864
13	0x404239dd	3.0347817
14	0x4059cdcc	3.4031858
15	0x40c5e565	6.1842523
16	0x40b18595	5.5475564
17	0x3ff349f2	1.9006941
18	0x400386dd	2.0551064
19	0x404970cf	3.1475103
20	0x401f5260	2.4894028
21	0x40445e50	3.0682564
22	0x40ff97bb	7.987272
23	0x3ff636a3	1.9235424
24	0x406b6aab	3.6783855
25	0x404565f4	3.0843477
26	0x4022e756	2.5453696
27	0x4072c31d	3.7931588
28	0x4042cdbe	3.0438075
29	0x4065bc17	3.589605
30	0x40308130	2.757885
31	0x40d249c1	6.571503

linear1.weight f4 [32, 6272]
0	0xbde35f28	-0.11102134
1	0xbdf4ee99	-0.119595714
2	0xbdf50514	-0.11963859
3	0xbd9b64a4	-0.07587555
4	0x3d43045e	0.047611587
5	0xbdaba44e	-0.08380948
6	0xbaf4a04a	-0.0018663493
7	0x3d976061	0.0739143
8	0xbdea736f	-0.114477985
9	0x3df39c57	0.11895054
10	0xbdc6344a	-0.09677942
11	0x3d2b86b3	0.041876506
12	0xbe2885ce	-0.16457292
13	0x3e2580b3	0.16162376
14	0x3b4c16d1	0.003114153
15	0xbbd49841	-0.0064878766
16	0xbe16cecb	-0.14727323
17	0xbbc71a51	-0.006076135
18	0xbbf64351	-0.007515349
19	0xbce9103d	-0.028450126
20	0x3e0f5f72	0.14001253
21	0xbb8c59e6	-0.0042831777
22	0x3e77a830	0.24185252
23	0xbdcf55d5	-0.10123793
24	0x3b875d19	0.004130971
25	0xbdcf30df	-0.10116743
26	0x3defe151	0.117128976
27	0xbdf2d6a3	-0.11857345
28	0x3db9a75c	0.090651244
29	0x3df08c4b	0.11745509
30	0xbe0de199	-0.1385559
31	0xbe090487	-0.13380633
32	0xbe6c8646	-0.23098096
33	0x3d7c7509	0.06163505
34	0xbd46637e	-0.048434727
35	0x3dc17745	0.09446577
36	0x3dc80ec3	0.097684406
37	0xbcf36f91	-0.029716285
38	0x3d0b619e	0.034028642
39	0xbda5254e	-0.08063756
40	0x3e3576c8	0.17721093
41	0x3c1386c6	0.0090043
42	0xbe05d596	-0.13069758
43	0x3e75cc1b	0.24003641
44	0xbeb31273	-0.34975013
45	0xbb9fc61f	-0.004875913
46	0xbe2e46e1	-0.17019226
47	0xbd063aec	-0.032771036
48	0x3dc30722	0.09522845
49	0x3f0b2df7	0.5436701
50	0xbe1b99f0	-0.15195441
51	0xbedf66fe	-0.43633264
52	0xbe1c2845	-0.15249737
53	0xbbcf1404	-0.0063195247
54	0x3e28b0d6	0.16473708
55	0x3e4fe3ce	0.20301744
56	0xbd763f3c	-0.0601189
57	0xbd8716e8	-0.06596166
58	0xbea5e005	-0.32397476
59	0xbdb3182a	-0.08744843
60	0xbe60a814	-0.21939117
61	0x3d63a81a	0.055580236
62	0x3e0adc27	0.13560544
63	0xbbeda01d	-0.007251753
64	0xbeae9d8c	-0.34104574
65	0xbf2effa0	-0.683588
66	0x3de8609d	0.113465525
67	0xbe358327	-0.17725812
68	0x3dd1f916	0.102525875
69	0xbdfb9683	-0.12284567
70	0xbe05c71c	-0.13064235
71	0xbe9e372f	-0.30901477
72	0xbc0371d8	-0.008022748
73	0x3e506d2f	0.2035415
74	0xbc56f30a	-0.013119468
75	0xbdcad208	-0.099033415
76	0xbe4ff462	-0.20308068
77	0x3e2f9afd	0.17148967
78	0xbe352dc6	-0.17693242
79	0x3e89d29f	0.26918504
80	0x3e0d4c72	0.13798693
81	0xbe53fa8f	-0.2070105
82	0xbdcd2f01	-0.10018731
83	0xbd876ceb	-0.06612571
84	0xbebbaf5e	-0.36657232
85	0xbe5732b2	-0.21015432
86	0x3ea5fe4a	0.3242057
87	0x3cd434bc	0.025904052
88	0xbe726cab	-0.23674266
89	0xbdfedb15	-0.1244413
90	0xbe62e3bd	-0.22157188
91	0x3dccb96e	0.099963054
92	0x3e06af37	0.13152777
93	0xbe3aada3	-0.182303
94	0x3dbb972c	0.09159693
95	0xbe061f9f	-0.13098
96	0xbc822af4	-0.015889622
97	0xbc213d91	-0.009841339
98	0x3e0ec683	0.13942914
99	0xbd946ec1	-0.07247687
100	0xbe58e94d	-0.21182747
101	0x3c8cee05	0.01720334
102	0x3d811f28	0.06304771
103	0x3d8ec4f9	0.06971163
104	0xbdd8159c	-0.10550997
105	0xbe91a230	-0.28444052
106	0x3ee45f30	0.44603872
107	0xbd267f0c	-0.040648505
108	0x3ca34cb3	0.019934034
109	0x3e17f7bc	0.14840597
110	0xbd0e1d94	-0.034696177
111	0xbd1d95e9	-0.038473044
112	0xbde29bef	-0.11064898
113	0xbe9dfb3a	-0.30855733
114	0x3dc21955	0.09477488
115	0x3cded10c	0.02719929
116	0xbf004b7d	-0.50115186
117	0xbd4694e8	-0.04848185
118	0x3d363ce4	0.044491664
119	0xbd7df483	-0.062000763
120	0x3c02abd4	0.007975537
121	0x3e3818dc	0.17978233
122	0x39dc32ab	0.0004199942
123	0xbe0c318b	-0.13690774
124	0x3cf33a05	0.029690752
125	0xbdac6790	-0.084181905
126	0xbe530521	-0.20607425
127	0xbd9ecdf9	-0.0775413
128	0x3ecedba3	0.40401945
129	0xbe6638cc	-0.22482604
130	0x3c1b6563	0.009484622
131	0xbbc89787	-0.006121579
132	0xbd8bc526	-0.068247125
133	0xbcc63d0e	-0.024199035
134	0xbbb8f9b6	-0.0056450022
135	0xbda1002e	-0.078613624
136	0xbde772c9	-0.113011904
137	0x3d0a1f85	0.033721466
138	0x3cf8a656	0.030352753
139	0x3cd524b0	0.02601847
140	0xbe18451f	-0.14870118
141	0xbeb8b6ec	-0.36077058
142	0x3e4749aa	0.19461694
143	0x3ca2d7f8	0.019878373
144	0x3c86f53f	0.016474364
145	0x3c396737	0.011316112
146	0x3c206517	0.009789727
147	0xbd9b37ad	-0.07578979
148	0x3c1f6546	0.009728735
149	0x3dda5f3d	0.106626965
150	0xbcc01b31	-0.023450466
151	0xbdf8dd52	-0.121515885
152	0x3dccc2c8	0.09998089
153	0x3d85357f	0.06504344
154	0xbe9fd153	-0.3121439
155	0xbd667d6d	-0.05627196
156	0x3d21045d	0.0393108
157	0xbd0a069c	-0.03369771
158	0x3d9ac09f	0.07556271
159	0xbdbf6992	-0.09346308
160	0xbd8382a5	-0.06421403
161	0xbbe57cec	-0.0070034172
162	0xb88fd937	-6.859231e-05
163	0xbdd168a2	-0.10225035
164	0x3cf4d5e0	0.02988714
165	0xbcadd6ac	-0.021220528
166	0xbd2a1c02	-0.041530617
167	0x3da926e9	0.08259375
168	0x3d7f4542	0.06232191
169	0x3e1de35a	0.15418759
170	0xbba216ad	-0.004946551
171	0xbbe64b24	-0.0070280004
172	0x3c3b4de7	0.011432148
173	0x3c2cbaaa	0.010542551
174	0xbd9b5f60	-0.07586551
175	0x3d5e5e49	0.054289136
176	0x3b9e4f66	0.0048312424
177	0xbb2da6b9	-0.002649708
178	0xbd0e0a00	-0.034677505
179	0x3de88b89	0.11354739
180	0xbda61019	-0.08108539
181	0x3c6e6407	0.014550216
182	0xbd4ca9a8	-0.049966484
183	0xbd98bbc4	-0.074576885
184	0x3db035d6	0.086040184
185	0xbc0fae45	-0.008769576
186	0xbb8cbd51	-0.004295029
187	0x3c01188c	0.007879388
188	0x3d0ae4ae	0.033909492
189	0x3c237d06	0.009978538
190	0xbdca05f9	-0.098644204
191	0xbc2129d3	-0.009836632
192	0xbd9e14b2	-0.07718791
193	0xbe0504e2	-0.12990144
194	0x3ce65e7a	0.028121222
195	0xba57922a	-0.0008223379
196	0xbcbd87e7	-0.023136092
197	0x3db1be14	0.08678833
198	0xbdfb5839	-0.122726865
199	0xbe41f612	-0.18941525
200	0x3e006b4e	0.12540933
201	0xbd3f10a1	-0.046646718
202	0x3e3737a6	0.17892322
203	0x3e3a5c61	0.18199302
204	0x3d1c8ba5	0.038219113
205	0xbd5fd0c1	-0.054642443
206	0x3d476ff5	0.048690755
207	0xbdfac0d8	-0.12243813
208	0x3e477a4d	0.19480248
209	0xbe99dccc	-0.30051267
210	0x3e2c5be3	0.16831927
211	0x3dcdc9c3	0.100482486
212	0xbe497c23	-0.1967626
213	0xbe107cc3	-0.14110093
214	0xbea4e25a	-0.32203943
215	0x3e3b3a87	0.18284045
216	0x3d97d126	0.07412939
217	0x3e0b1da1	0.13585521
218	0xbe63850d	-0.22218724
219	0xbd5c9358	-0.053851455
220	0xbd42d4a7	-0.047566082
221	0x3e0efa88	0.13962758
222	0x3e756a0b	0.23966233
223	0x3dba4d35	0.09096757
224	0x3e30d612	0.17269161
225	0xbe0f1d06	-0.13975915
226	0xbda6cd56	-0.081446335
227	0xbe2abfb2	-0.16674688
228	0x3e883de0	0.26609707
229	0xba3aaaa8	-0.00071207667
230	0x3e74cf96	0.23907313
231	0xbdafce75	-0.085843004
232	0xbebcf4c9	-0.36905506
233	0xbe84931e	-0.25893492
234	0x3e2526e7	0.16128121
235	0x3e92705b	0.28601345
236	0xbdd57b41	-0.104238994
237	0xbc82ed10	-0.01598218
238	0xbc8a0565	-0.016848275
239	0xbd84d8b5	-0.06486646
240	0x3dc398f9	0.095506616
241	0xbaac508a	-0.0013146561
242	0x3d7cc47d	0.061710823
243	0xbd1e2a78	-0.03861472
244	0x3dca1539	0.09867329
245	0xbddb4658	-0.107067764
246	0xbe59eeb8	-0.2128247
247	0x3d9e8f3b	0.07742163
248	0xbdc75cf8	-0.09734529
249	0xbd304aa6	-0.04303994
250	0x3da710d3	0.08157506
251	0x3ca7aa9b	0.020467093
252	0xbe064350	-0.13111615
253	0xbccd57b4	-0.025066234
254	0x3ce7f85b	0.028316667
255	0xbe4770ad	-0.19476576

linear1.bias f4 [32]
0	0xbc0ab554	-0.008466084
1	0x3a57da68	0.0008234144
2	0x3c0951d2	0.008381324
3	0xbb1f958a	-0.0024350607
4	0xbc3cfd20	-0.011534959
5	0x3a89c95e	0.0010512283
6	0xbaa18117	-0.0012321797
7	0xbbce87b4	-0.006302798
8	0xbc3b4bd3	-0.011431652
9	0x38e510ff	0.00010922737
10	0xbbf3d15b	-0.0074407286
11	0x3ba79bbe	0.0051150015
12	0x3b7781d8	0.0037766602
13	0xbb1b2af6	-0.002367673
14	0xbbce5ecd	-0.006297922
15	0x3bc33c25	0.0059580975
16	0xbc3023fa	-0.010750765
17	0x3c4de14f	0.012565925
18	0xbc13eeac	-0.009029072
19	0x3bb5277e	0.0055283895
20	0xbbc94f7f	-0.00614351
21	0x39da0a29	0.0004158777
22	0x3bce99b1	0.0063049425
23	0xbc28abc3	-0.010294857
24	0xbc19e10f	-0.009392037
25	0x3c027d8f	0.007964506
26	0xbb99880a	-0.0046854066
27	0x3b5d54a2	0.003377237
28	0xba66f842	-0.0008810797
29	0xbc3a5beb	-0.011374454
30	0x3bee0394	0.00726361
31	0xbbdc75d9	-0.0067279157

linear1_bn.weight f4 [32]
0	0x3da12d9d	0.07870028
1	0x3dced6dc	0.10099575
2	0x3d1b3e31	0.037901107
3	0x3d30ce61	0.04316557
4	0x3d245642	0.040121324
5	0x3d8898b8	0.06669754
6	0x3cf3907e	0.029731985
7	0x3d4ed2de	0.050494067
8	0x3decb7a7	0.115584664
9	0x3dde6e3f	0.108608715
10	0x3d180b33	0.037120055
11	0x3d1990b3	0.03749151
12	0x3dd01c97	0.10161703
13	0x3d23ae84	0.039961353
14	0x3d9b7b30	0.075918555
15	0x3d070231	0.032961074
16	0x3cf80f41	0.030280711
17	0x3db86ede	0.09005521
18	0x3ce97041	0.02849591
19	0x3dbbd15a	0.0917079
20	0x3d25a96c	0.040444776
21	0x3cfcf1a1	0.030876936
22	0x3de55c3d	0.11199234
23	0x3e232765	0.15932997
24	0x3dd96013	0.10614028
25	0x3d93e4ba	0.072213605
26	0x3da6073e	0.0810685
27	0x3d7acf4f	0.06123286
28	0x3d1118d1	0.035424057
29	0x3d143913	0.036187243
30	0x3d8bb151	0.0682093
31	0x3d9f74b7	0.077859335

linear1_bn.bias f4 [32]
0	0xbd2c21cc	-0.04202442
1	0xbd3030cc	-0.043015286
2	0x3cd4ad81	0.02596164
3	0x3c64ec90	0.0139724165
4	0x3c8f16da	0.017466951
5	0xbd198688	-0.037481815
6	0x3ce301ef	0.027710883
7	0xbb81dcaa	-0.003963073
8	0xbd440edd	-0.047865737
9	0xbd22fec7	-0.039793756
10	0x3c969861	0.018383207
11	0x3c9f3365	0.019433687
12	0xbd07652d	-0.033055473
13	0x3d0f1f60	0.03494203
14	0xbd1f751c	-0.038930044
15	0x3ccc4b79	0.024938332
16	0x3cff3f13	0.031158006
17	0xbd0b31eb	-0.033983152
18	0x3c8ab272	0.016930792
19	0xbcc8610c	-0.024460338
20	0x3ce913be	0.028451797
21	0x3b2377e2	0.0024943282
22	0xbd1f8f0d	-0.038954783
23	0xbe1ba799	-0.15200652
24	0xbdb7e03b	-0.089783154
25	0xbce93936	-0.028469663
26	0xbd14a8dd	-0.036293853
27	0x3aa08ee5	0.0012249617
28	0x3d0f8233	0.035036277
29	0x3c79b1a0	0.015240103
30	0xbce3748b	-0.027765533
31	0xbd665b54	-0.05623944

linear1_bn.running_mean f4 [32]
0	0x40c92725	6.2860284
1	0xc0c24bc4	-6.0717487
2	0xc10d4fcc	-8.831982
3	0xc0e7f039	-7.248074
4	0xbf874b68	-1.0569887
5	0x4168e058	14.554771
6	0x40c0578b	6.0106864
7	0xc17317fb	-15.193355
8	0xc159e88f	-13.619277
9	0x401d5210	2.4581337
10	0xc13fccd3	-11.987506
11	0x3f553412	0.8328258
12	0xc1440a2a	-12.252481
13	0x414965a3	12.587314
14	0xbf42a09f	-0.7602634
15	0xbff50533	-1.9142212
16	0x404faa7d	3.2447808
17	0x417d50a2	15.832186
18	0x40f18f54	7.548746
19	0x41808151	16.063143
20	0x4052e13e	3.2949977
21	0xc0b9462b	-5.7898154
22	0x412f79f2	10.967272
23	0xc0e3eae6	-7.122424
24	0x4097928d	4.7366395
25	0x3f81afd5	1.0131785
26	0xc0c66e3c	-6.2009563
27	0x3f858712	1.0431845
28	0x40e6be38	7.21072
29	0xc0a7f430	-5.248558
30	0x41337d1a	11.218042
31	0x40155833	2.3335083

linear1_bn.running_var f4 [32]
0	0x42c7ca40	99.89502
1	0x430dba33	141.72734
2	0x4282fc85	65.4932
3	0x4247c379	49.94089
4	0x42054aea	33.32316
5	0x42b5b107	90.84576
6	0x4208436e	34.06585
7	0x42668b09	57.635777
8	0x4395e382	299.7774
9	0x43987e30	304.98584
10	0x429df1d2	78.972305
11	0x4291f6dc	72.98215
12	0x436b826f	235.5095
13	0x42fb7961	125.73707
14	0x42d7785c	107.73508
15	0x423511b8	45.267303
16	0x421c2ba7	39.04263
17	0x431d0783	157.02934
18	0x41e84577	29.033918
19	0x43170a4f	151.04027
20	0x42a81dfb	84.058556
21	0x41d2d36b	26.353231
22	0x430a8cb1	138.54958
23	0x4398390a	304.44562
24	0x4369ad1e	233.67624
25	0x43090b3d	137.0439
26	0x43822cf6	260.35126
27	0x42b1cf70	88.90515
28	0x4222a8a7	40.6647
29	0x42620dfd	56.51366
30	0x42ae90fe	87.28319
31	0x42c4293d	98.08054

linear2.weight f4 [39, 39]
0	0x3d4dde80	0.05026102
1	0x3e036b75	0.1283396
2	0x3e20440d	0.1565096
3	0x3bdfb813	0.0068273633
4	0xbe7504eb	-0.23927657
5	0xbcaa6846	-0.020801675
6	0xbd5e9e74	-0.05435033
7	0x3c710aac	0.014712017
8	0x3e1e69eb	0.15470092
9	0x3e6b549a	0.22981492
10	0x3e87ca73	0.26521644
11	0x3d31e1ba	0.04342816
12	0x3e2d4ece	0.16924593
13	0xbe39640f	-0.18104576
14	0x3dbc7671	0.092022784
15	0x3dd4240f	0.1035844
16	0x3d99912d	0.07498393
17	0xbe1a804f	-0.15088008
18	0xbe5b1102	-0.21393207
19	0xbe6a8751	-0.22903182
20	0x3e02f486	0.12788591
21	0xbf4f4b0d	-0.80973893
22	0x3e0a5a59	0.13511027
23	0xbea5f6a1	-0.32414725
24	0xbe7e7dc2	-0.2485266
25	0x3d95eba1	0.07320333
26	0xbcfe7630	-0.031062216
27	0xbcaced78	-0.021109328
28	0x3e49fc57	0.19725166
29	0x3eb10459	0.3457363
30	0xbeaa6dbd	-0.3328685
31	0x3d2198c0	0.039452314
32	0x3d433568	0.047658354
33	0x3d3a12db	0.04542814
34	0x3c0667c7	0.008203453
35	0x3d33886a	0.043831266
36	0x3e8b4812	0.27203423
37	0xbe7b7322	-0.24555638
38	0xbed5faa2	-0.4179278
39	0x3d8ed41a	0.06974049
40	0x3cf677da	0.030086447
41	0x3c7c3b61	0.015395016
42	0xbd10f35c	-0.035388336
43	0x3e047440	0.12934971
44	0xbe09f450	-0.13472104
45	0xbe4283d6	-0.18995604
46	0x3d055247	0.03254917
47	0xbdd71848	-0.10502678
48	0x3c6f5684	0.014608029
49	0xbdfa7041	-0.12228442
50	0xbdeb4dcc	-0.11489448
51	0x3ccef751	0.025264414
52	0x3dbfac01	0.09358979
53	0xba50199f	-0.0007938388
54	0xbca2f586	-0.019892465
55	0xbc14dd89	-0.009086021
56	0xbdcadcfb	-0.0990543
57	0xbd16887c	-0.036751255
58	0x3d7eaa6e	0.062174253
59	0x3c138ced	0.009005767
60	0xbd82cd87	-0.063868575
61	0xbda9fbf0	-0.083000064
62	0x3e9031f0	0.281631
63	0x3d80601e	0.06268333
64	0xbcb1596b	-0.021649083
65	0x3e262bba	0.16227618
66	0xbcdf2615	-0.027239839
67	0x3d319bfd	0.043361653
68	0xbbe9b23c	-0.007131843
69	0xbd23a5db	-0.039953094
70	0xbca0cf71	-0.019630166
71	0xbcbfff1f	-0.02343708
72	0x3d7c5c00	0.061611176
73	0xbe514104	-0.20434958
74	0x3b95c324	0.0045703817
75	0x3f0e8fd3	0.5568821
76	0xbe6d942b	-0.23201053
77	0xbe8d2158	-0.27564502
78	0x3e2254e2	0.15852693
79	0x3de1dc84	0.11028388
80	0xbbef98fe	-0.0073119393
81	0xbd426132	-0.047455974
82	0x3c5a952a	0.013341228
83	0xbe19663d	-0.14980407
84	0xbd22777f	-0.03966474
85	0x3d958d4e	0.07302342
86	0xbd188d33	-0.037244033
87	0x3e62234e	0.2208378
88	0x3df707ab	0.120620094
89	0xbdb7fd08	-0.08983809
90	0xbda823b6	-0.08209936
91	0x3e7364e5	0.23768957
92	0xbde2389a	-0.11045952
93	0xbe1af5cc	-0.15132827
94	0x3e183683	0.14864545
95	0xbc6aaf1a	-0.014323974
96	0xbde4998e	-0.11162101
97	0x387d9d93	6.0466653e-05
98	0xbe3898ed	-0.18027087
99	0xbdedb955	-0.11607615
100	0xbdc99dbc	-0.098445386
101	0xbc3f2419	-0.011666321
102	0xbe03f0e8	-0.12884867
103	0x3db16526	0.08661871
104	0x3ca4e0de	0.020126756
105	0x3cf45389	0.029824989
106	0x3da8fcfb	0.08251377
107	0xbc56dc9a	-0.013114119
108	0x3ca0ec3d	0.019643897
109	0xbe17e31a	-0.14832726
110	0x3e6881a7	0.22705708
111	0x3cd3b15a	0.025841404
112	0x3dabe591	0.08393396
113	0x3dfa75e1	0.12229515
114	0xbe53021e	-0.20606276
115	0x3e0119b4	0.12607461
116	0x3d51d47e	0.05122804
117	0xbe80370d	-0.25042
118	0x3e98fb08	0.29879022
119	0x3e8243b8	0.2544229
120	0xbf74475a	-0.95421374
121	0x3e79bfe7	0.24389611
122	0x3ec5eb38	0.3865602
123	0xbd938556	-0.07203166
124	0x3e9184b0	0.28421545
125	0x3da04cbe	0.078271374
126	0xbf466619	-0.7749954
127	0x3e9a06f6	0.30083436
128	0xbf6ca832	-0.92444146
129	0xbf7ecc3a	-0.99530375
130	0xbd96d66c	-0.073651165
131	0x3d53f5a6	0.05174794
132	0xbec917ec	-0.39276063
133	0xbe25f0e6	-0.16205177
134	0xbb32f025	-0.0027303782
135	0x3c13b239	0.00901466
136	0xbe5dfe46	-0.21679029
137	0xbca9c792	-0.020725045
138	0xbd005500	-0.031331062
139	0xbe61ca58	-0.22049844
140	0x3eb7923c	0.35853755
141	0xbe59f76b	-0.21285789
142	0x3f6be338	0.92143583
143	0xbf435815	-0.7630628
144	0xbead1391	-0.3380399
145	0xbe90dbde	-0.28292745
146	0xbe809dec	-0.25120485
147	0xbeaa4c4a	-0.3326133
148	0x3e189a97	0.14902721
149	0x3d97a826	0.07405119
150	0xbdac268e	-0.08405791
151	0xbdb5dc8f	-0.08879959
152	0x3d92f157	0.07174938
153	0x3e8a4ccd	0.2701172
154	0xbc7fbdb1	-0.015609191
155	0xbdfee0e6	-0.1244524
156	0xbd828871	-0.063736804
157	0x3d879c7f	0.06621646
158	0xbcffd831	-0.031231018
159	0x3e0e774e	0.13912699
160	0x3d1385e0	0.036016345
161	0xbb03d488	-0.0020115692
162	0xbc87b5ff	-0.016566275
163	0x3d883271	0.06650246
164	0xbd46bf50	-0.048522294
165	0x3c260cbf	0.010134875
166	0x3c936473	0.017992234
167	0xbe088fcb	-0.13336103
168	0xbda49ca4	-0.08037689
169	0x3dfb758f	0.12278282
170	0xbe63a9a5	-0.22232683
171	0x3d1a6d4c	0.03770189
172	0x3cc7903a	0.024360765
173	0xbd4b6c01	-0.049663547
174	0x3c801561	0.015635194
175	0xbd832718	-0.06403941
176	0xbdbe38b5	-0.0928816
177	0x3cac26fa	0.02101468
178	0x3c06e1c4	0.008232538
179	0x3da3ab56	0.07991664
180	0x3d547a1c	0.051874265
181	0xbe04513f	-0.12921618
182	0x3d89d59d	0.067301966
183	0x3da4bcac	0.08043799
184	0x3c0e84a8	0.00869862
185	0xbc59a74c	-0.013284516
186	0xbd6e9902	-0.05825139
187	0x3a062d6e	0.0005118464
188	0xbe222533	-0.15834503
189	0x3e20b81e	0.15695235
190	0x3da7d40f	0.08194744
191	0x3eea1cc1	0.45725062
192	0xbda498e9	-0.08036978
193	0xbe1ad793	-0.15121298
194	0xbd828c86	-0.06374459
195	0x3d6619df	0.056177016
196	0x3db65f3b	0.089048825
197	0xbe2c972f	-0.16854547
198	0xbdad3dcd	-0.08459053
199	0xbb0838ee	-0.0020785886
200	0x3e022d57	0.12712608
201	0x3e248728	0.16067183
202	0x3cff630d	0.03117516
203	0xbdb49f62	-0.08819462
204	0x3e18d4dd	0.14924951
205	0xbdd92af0	-0.10603893
206	0xbc00618b	-0.007835756
207	0xbdacc00b	-0.08435067
208	0xbdb8e213	-0.09027495
209	0x3cce6e84	0.025199182
210	0xbce47acf	-0.027890591
211	0xbdc2f742	-0.09519817
212	0xbcc2d02d	-0.023780907
213	0x3e7f17c8	0.24911416
214	0x3e4810f7	0.19537722
215	0xbd962388	-0.07330996
216	0x3ca15dda	0.019698072
217	0x3db5fe40	0.08886385
218	0x3e62669a	0.22109452
219	0x3c062ced	0.008189422
220	0x3d777223	0.060411584
221	0x3dca4be7	0.098777585
222	0xbcc906eb	-0.024539432
223	0x3d1f0b6b	0.03882925
224	0xbd846f64	-0.064665586
225	0xbe694e7c	-0.22783846
226	0xbd92ecd3	-0.07174077
227	0x3bb7ad2b	0.00560536
228	0xbe126c72	-0.14299181
229	0x3e3eade1	0.18621017
230	0x3e0ec232	0.13941267
231	0x3e81efe1	0.25378326
232	0xbdfab8d3	-0.12242284
233	0xbe86a28e	-0.26295894
234	0xbccca3f8	-0.02498053
235	0xbcee633e	-0.029100057
236	0xbe1a7f88	-0.15087712
237	0xbd8a0e48	-0.06741005
238	0xbd7b0117	-0.061280336
239	0xbc5eeaec	-0.013605814
240	0x3d754eb9	0.05988953
241	0x3cb0a9d9	0.021565365
242	0xbccfd177	-0.025368435
243	0x3d1ce5b8	0.038305014
244	0x3d91be0e	0.07116328
245	0x3cff877c	0.031192534
246	0xbcfeac71	-0.031088086
247	0x3e155504	0.14583212
248	0x3d884d4c	0.06655368
249	0xbd12cabd	-0.035837878
250	0x3c237625	0.009976898
251	0xbc50d19e	-0.012745289
252	0x3de77b38	0.11302799
253	0x3d471fe7	0.04861441
254	0x3b8671b5	0.0041029104
255	0xbcd4d443	-0.02598012
