saved_models/gear_unconstrained_4.pt (torch_old, 954435 bytes, 28 tensors)

conv1.weight f4 [32, 3, 4, 4]
-0.0022054894 -0.13045825 0.056521595 0.11237892 -0.12544782 0.057830766 0.03379922 0.031228643
-0.05434214 -0.1352887 0.11388639 -0.07785317 -0.038794294 0.133987 -0.048583306 -0.11050311
-0.055791073 0.052786894 0.0737913 -0.00823722 -0.14877968 -0.05553157 0.12316484 -0.12686664
0.01402382 0.103912264 -0.07907886 -0.005039982 -0.029340547 -0.1424959 0.066875696 0.014977058
0.12027604 0.002392927 -0.03726382 -0.11067313 0.07291962 -0.010333257 -0.15383522 -0.15859829
-0.08187331 0.08614251 -0.043559916 -0.06267922 0.046136893 -0.04777317 0.1315967 0.13281856
0.007460624 0.08405488 0.10818965 0.07874577 -0.017191254 0.07951693 0.06891235 -0.04880319
0.014762769 0.115609124 0.13707736 0.016106876 -0.06761226 0.14181337 0.13689952 0.07640734
0.11245296 0.11587126 -0.019742204 0.09683507 0.0034094446 0.08714544 0.017101737 0.00601967
0.002074279 0.13256818 0.12632932 -0.05422911 -0.095383495 0.062021174 0.011544508 -0.07117165
-0.105039716 -0.060101017 -0.036873568 -0.10928019 0.14456505 0.053439908 0.15083282 -0.10193991
0.12887271 0.025931358 0.024168674 0.024796972 -0.088898025 -0.017329086 0.009758151 -0.06752459
0.09410762 -0.13199368 0.082883425 0.09060425 0.03388591 -0.15268359 -0.13846765 0.09114687
-0.060040846 -0.14517383 0.074336044 -0.111259095 0.12722856 -0.011709933 -0.04613717 -0.12876225
-0.07619318 -0.033665214 0.011567349 0.14723116 0.1033103 0.04820181 -0.075445406 -0.043812994
0.025577676 0.063527554 0.10174128 0.038969897 0.10667609 -0.017175464 0.036100537 -0.13753033
-0.03413571 -0.01375522 -0.119047105 -0.07178598 0.13221006 -0.14865732 0.06726699 -0.13752829
0.022247218 0.02502506 -0.10708028 0.14988424 0.097335696 -0.03285821 -0.11836867 0.041055914
-0.14047015 0.06642201 0.14016813 -0.10539279 -0.04821196 0.13916269 -0.048976276 -0.07932196
0.06913595 -0.066930056 0.1186868 0.05534755 -0.13268472 -0.034404766 0.13188736 0.037526388
-0.11297699 -0.016104357 0.13744572 -0.035841692 0.0806311 0.06670292 -0.14074647 0.10786725
0.13517487 -0.09095889 0.13482918 -0.10792976 -0.103166096 -0.034030516 -0.11013468 -0.012369613
0.096450515 0.0050377003 -0.10233067 0.0338146 0.021433348 0.051869348 0.0746495 0.0049037714
0.0813227 -0.12037604 -0.13762821 -0.12841344 0.022305187 -0.06432316 0.010593563 0.060370438
-0.09143918 -0.12054185 0.08077174 -0.11288372 0.038137157 0.10315683 0.1341161 -0.006296732
-0.031042613 0.025751773 0.07407566 0.08937185 -0.0017462011 0.12069685 -0.02647611 0.06765052
-0.055821545 0.018636473 -0.1397966 0.007337792 -0.008918999 0.15042907 -0.13538355 -0.029091686
0.0950596 -0.012059715 -0.047165077 0.067501485 0.026055226 -0.05064377 0.09699982 -0.114963345
0.061606564 0.006246129 0.035490785 -0.090831004 -0.04769399 0.13107084 -0.038088273 0.110342786
-0.023475386 -0.06828359 0.07034746 0.021932319 0.11406646 0.08146224 0.08290524 0.0070817997
0.13579363 -0.123418644 0.081787474 0.09056718 -0.029080082 -0.08833696 -0.013230944 -0.04975235
0.06608519 -0.024521085 0.10488923 -0.0636564 0.1441971 -0.033051573 0.095479704 0.12601525
00000000: f989 10bb d996 05be 3083 673d eb26 e63d
00000010: 6575 00be f4df 6c3d 0d71 0a3d 36d3 ff3c
00000020: dd95 5ebd 1f89 0abe 453d e93d 7c71 9fbd
00000030: c4e6 1ebd e333 093e 4aff 46bd 744f e2bd
00000040: 2e85 64bd 1237 583d e51f 973d 68f5 06bc
00000050: b359 18be 1275 63bd d93d fc3d 54e9 01be
00000060: 2ac4 653c f4cf d43d 19f4 a1bd 6f26 a5bb
00000070: 965b f0bc 72ea 11be 20f6 883d 5662 753c
00000080: 4953 f63d a7d2 1c3b f3a1 18bd 98a8 e2bd
00000090: e256 953d d24c 29bc fb86 1dbe 9767 22be
000000a0: 32ad a7bd 7c6b b03d e26b 32bd f75d 80bd
000000b0: 0afa 3c3d cdad 43bd 49c1 063e 9701 083e
000000c0: 4078 f43b f724 ac3d 8992 dd3d 7645 a13d
000000d0: acd4 8cbc c6d9 a23d eb21 8d3d dbe5 47bd
000000e0: 8bdf 713c 7ac4 ec3d 025e 0c3e 91f2 833c
000000f0: 4c78 8abd 8637 113e 632f 0c3e 747b 9c3d
00000100: bd4d e63d e94d ed3d 67ba a1bc 7751 c63d
00000110: fd70 5f3b 4f79 b23d f118 8c3c a740 c53b
00000120: a0f0 073b f4bf 073e 795c 013e 581f 5ebd
00000130: 6c58 c3bd ea09 7e3d 2d25 3d3c 71c2 91bd
00000140: 101f d7bd 7c2c 76bd bd08 17bd 4bce dfbd
00000150: dc08 143e cee3 5a3d eb73 1a3e dfc5 d0bd
00000160: 35f7 033e 006e d43c 62fd c53c 0523 cb3c
00000170: 2b10 b6bd baf5 8dbc a7e0 1f3c 554a 8abd
00000180: 7fbb c03d 5a29 07be c9be a93d b98e b93d
00000190: f4cb 0a3d 1659 1cbe 77ca 0dbe 36ab ba3d
000001a0: 64ed 75bd 73a8 14be 7f3d 983d cfdb e3bd
000001b0: 3448 023e 05db 3fbc 54fa 3cbd 40da 03be
000001c0: 2c0b 9cbd 89e4 09bd fa84 3d3c c4c3 163e
000001d0: 5a94 d33d 436f 453d 1f83 9abd 4175 33bd
000001e0: 4688 d13c bc1a 823d bb5d d03d e69e 1f3d
000001f0: fe78 da3d 8fb3 8cbc 28de 133d c0d4 0cbe
00000200: e3d1 0bbd 935d 61bc f8ce f3bd 8704 93bd
00000210: 1362 073e a039 18be 47c3 893d 37d4 0cbe
00000220: cc3f b63c 5b01 cd3c e84c dbbd 417b 193e
00000230: f057 c73d 5596 06bd 466b f2bd 3f2a 283d
00000240: 68d7 0fbe 4308 883d 3c88 0f3e 2dd8 d7bd
00000250: e779 45bd aa80 0e3e 599b 48bd 8d73 a2bd
00000260: 2697 8d3d a012 89bd 1112 f33d 1db4 623d
00000270: 81de 07be 03ec 0cbd 7b0d 073e 45b5 193d
00000280: 7b60 e7bd 49ed 83bc 92be 0c3e bdce 12bd
00000290: eb21 a53d 8a9b 883d d81f 10be 81e9 dc3d
000002a0: 486b 0a3e a848 babd a910 0a3e 470a ddbd
000002b0: bf48 d3bd 9563 0bbd 4b8e e1bd eba9 4abc
000002c0: d987 c53d 4b13 a53b be92 d1bd 2e81 0a3d
000002d0: fd94 af3c f474 543d d6e1 983d d1af a03b
000002e0: 848c a63d b787 f6bd 69ee 0cbe d07e 03be
000002f0: 5eb9 b63c dcbb 83bd a090 2d3c fe46 773d
00000300: 7744 bbbd a5de f6bd a76b a53d 942f e7bd
00000310: b535 1c3d e343 d33d bb55 093e d154 cebb
00000320: 144d febc 62f5 d23c fbb4 973d 9708 b73d
00000330: c9e0 e4ba e92f f73d 6de4 d8bc 5b8c 8a3d
00000340: 22a5 64bd 84ab 983c d726 0fbe dc71 f03b
00000350: fe20 12bc 140a 1a3e fca1 0abe b051 eebc
00000360: 9cae c23d 1c96 45bc 2b30 41bd 383e 8a3d
00000370: c571 d53c d76f 4fbd d7a7 c63d e771 ebbd
00000380: 2a57 7c3d 54ac cc3b c95e 113d 9b05 babd
00000390: c65a 43bd 6f37 063e 7302 1cbd 66fb e13d
000003a0: 744f c0bc 44d8 8bbd 5412 903d 68ab b33c
000003b0: ad9b e93d add5 a63d 39ca a93d 710e e83b
000003c0: 7c0d 0b3e eac2 fcbd 3180 a73d 497b b93d
000003d0: 5a39 eebc 02ea b4bd 9ac6 58bc 1fc9 4bbd
000003e0: ac57 873d 71e0 c8bc 2ad0 d63d 495e 82bd
000003f0: 68a8 133e 1661 07bd dd8a c33d 240a 013e

conv1.bias f4 [32]
0.05501906 -0.13872257 0.13500401 0.06552123 -0.023104556 0.12722269 0.030197762 0.047692522
-0.06603661 -0.073678106 -0.073996365 -0.049762126 0.06023913 0.053686973 -0.09947991 -0.122044295
0.0560114 -0.07480261 -0.077849224 0.10397207 0.032574654 -0.108481154 -0.0705916 -0.013949317
-0.08620703 0.07109515 -0.08188826 -0.09098886 -0.13532557 -0.03370664 0.088856995 0.10646208
00000000: aa5b 613d 4a0d 0ebe 7e3e 0a3e ff2f 863d
00000010: c445 bdbc aa46 023e 4c61 f73c 3c59 433d
00000020: 343e 87bd 8ce4 96bd 688b 97bd 5fd3 4bbd
00000030: 4ebd 763d dfe6 5b3d 20bc cbbd 5cf2 f9bd
00000040: 366c 653d 1c32 99bd 6a6f 9fbd 4fef d43d
00000050: 006d 053d 5e2b debd 5492 90bd ad8b 64bc
00000060: 508d b0bd 569a 913d 08b5 a7bd 5e58 babd
00000070: c992 0abe f90f 0abd a8fa b53d ca08 da3d

conv1_bn.weight f4 [32]
0.7143238 0.6196566 0.1135115 0.10128574 0.29333603 0.58379424 0.2726465 0.5016418
0.18280378 0.32852143 0.24893433 0.9304419 0.6286268 0.58241415 0.22393133 0.43632513
0.9100567 0.47667813 0.7061378 0.46342555 0.7221306 0.7693906 0.51016474 0.8815058
0.19276379 0.4771594 0.19878235 0.87148714 0.87342733 0.09058924 0.5765158 0.73539275
00000000: eddd 363f d1a1 1e3f b878 e83d e66e cf3d
00000010: 2430 963e 8a73 153f 5298 8b3e 996b 003f
00000020: ea30 3b3e f633 a83e a4e8 7e3e 7131 6e3f
00000030: b0ed 203f 1819 153f 414e 653e 0266 df3e
00000040: 7af9 683f 280f f43e 72c5 343f 1d46 ed3e
00000050: 8ddd 383f c8f6 443f 289a 023f 5daa 613f
00000060: df63 453e 3d4e f43e 9a8d 4b3e c819 5f3f
00000070: ef98 5f3f da86 b93d 8a96 133f b342 3c3f

conv1_bn.bias f4 [32]
0.016279003 -0.010353336 0.0014443911 0.0069865617 0.0015463997 0.00018047538 -0.007891845 -0.016670331
-0.009265609 0.0050547514 0.026937995 -0.01694933 0.018639153 -0.00448555 0.0060452092 0.013665064
0.0017469791 0.0134410495 0.009634927 -0.023622219 0.017916419 -0.0057015494 0.0014682834 -0.007414469
-0.025196807 -0.008419992 -0.009003467 -0.024937775 0.023068642 -0.0263152 -0.0033382485 -0.013492812
00000000: 8b5b 853c 0aa1 29bc b951 bd3a 87ef e43b
00000010: 90b0 ca3a fe3d 3d39 cc4c 01bc 3890 88bc
00000020: c8ce 17bc 54a2 a53b 12ad dc3c 52d9 8abc
00000030: 23b1 983c 85fb 92bb e416 c63b 6fe3 5f3c
00000040: e4fa e43a d937 5c3c d0db 1d3c 6283 c1bc
00000050: 74c5 923c 10d4 babb 6a73 c03a 13f5 f2bb
00000060: 8969 cebc 02f4 09bc 4783 13bc 4e4a ccbc
00000070: 73fa bc3c f992 d7bc 84c6 5abb f510 5dbc

conv1_bn.running_mean f4 [32]
-0.2476554 0.71673614 -0.02458218 0.023027426 0.361479 0.96208227 0.14375608 0.0059164227
-0.11534107 -0.15816508 -0.41328713 -0.45462254 -0.20898202 1.0560534 -0.13861431 -0.36060092
0.5251046 0.36411226 0.5819892 -0.018641278 0.6797199 -0.12379385 -0.44113496 -0.20752168
0.20155612 0.13736089 0.09595346 0.0003630886 -0.59165883 -0.39505494 0.031905398 -0.18760107
00000000: 6199 7dbe 057c 373f 9160 c9bc 03a4 bc3c
00000010: c713 b93e 064b 763f cb34 133e 8dde c13b
00000020: f037 ecbd 07f6 21be 5f9a d3be 49c4 e8be
00000030: 62ff 55be c22c 873f e9f0 0dbe afa0 b8be
00000040: 416d 063f ec6c ba3e 3ffd 143f 98b5 98bc
00000050: 2002 2e3f a187 fdbd 71dc e1be 9080 54be
00000060: ba64 4e3e 55a8 0c3e 3f83 c43d ed5c be39
00000070: f476 17bf a444 cabe 3caf 023d 7f1a 40be

conv1_bn.running_var f4 [32]
0.005286852 0.0407734 0.0046754694 0.002280211 0.010542466 0.032878008 0.0023798072 0.0019031416
0.0033827329 0.0030232568 0.007775225 0.012830395 0.0051454203 0.049028095 0.002518348 0.0077715362
0.013673889 0.012907773 0.023628503 0.0031739387 0.021850973 0.0057142237 0.008604404 0.0033510353
0.006786797 0.0026476367 0.002515939 0.0048311274 0.010511451 0.009089655 0.0029958803 0.006153648
00000000: 543d ad3b 0202 273d ae34 993b 986f 153b
00000010: 4fba 2c3c 17ab 063d 8af6 1b3b d672 f93a
00000020: d7b0 5d3b d521 463b 51c7 fe3b 9436 523c
00000030: ea9a a83b afd1 483d de0a 253b 5fa8 fe3b
00000040: 7308 603c 207b 533c 9090 c13c db01 503b
00000050: d000 b33c 623e bb3b 7cf9 0c3c 0b9d 5b3b
00000060: c863 de3b f983 2d3b 74e2 243b 6f4e 9e3b
00000070: 3938 2c3c c7ec 143c 8856 443b 8aa4 c93b

conv2.weight f4 [32, 32, 4, 4]
0.028160889 0.0107791945 0.04620217 -0.012096067 -0.02245892 0.045971304 0.031525295 0.06359777
0.032450307 -0.02764203 -0.01489985 0.0367314 0.02096784 -0.049148053 0.06605973 -0.007901908
-0.01633086 -0.016807258 0.0047225542 -0.03305423 0.019842567 -0.036059946 -0.011832353 0.0061216257
0.032706797 -0.039315823 0.029995764 0.04746163 0.026038703 -0.046187207 0.03808883 0.012467172
0.00091750355 0.047099795 -0.01860619 -0.038162086 -0.037334535 0.043324552 -0.017215643 0.020257935
0.028199883 0.0006344823 -0.019404598 -0.038470253 -0.033535387 0.03134334 0.021657277 0.012158562
-0.034272924 0.0121081285 0.012958252 0.017769028 0.014400881 0.06664902 0.024524413 -0.042774823
0.04248218 0.0030542675 0.021382924 0.027643465 -0.059056334 0.019874074 -0.054728996 0.030459896
-0.004759123 0.014867348 0.03706823 0.054712437 -0.024554513 -0.003052389 0.068377875 0.03250719
-0.019742902 0.05197283 0.0103558935 0.0443794 -0.012941946 0.049590778 0.034516413 -0.022787781
0.009259997 -0.0114002125 0.012799884 0.0073445905 0.03459357 0.023975063 -0.033445332 0.013566514
0.05840045 0.04696492 -0.00027687638 0.021615481 0.047261927 -0.005407098 0.008246274 0.0032073825
0.035415594 0.041433692 0.017270396 0.022795193 -0.011754462 -0.011924581 -0.02390047 0.059408326
0.03063067 0.023094663 0.047110796 -0.020952934 0.041197054 -0.010878151 0.01181764 -0.020917622
-0.06573704 -0.04151699 0.050641414 0.0679419 -0.02292344 -0.0221725 0.047415752 0.024126658
-0.0226695 0.05675949 -0.006920334 0.0075292164 -0.030653348 0.0056710546 -0.033832427 -0.007904532
-0.053620853 0.022419853 -0.0016172444 0.0051995437 -0.028816974 -0.007489447 0.021402402 0.0015120945
-0.06363434 0.014111409 -0.03084701 -0.036048595 0.012325238 -0.034498084 0.013070378 -0.0113072265
-0.008453594 0.0010399839 0.05647757 0.041996736 0.00253195 -0.014970102 0.049178712 0.0047518695
-0.023677444 -0.04106991 0.026375102 -0.02318807 0.006869926 -0.008046887 -0.03271102 0.055156343
0.055704813 0.015670128 0.015847865 -0.03125951 0.06594928 -0.048000768 0.046344973 0.014747214
-0.05860545 -0.040795628 0.040045384 -0.0057255877 0.00013697667 -0.035692643 0.029608494 0.0073671183
0.028031172 -0.017130712 -0.026103126 0.03046096 -0.0015592745 -0.022718092 0.023459746 0.01563284
-0.05970256 -0.018362774 0.0009031654 0.029475195 0.013490725 0.001472088 0.0062836516 0.014759972
0.00017137891 0.014863566 -0.008189837 -0.0184186 -0.035394683 0.020231368 0.045096442 -0.020273518
0.014487561 0.025732227 0.012750217 -0.011869015 -0.04481658 -0.0021673327 0.03159698 0.013442592
0.050892398 0.022076756 0.023853267 8.8934896e-05 0.01986015 0.03681713 -0.015412049 0.019001972
0.014037001 0.039072495 -0.033591863 -0.0040019797 0.046633292 -0.020124871 0.018209783 0.0036201938
-0.0074053877 -0.023256568 -0.061951276 0.029898295 -0.048310056 0.0047838045 -0.049565062 -0.051874034
0.004497755 -0.04269841 -0.044669647 -0.04819173 -0.04453788 0.006108981 -0.054415792 0.0383934
-0.05748864 0.023590239 -0.0094585195 -0.033344544 -0.029771347 0.011960899 -0.019180443 -0.00480041
0.0005956108 0.025269266 -0.030131122 0.0034614955 -0.06375759 0.0010669541 -0.047481176 0.024502736
00000000: aab1 e63c 389b 303c 7d3e 3d3d 952e 46bc
00000010: c5fb b7bc 684c 3c3d ab20 013d 8c3f 823d
00000020: 9dea 043d 8a71 e2bc 801e 74bc aa73 163d
00000030: bfc4 ab3c 784f 49bd 534a 873d 0177 01bc
00000040: 4cc8 85bc 60af 89bc a8bf 9a3b df63 07bd
00000050: e18c a23c 98b3 13bd 7cdc 41bc eb97 c83b
00000060: 90f7 053d a109 21bd adb9 f53c 2067 423d
00000070: 1e4f d53c cc2e 3dbd 0803 1c3d 1c43 4c3c
00000080: 9f84 703a b7eb 403d 026c 98bc d94f 1cbd
00000090: 19ec 18bd 1675 313d d207 8dbc f8f3 a53c
000000a0: 7103 e73c 6353 263a 64f6 9ebc fc92 1dbd
000000b0: 675c 09bd e061 003d 9a6a b13c b534 473c
000000c0: c461 0cbd 2c61 463c d94e 543c 5a90 913c
000000d0: acf1 6b3c 487f 883d 6ce7 c83c a734 2fbd
000000e0: cb01 2e3d 1b2a 483b 3e2b af3c 8c74 e23c
000000f0: 0ee5 71bd f4ce a23c 832b 60bd 0887 f93c
00000100: 6bf2 9bbb 2d96 733c dbd4 173d 261a 603d
00000110: 8c26 c9bc 970a 48bb b309 8c3d 4226 053d
00000120: debb a1bc 76e1 543d c4ab 293c 2cc7 353d
00000130: 750a 54bc b31f 4b3d 1561 0d3d 71ad babc
00000140: 3eb7 173c f5c7 3abc 9bb6 513c e4aa f03b
00000150: fdb1 0d3d 5a67 c43c f9fd 08bd 1546 5e3c
00000160: 4f35 6f3d 4a5e 403d b829 91b9 f312 b13c
00000170: b995 413d 072e b1bb 611b 073c f332 523b
00000180: f10f 113d 60b6 293d a57a 8d3c fcbc ba3c
00000190: c995 40bc 515f 43bc ebca c3bc 2556 733d
000001a0: 2ced fa3c 0531 bd3c 40f7 403d 7da5 abbc
000001b0: 3ebe 283d 463a 32bc c69e 413c 6f5b abbc
000001c0: 24a1 86bd b80d 2abd 5f6d 4f3d 1f25 8b3d
000001d0: f0c9 bbbc 1aa3 b5bc 0537 423d 45a5 c53c
000001e0: 63b5 b9bc a47c 683d f8c3 e2bb a5b7 f63b
000001f0: bb1c fbbc 41d4 b93b df93 0abd 0382 01bc
00000200: 8aa1 5bbd d7a9 b73c b8f9 d3ba ef60 aa3b
00000210: 9311 ecbc 096a f5bb 1754 af3c 7931 c63a
00000220: b952 82bd 8a33 673c deb2 fcbc b1a7 13bd
00000230: ccef 493c dd4d 0dbd 2425 563c f241 39bc
00000240: f180 0abc 1250 883a 0655 673d c504 2c3d
00000250: 12ef 253b 2945 75bc 9e6f 493d 92b5 9b3b
00000260: 33f7 c1bc ec38 28bd 9910 d83c e8f4 bdbc
00000270: 1e1d e13b 17d7 03bc fefb 05bd 9eeb 613d
00000280: bb2a 643d a45e 803c 62d3 813c f909 00bd
00000290: 6b10 873d 749c 44bd 3ad4 3d3d 4c9e 713c
000002a0: 450c 70bd 5119 27bd a106 243d b69d bbbb
000002b0: 65a1 0f39 7332 12bd 838d f23c de67 f13b
000002c0: a1a1 e53c b555 8cbc 39d6 d5bc 4389 f93c
000002d0: 9260 ccba 4b1b babc a72e c03c 7110 803c
000002e0: ac8a 74bd 876d 96bc 67c2 6c3a f775 f13c
000002f0: 3408 5d3c 14f3 c03a 17e7 cd3b cfd3 713c
00000300: 2db4 3339 5086 733c ab2e 06bc 9be2 96bc
00000310: 04fa 10bd 41bc a53c 0cb7 383d a614 a6bc
00000320: 3c5d 6d3c 64cc d23c 49e6 503c 4276 42bc
00000330: 9791 37bd cf09 0ebb d66b 013d 513e 5c3c
00000340: 8c74 503d 50da b43c ed67 c33c 8f82 ba38
00000350: c1b1 a23c 8fcd 163d d282 7cbc 06aa 9b3c
00000360: 73fb 653c 7b0a 203d 9f97 09bd 0a23 83bb
00000370: 8d02 3f3d eadc a4bc af2c 953c c640 6d3b
00000380: e5a8 f2bb 8f84 bebc 9fc0 7dbd 45ed f43c
00000390: c4e0 45bd 76c1 9c3b bc04 4bbd de79 54bd
000003a0: e761 933b 87e4 2ebd 85f7 36bd b164 45bd
000003b0: 5a6d 36bd d92d c83b 18e3 5ebd 6642 1d3d
000003c0: 3579 6bbd 5140 c13c e8f7 1abc 4a94 08bd
000003d0: 0ae3 f3bc a6f7 433c 4e20 9dbc c24c 9dbb
000003e0: c422 1c3a 7e01 cf3c 8bd5 f6bc 42da 623b
000003f0: 5793 82bd 0ad9 8b3a 9f7b 42bd f6b9 c83c

conv2.bias f4 [32]
-0.0084326 0.009962119 0.006925603 -0.030251045 -0.043610565 0.02074757 -0.008775695 -0.014601278
0.024250524 -0.026765166 -0.035669126 -0.0025828313 0.02914948 -0.03908551 -0.0019935006 0.017073885
-0.007963616 0.024644103 0.039086256 -0.037450034 0.017822921 -0.04410437 0.0014786026 -0.03668616
-0.021632392 0.017790493 -0.0149359545 -0.021672254 0.025014592 -0.009728484 -0.04157363 0.03686297
00000000: e328 0abc 2838 233c 2bf0 e23b 0ad1 f7bc
00000010: fea0 32bd cff6 a93c efc7 0fbc 333a 6fbc
00000020: 09a9 c63c 9f42 dbbc ca19 12bd b844 29bb
00000030: e4ca ee3c 2118 20bd 64a5 02bb 88de 8b3c
00000040: d479 02bc 6ee2 c93c e918 203d 3565 19bd
00000050: 6001 923c c9a6 34bd accd c13a 3a44 16bd
00000060: 6a36 b1bc 5ebd 913c efb5 74bc 038a b1bc
00000070: 67eb cc3c 3864 1fbc 1c49 2abd a0fd 163d

conv2_bn.weight f4 [32]
0.27504689 0.46397352 0.7426749 0.8642416 0.2530689 0.014479369 0.69399744 0.833638
0.27131882 0.25705886 0.99115944 0.633386 0.7712105 0.8769529 0.7640375 0.5923463
0.12506878 0.38413334 0.7224507 0.99083745 0.07638513 0.32384875 0.98565966 0.79767334
0.4015641 0.24507265 0.18715325 0.6405179 0.65856105 0.7806105 0.15403199 0.38096178
00000000: f2d2 8c3e f08d ed3e f11f 3e3f f03e 5d3f
00000010: 3f92 813e e03a 6d3c d1a9 313f 4d69 553f
00000020: 4dea 8a3e 389d 833e a0bc 7d3f 9625 223f
00000030: 0d6e 453f fc7f 603f f697 433f 02a4 173f
00000040: 0812 003e 20ad c43e 87f2 383f 86a7 7d3f
00000050: cf6f 9c3d 81cf a53e 3154 7c3f 5234 4c3f
00000060: cf99 cd3e 53f4 7a3e 1aa5 3f3e fbf8 233f
00000070: 7597 283f 17d6 473f 90ba 1d3e 6c0d c33e

conv2_bn.bias f4 [32]
0.017690927 -0.045081373 0.024185285 -0.044700895 0.0031618858 -0.014832292 0.0020037587 -0.0060041426
-0.0102726845 -0.034571316 0.0140704885 -0.004706454 0.010832748 -0.013461771 0.062439833 0.0008335212
0.048466172 -0.015331243 -0.016477078 0.08720144 -0.005388944 -0.020080633 0.040608037 -0.020554846
-0.02576618 -0.011711027 0.002450542 -0.0057765157 -0.008107561 -0.02576564 -0.032584157 0.02219332
00000000: 90ec 903c 3fa7 38bd 3820 c63c 4918 37bd
00000010: a437 4f3b 2403 73bc 7e51 033b 66be c4bb
00000020: c34e 28bc a79a 0dbd e887 663c 9938 9abb
00000030: d77b 313c c38e 5cbc e9c0 7f3d a980 5a3a
00000040: 7784 463d e52f 7bbc f0fa 86bc ab96 b23d
00000050: bd95 b0bb 2480 a4bc 9d54 263d a362 a8bc
00000060: 9913 d3bc 9bdf 3fbc 4699 203b ed48 bdbb
00000070: 93d5 04bc 7712 d3bc f776 05bd c4ce b53c

conv2_bn.running_mean f4 [32]
0.21975848 0.57448006 0.15529601 0.15762115 -0.14412007 -0.2043641 -0.09893453 -0.0642326
0.1642906 -0.05524697 -0.27493033 -0.040513642 -0.18033509 0.25363752 0.11902312 -0.32350975
-0.12094004 -0.0495843 0.18125762 -0.17742465 0.011936888 0.045646075 0.026371969 0.10570412
-0.15956225 -0.11953582 -0.22023839 0.120936275 0.04358824 0.10255723 -0.03408276 -0.1749101
00000000: 5e08 613e 2011 133f eb05 1f3e 7067 213e
00000010: 3694 13be d344 51be 309e cabd 628c 83bd
00000020: cc3b 283e a64a 62bd abc3 8cbe a2f1 25bd
00000030: c3a9 38be c7dc 813e 65c2 f33d 12a3 a5be
00000040: 69af f7bd e818 4bbd 999b 393e cfae 35be
00000050: f092 433c 61f7 3a3d 070a d83c 677b d83d
00000060: 4964 23be 32cf f4bd 2c86 61be 70ad f73d
00000070: 9589 323d 8609 d23d 5d9a 0bbd a21b 33be

conv2_bn.running_var f4 [32]
0.34249234 0.14121203 0.23654373 0.33454123 0.2533675 0.118175015 0.08776765 0.10829947
0.35985306 0.12148589 0.20852803 0.6537729 0.13285704 0.187423 0.22225137 0.12902631
0.08403837 0.33826652 0.090266295 0.3975281 0.15470622 0.06103386 0.11026259 0.32019442
0.110080786 0.16299552 0.13221459 0.33621883 0.43237907 0.09463305 0.19126707 0.110503875
00000000: 285b af3e e399 103e 8538 723e fd48 ab3e
00000010: 63b9 813e be05 f23d 87bf b33d 1dcc dd3d
00000020: a93e b83e 98cd f83d 5f88 553e a95d 273f
00000030: ad0b 083e d1eb 3f3e dd95 633e 791f 043e
00000040: 4f1c ac3d 4531 ad3e 89dd b83d ce88 cb3e
00000050: 4f6b 1e3e a4fe 793d 5ad1 e13d 86f0 a33e
00000060: 0972 e13d 4ce8 263e 4363 073e e024 ac3e
00000070: ca60 dd3e f9ce c13d 84db 433e db4f e23d

conv3.weight f4 [32, 32, 4, 4]
-0.05611757 -0.042040467 -0.04477827 -0.047973357 -0.055496007 0.006231749 -0.050799474 0.0145994555
0.07011761 0.039981678 -0.020220943 0.005493161 -0.008781239 0.028198538 0.040922724 0.052630063
0.03542359 -0.0332877 -0.014183083 -0.021098567 -0.05512627 -0.030263219 -0.034517538 0.015595147
-0.018542817 0.045402933 -0.042358447 0.031127153 0.005584388 -0.014649466 -0.050792202 -0.055001
-0.06251163 0.0026514686 0.03983347 -0.014610951 -0.03226425 0.021923259 -0.035818808 -0.009769955
-0.035019226 0.011056169 -0.030963583 -0.06330654 0.0012201059 0.052314784 -0.07580886 -0.053768054
-0.00986298 0.0118364375 0.030389246 -0.05640431 -0.03170528 0.0027125422 0.042917386 0.031886544
0.043618184 0.02006438 0.009276803 -0.012124019 0.04496751 -0.054093517 -0.053328246 0.0033298978
0.03185722 0.0672052 0.0043125735 -0.08573532 -0.0058930083 0.049159605 -0.040329028 -0.004038554
0.1013773 -0.0069095027 0.01724826 0.02447593 0.013891254 0.04433742 -0.005195172 0.044618573
0.01309936 0.04718193 0.034159783 -0.020095622 -0.033189986 -0.028983537 0.029987244 -0.0012253097
-0.012991994 0.00093401276 -0.0077037234 -0.029582284 0.024494762 0.034907747 0.008075388 0.044252887
-0.04239004 -0.03860516 0.05267588 -0.020615783 0.037116803 0.02270698 -0.06148874 0.0047506546
-0.05175935 0.010575802 0.0014327476 -0.0059136255 0.043893527 -0.01001825 -0.011626527 0.0173327
-0.0028117532 0.019583168 0.02300438 0.007787042 0.050211463 0.062428195 -0.01678001 -0.040291116
-0.04317911 -0.028498633 0.035087712 0.06464056 -0.037734568 -0.0077865566 -0.043018024 -0.08111352
-0.02087041 0.06282601 -0.05495843 0.046222754 -0.0009221719 0.027626384 -0.010884483 -0.003808702
0.015697978 -0.013964636 -0.0065299408 -0.003285077 -0.02852414 0.06538102 -0.037594803 0.056399826
-0.032587763 0.0012903238 0.07366613 -0.006612491 0.0002518471 0.005912027 0.009595829 -0.031004278
0.09908305 0.0035068055 0.009565965 0.019402977 -0.04549481 0.010373399 -0.008347952 -0.020514011
0.046433374 -0.015023628 0.040032577 -0.048838776 -0.004922311 -0.025260901 0.008606526 -0.012976369
0.04266585 -0.027073104 0.037755974 -0.018599011 0.01565223 0.055568893 0.011888542 -0.022322625
0.0027378558 0.06599894 0.02446793 0.059037354 0.029983843 -0.02211733 -0.035109214 -0.016943583
0.030977365 0.023194397 0.053937383 -0.03143269 -0.034566693 0.043214083 0.020616796 0.03695762
-0.05906949 -0.022709548 -0.06684397 0.010941059 -0.042517446 -0.06364978 0.020433463 -0.12819012
0.016126782 -0.011427882 -0.06698601 -0.014417589 0.011970346 0.021484362 -0.040861323 0.01923844
-0.026928658 0.009052283 -0.02864386 -0.029922789 -0.0011063431 0.0441394 -0.026755266 -0.0002781765
0.04405574 0.0051259147 0.10423198 0.01600418 0.017971821 -0.04212998 -0.047603194 0.021579904
-0.0021717348 0.0340549 0.01200195 0.026901083 0.08752785 -0.10966866 -0.063238926 0.007098025
0.036112368 -0.0026214274 0.063577704 0.088589825 0.038353 0.0145955775 0.02572803 -0.04099878
-0.016919583 0.028961938 -0.027438618 0.01312058 -0.0074703177 -0.02712605 -0.06524662 0.047447763
0.034479268 0.017381568 0.01580257 0.06158394 -0.007598 0.038744345 0.016133659 -0.0093436
00000000: 89db 65bd a032 2cbd 6b69 37bd b67f 44bd
00000010: c84f 63bd b333 cc3b 1c13 50bd 8e32 6f3c
00000020: d299 8f3d d4c3 233d 64a6 a5bc f9ff b33b
00000030: 30df 0fbc 9f00 e73c 969e 273d 9f92 573d
00000040: 5418 113d af58 08bd 2960 68bc e7d6 acbc
00000050: 15cc 61bd 92ea f7bc 4362 0dbd ca82 7f3c
00000060: 1be7 97bc 6df8 393d 0d80 2dbd 5ffe fe3c
00000070: 3efd b63b 5004 70bc 7c0b 50bd bb48 61bd
00000080: 1906 80bd 43c4 2d3b 6c28 233d c562 6fbc
00000090: 8527 04bd 6898 b33c beb6 12bd 2912 20bc
000000a0: 5270 0fbd ef24 353c 57a7 fdbc dca6 81bd
000000b0: f6eb 9f3a 0748 563d ad41 9bbd e43b 5cbd
000000c0: 5698 21bc 9eed 413c def2 f83c 3508 67bd
000000d0: 65dd 01bd e8c4 313b 24ca 2f3d 779b 023d
000000e0: fba8 323d 0e5e a43c bbfd 173c d2a3 46bc
000000f0: da2f 383d 2a91 5dbd b86e 5abd 6a3a 5a3b
00000100: b77c 023d e1a2 893d 7d50 8d3b 0096 afbd
00000110: 231a c1bb 955b 493d 0d30 25bd d955 84bb
00000120: e79e cf3d 1c69 e2bb 394c 8d3c bf81 c83c
00000130: 2498 633c 289b 353d 433c aabb f7c1 363d
00000140: b39e 563c d741 413d 21eb 0b3d 939f a4bc
00000150: 39f2 07bd e26e edbc cfa7 f53c 929a a0ba
00000160: 5fdc 54bc 89d8 743a 846f fcbb 8c56 f2bc
00000170: 3da9 c83c 6dfb 0e3d a24e 043c 8442 353d
00000180: 2ea1 2dbd 7220 1ebd aac2 573d 6ee2 a8bc
00000190: ca07 183d fd03 ba3c 9edb 7bbd 61ab 9b3b
000001a0: 9d01 54bd 2146 2d3c 08cb bb3a 16c7 c1bb
000001b0: b3c9 333d 9623 24bc 307d 3ebc 4efd 8d3c
000001c0: 6445 38bb e16c a03c ae73 bc3c 712a ff3b
000001d0: 89aa 4d3d b5b4 7f3d 3b76 89bc 4c08 25bd
000001e0: 94dc 30bd f775 e9bc 22b8 0f3d 4562 843d
000001f0: 908f 1abd 5f26 ffbb ab33 30bd d81e a6bd
00000200: 6cf8 aabc ecaa 803d 171c 61bd 1254 3d3d
00000210: e9bd 71ba ba50 e23c d554 32bc 6b9b 79bb
00000220: 0c99 803c eecb 64bc 1df9 d5bb 724a 57bb
00000230: 75ab e9bc 7ce6 853d 02fd 19bd 8103 673d
00000240: bf7a 05bd 1520 a93a 45de 963d 98ad d8bb
00000250: 580a 8439 adb9 c13b d337 1d3c affc fdbc
00000260: 0eec ca3d 6fd2 653b 91ba 1c3c fef2 9e3c
00000270: c458 3abd 30f5 293c d9c5 08bc 000d a8bc
00000280: ec30 3e3d aa25 76bc 33f9 233d 2b0b 48bd
00000290: 564b a1bb f3ef cebc 6302 0d3c d69a 54bc
000002a0: 63c2 2e3d 6ac8 ddbc 02a6 1a3d f45c 98bc
000002b0: 1b39 803c 359c 633d 29c8 423c f0dd b6bc
000002c0: 996d 333b 742a 873d f870 c83c 27d1 713d
000002d0: ada0 f53c 672f b5bc aece 0fbd 45cd 8abc
000002e0: 3ec4 fd3c 2d02 be3c 72ed 5c3d 90bf 00bd
000002f0: ce95 0dbd 4001 313d 8ee4 a83c e060 173d
00000300: d9f2 71bd 6009 babc 7ee5 88bd 2142 333c
00000310: c626 2ebd d15a 82bd 1464 a73c 4544 03be
00000320: 501c 843c 033c 3bbc f62f 89bd c037 6cbc
00000330: 451f 443c f9ff af3c 345e 27bd ef99 9d3c
00000340: 7d99 dcbc 0750 143c 87a6 eabc a320 f5bc
00000350: b702 91ba 84cb 343d dc2d dbbc 38d8 91b9
00000360: cb73 343d 4af7 a73b 9477 d53d 331b 833c
00000370: a439 933c 7c90 2cbd 91fb 42bd 57c8 b03c
00000380: aa53 0ebb 277d 0b3d d4a3 443c a95f dc3c
00000390: cd41 b33d f699 e0bd 6983 81bd 8d96 e83b
000003a0: 90ea 133d 41cc 2bbb 0735 823d 956e b53d
000003b0: 0918 1d3d 4a22 6f3c 97c3 d23c 56ee 27bd
000003c0: f09a 8abc 9641 ed3c f4c6 e0bc b4f7 563c
000003d0: 91c9 f4bb 7337 debc 05a0 85bd 9658 423d
000003e0: 223a 0d3d ca63 8e3c 6474 813c 713f 7c3d
000003f0: a5f8 f8bb 64b2 1e3d bc2a 843c e615 19bc

conv3.bias f4 [32]
-0.043908563 0.044099912 0.039991155 -0.038036145 0.029774573 -0.025419328 0.04023272 0.034098424
-0.035302192 0.00044002966 0.003989532 -0.02606927 0.0034772775 0.022773637 0.03698106 0.03599016
0.018696569 0.02002981 0.0064769313 0.03957471 0.021216147 0.04121087 -0.00813421 0.04223199
0.014648204 0.023758985 0.034954686 -0.0052170195 0.020609895 -0.043879706 0.030309163 0.01630926
00000000: 77d9 33bd 1ca2 343d c4cd 233d cacb 1bbd
00000010: cee9 f33c 323c d0bc 11cb 243d caaa 0b3d
00000020: 0899 10bd c8b3 e639 9fba 823b 398f d5bc
00000030: 09e3 633b c78f ba3c 7479 173d 6b6a 133d
00000040: 8c29 993c 8e15 a43c 703c d43b 1719 223d
00000050: 7ccd ad3c bbcc 283d 5945 05bc 73fb 2c3d
00000060: 05ff 6f3c 34a2 c23c a52c 0f3d 88f3 aabb
00000070: 15d6 a83c 35bb 33bd ec4a f83c ff9a 853c

conv3_bn.weight f4 [32]
0.23019591 0.7903379 0.44314834 0.15936504 0.76348007 0.5757221 0.22993606 0.4011591
0.50841135 0.22649397 0.6288582 0.47530398 0.33518714 0.77747214 0.32112777 0.37364575
0.17330177 0.39861888 0.57864815 0.26549426 0.55573666 0.2718964 0.39224142 0.38790795
0.9928924 0.59574527 0.7421084 0.41329587 0.76325476 0.35982764 0.44190466 0.538533
00000000: 7ab8 6b3e 9653 4a3f 57e4 e23e 9730 233e
00000010: 6e73 433f 8662 133f 5c74 6b3e ba64 cd3e
00000020: 3f27 023f 09ee 673e dafc 203f 0b5b f33e
00000030: a69d ab3e 6a08 473f dc6a a43e 7f4e bf3e
00000040: 0576 313e c617 cc3e 4922 143f ddee 873e
00000050: c244 0e3f 0136 8b3e ded3 c83e df9b c63e
00000060: 322e 7e3f c382 183f d1fa 3d3f 849b d33e
00000070: aa64 433f 543b b83e 5441 e23e 4cdd 093f

conv3_bn.bias f4 [32]
0.009793234 -0.037073527 -0.0036226024 0.00039066313 0.026486931 -0.03713831 0.0052779377 -0.01816888
0.008764526 0.02405849 0.0013986984 0.075979464 0.027649775 -0.0068890657 -0.012363821 0.017591028
-0.0026914328 -0.01887881 -0.05163078 0.008664675 -0.00930709 0.02542861 0.04046293 -0.009922225
0.024296047 -0.019095158 -0.02611108 -0.012060214 -0.02420064 -0.02986924 -0.0017186753 -0.016898338
00000000: cd73 203c 69da 17bd 2f69 6dbb ebd1 cc39
00000010: 1ffb d83c 571e 18bd 8df2 ac3b e7d6 94bc
00000020: 1699 0f3c 4f16 c53c 8854 b73a 1f9b 9b3d
00000030: c881 e23c acbd e1bb a091 4abc 0f1b 903c
00000040: c062 30bb bca7 9abc cc7a 53bd 48f6 0d3c
00000050: c47c 18bc a94f d03c 75bc 253d d490 22bc
00000060: 8108 c73c 736d 9cbc e7e6 d5bc 3498 45bc
00000070: 6c40 c6bc 56b0 f4bc 2c45 e1ba 626e 8abc

conv3_bn.running_mean f4 [32]
0.05803207 0.3528952 0.06210254 0.452307 0.11396313 -0.08328592 -0.12652183 -0.05159213
0.19209562 0.06053019 0.45471135 -0.45788032 0.18120365 0.123916924 0.19626164 0.26773116
0.07979458 0.3068682 -0.104888745 0.39012727 0.18659154 -0.66098887 -0.53000325 -0.25743842
-0.43561143 0.36264983 0.32844332 0.19373335 0.12190759 0.08262793 0.13110134 0.22215503
00000000: 09b3 6d3d aeae b43e 3c5f 7e3d c894 e73e
00000010: 8065 e93d cf91 aabd f08e 01be 4552 53bd
00000020: b7b4 443e 81ee 773d edcf e83e 4a6f eabe
00000030: 738d 393e 28c8 fd3d d0f8 483e 0f14 893e
00000040: 576b a33d d41d 9d3e e9cf d6bd c3be c73e
00000050: da11 3f3e 9136 29bf 4bae 07bf f8ce 83be
00000060: 7608 dfbe 3dad b93e b929 a83e 0962 463e
00000070: b0aa f93d d538 a93d 6e3f 063e 9c7c 633e

conv3_bn.running_var f4 [32]
0.13668948 0.62522084 0.23540573 0.19990186 0.23731488 0.22674868 0.21411581 0.1026057
0.18096338 0.09805562 0.25172865 0.26427385 0.112307355 0.30884 0.23772782 0.30829266
0.10046765 0.1334973 0.15024446 0.0982048 0.25387806 0.31128147 0.2269824 0.09585087
0.3660591 0.30946112 0.46337658 0.19180028 0.31661838 0.22969134 0.2523943 0.32145858
00000000: 54f8 0b3e 790e 203f 330e 713e 13b3 4c3e
00000010: ac02 733e ce30 683e 2d41 5b3e f022 d23d
00000020: 774e 393e 63d1 c83d 94e2 803e e74e 873e
00000030: 6601 e63d 4720 9e3e ec6e 733e 89d8 9d3e
00000040: fcc1 cd3d 84b3 083e afd9 193e 991f c93d
00000050: 4efc 813e 4960 9f3e 136e 683e 764d c43d
00000060: 196c bb3e b071 9e3e b23f ed3e 4b67 443e
00000070: ce1b a23e 3534 6b3e d339 813e 3896 a43e

linear1.weight f4 [32, 6272]
-0.005369782 0.00031723955 0.009368514 -0.001760772 0.007903937 0.012269072 0.010011143 -0.001456212
0.0014999893 -0.025473941 -0.013216608 -0.010499643 0.0012310263 0.0057060895 -0.004026014 0.02433187
0.008207035 0.00409188 -0.0017299416 -0.020956518 -0.0021967983 0.006314957 0.016438898 -0.013141621
-0.018128833 -0.00065697293 -0.01987414 0.0057739075 -0.0061323815 0.00075499207 0.004640734 0.012065053
-0.00034650476 -0.022914106 -0.0127557255 -0.0024966365 -0.019686064 0.019093944 0.011477202 0.0043915235
-0.006284447 0.009201248 -0.012621023 0.0070115644 0.029388819 -0.0011888801 -0.008202759 0.029509384
-0.000639632 -0.03071944 -0.0015998698 -0.0073397984 0.015104662 0.0018477862 0.008337171 -0.0014698661
0.007757379 0.03470446 0.02260033 -0.0040550972 -0.005728371 -0.008184545 -0.020571575 -0.034191236
0.003511159 -0.00050388195 -0.00395801 0.0067069177 0.0005677539 -0.013064527 0.012628138 0.0064419145
0.0041981544 0.029066065 -0.010191113 -0.01917559 -0.009038436 -0.031278677 -0.009876773 0.0063068
-0.02249655 -0.00886874 0.021709735 0.0007784207 -0.014948635 -0.0009550261 -0.0033524788 -0.0024142184
0.014984331 0.012931548 0.028781608 -0.0043913573 0.015547922 0.08022176 -0.020368673 0.025458656
0.0005856722 0.013177016 -0.028429927 -0.005972284 0.016799076 -0.0033036154 0.014784945 -0.057882197
0.029029043 -0.0022055765 0.060088094 0.041053586 -0.0024608474 -0.011964453 -0.011396738 -0.009077247
0.023655256 0.03818126 0.013724056 0.0059276144 0.015781807 -0.009715721 -0.024499737 -0.013100125
-0.02297769 -0.0376165 0.08015295 0.017358286 0.003638917 -0.005259333 0.019777898 0.0017968747
-0.02703753 0.009752628 -0.06934179 0.07678531 0.0010634961 0.00037142684 -0.034131803 0.014037396
-0.00728095 0.0059346557 0.004699008 0.012248485 0.015865149 0.006118554 0.0017108455 0.02307648
0.013377786 0.0039941706 0.021317884 0.011061341 0.008132642 0.0053920615 -0.0042102304 -0.004896878
0.01006486 0.0016361022 0.0031827139 0.0077324053 -0.0350819 0.014185568 0.0018452635 -0.0066279513
-0.0075908727 0.0055093057 0.0009689938 -0.010210469 -0.004890777 0.009966624 -0.008226263 -0.013552788
-0.019688146 -0.05968903 0.027919093 0.025066353 2.8131184e-05 -0.06553246 -0.005696223 0.0061901654
0.012318868 -0.019227399 -0.004691216 -0.0053501786 0.00844556 -0.00686676 0.011781419 -0.06765118
-0.016388105 0.03521791 0.033800915 0.0049774726 0.0022520775 -0.005197054 0.0015462 -0.024593249
-0.0027073799 0.006009324 -0.0016917204 -0.0076065683 0.00455913 0.0016868089 0.004978113 -0.0021904325
-0.011121422 0.009581482 0.0058080647 -0.010483312 -0.0025679679 0.009324811 -0.008814404 -0.0029804676
-0.0068769148 0.007269001 0.008433886 0.0066842893 0.0007687303 -0.0028275112 -0.013820827 0.0031331428
-0.010034836 -0.013315358 0.0018895012 -0.0053143995 0.0072933445 -0.016251605 0.0038867432 0.018013341
-0.009800964 -0.005512966 0.005439487 -0.009069428 0.0021082773 -0.009874339 0.013827458 0.012421979
0.009810155 -0.00175137 -0.015038863 -0.0058670617 -0.0036435944 0.0027583693 0.0007616491 0.014651944
0.03828465 0.0031856862 0.02365118 -0.03211764 0.014701607 -0.0029614344 -0.0093104355 -0.0029464683
-0.013035473 0.012701764 -0.010193024 -0.015511874 -0.001057538 -0.0069435425 -0.013005132 -0.005367636
00000000: fff4 afbb 2c53 a639 657e 193c b4c9 e6ba
00000010: 847f 013c 3804 493c c705 243c 5ede beba
00000020: 4a9b c43a baae d0bc 798a 58bc b206 2cbc
00000030: 635a a13a 26fa ba3b a7ec 83bb a153 c73c
00000040: cd76 063c 2d15 863b 35bf e2ba 01ad abbc
00000050: 29f8 0fbb b3ed ce3b deaa 863c f44f 57bc
00000060: eb82 94bc b538 2cba 18cf a2bc 0c33 bd3b
00000070: 25f2 c8bb a9ea 453a 4c11 983b 80ac 453c
00000080: 15ab b5b9 5db6 bbbc 64fd 50bc 9c9e 23bb
00000090: ab44 a1bc e76a 9c3c e00a 3c3c c5e6 8f3b
000000a0: c3ed cdbb d5c0 163c 68c8 4ebc 44c1 e53b
000000b0: d2c0 f03c 32d4 9bba dd64 06bc aabd f13c
000000c0: faac 27ba 56a7 fbbc b9b2 d1ba b182 f0bb
000000d0: 8b79 773c 6b31 f23a a198 083c 86a8 c0ba
000000e0: 9d31 fe3b 4426 0e3d 5424 b93c 9fe0 84bb
000000f0: 0fb5 bbbb 7818 06bc b885 a8bc 1c0c 0cbd
00000100: 791b 663b f216 04ba 32b2 81bb b4c5 db3b
00000110: 52d5 143a 990c 56bc 40e6 4e3c b216 d33b
00000120: ac90 893b f51b ee3c a0f8 26bc 2016 9dbc
00000130: f315 14bc 121e 00bd 30d2 21bc 46a9 ce3b
00000140: af4a b8bc 314e 11bc 9dd8 b13c ee0e 4c3a
00000150: 1feb 74bc b75a 7aba 43b5 5bbb dd37 1ebb
00000160: d780 753c d8de 533c 68c7 eb3c 60e5 8fbb
00000170: b6bc 7e3c 4e4b a43d 34dc a6bc ac8e d03c
00000180: cc87 193a 69e4 573c e1e5 e8bc 26b3 c3bb
00000190: 379e 893c 7881 58bb 8e3c 723c e215 6dbd
000001a0: 51ce ed3c 6f8b 10bb ef1e 763d ce27 283d
000001b0: 2b46 21bb 8e06 44bc 62b9 3abc bcb8 14bc
000001c0: abc8 c13c f463 1c3d ddda 603c 6f3c c23b
000001d0: d948 813c b02e 1fbc acb3 c8bc e8a1 56bc
000001e0: b53b bcbc c213 1abd 3b27 a43d f732 8e3c
000001f0: e67a 6e3b 7c56 acbb 4205 a23c 1c85 eb3a
00000200: cf7d ddbc 7dc9 1f3c 1203 8ebd 9e41 9d3d
00000210: 0265 8b3a 11bc c239 cacd 0bbd 1bfd 653c
00000220: 0995 eebb 8077 c23b 23fa 993b dfad 483c
00000230: a1f7 813c 277e c83b 733e e03a e30a bd3c
00000240: 802e 5b3c 88e1 823b d8a2 ae3c a03a 353c
00000250: c63e 053c e4af b03b f9f5 89bb fd75 a0bb
00000260: 15e7 243c 7b72 d63a 1495 503b 1e60 fd3b
00000270: 0ab2 0fbd 966a 683c c5dc f13a 492f d9bb
00000280: dbbc f8bb 6887 b43b 1304 7e3a d049 27bc
00000290: d042 a0bb 0d4b 233c 73c7 06bc 830c 5ebc
000002a0: 0949 a1bc 7c7c 74bd 95b6 e43c f457 cd3c
000002b0: 42fb eb37 e235 86bd 62a7 babb dfd6 ca3b
000002c0: 14d5 493c c782 9dbc c6b8 99bb 8d50 afbb
000002d0: 3f5f 0a3c 8f02 e1bb da06 413c b48c 8abd
000002e0: 5940 86bc a840 103d d472 0a3d 111a a33b
000002f0: 9797 133b 0c4c aabb dda9 ca3a c877 c9bc
00000300: 4c6e 31bb dde9 c43b b8bc ddba 8540 f9bb
00000310: c164 953b ea17 dd3a 701f a33b 5c8d 0fbb
00000320: a036 36bc a6fb 1c3c 9451 be3b 33c2 2bbc
00000330: 5a4b 28bb 18c7 183c 4a6a 10bc f353 43bb
00000340: be57 e1bb cd30 ee3b 482e 0a3c e207 db3b
00000350: 9e84 493a c44d 39bb c070 62bc 6a55 4d3b
00000360: 2769 24bc a928 5abc 24a9 f73a 6a24 aebb
00000370: 02fd ee3b 1622 85bc bbb8 7e3b b790 933c
00000380: 3994 20bc 1ca6 b4bb b93d b23b f097 14bc
00000390: 062b 0a3b fbc7 21bc 908c 623c 8e85 4b3c
000003a0: c6ba 203c 3a8e e5ba 9065 76bc 7b40 c0bb
000003b0: 5fc9 6ebb c2c5 343b 68a9 473a b50e 703c
000003c0: 5dd0 1c3d f2c6 503b 1fc0 c13c c98d 03bd
000003d0: 02df 703c a014 42bb cc8a 18bc 8919 41bb
000003e0: bd92 55bc 0f1b 503c a400 27bc 8425 7ebc
000003f0: 169d 8aba a886 e3bb 7a13 55bc ffe2 afbb

linear1.bias f4 [32]
-0.011078141 -0.0048700753 0.0009646644 0.0033977279 0.012334235 -0.011124623 -0.009877645 0.00024333426
0.00799146 -0.000877278 -0.0097202845 -0.010931513 0.0058088154 -0.004972377 -0.011187067 -0.0043964973
0.008434205 -0.0025832942 0.0029406308 -0.0029518728 0.00053761 0.00512559 0.004798742 -0.0036652368
-0.00079903676 -0.005034962 0.0033885762 -0.008655342 -0.007285518 -0.002274791 -0.0016700759 0.0053919633
00000000: 1781 35bc 2795 9fbb 88e1 7c3a 6aac 5e3b
00000010: 8815 4a3c 0d44 36bc d9d5 21bc 8b27 7f39
00000020: 9dee 023c 21f9 65ba d441 1fbc 171a 33bc
00000030: e057 be3b 52ef a2bb f649 37bc 7e10 90bb
00000040: 9f2f 0a3c 7c4c 29bb 99b7 403b 3574 41bb
00000050: 65ee 0c3a 91f4 a73b c43e 9d3b 7834 70bb
00000060: 7376 51ba 53fc a4bb e012 5e3b 23cf 0dbc
00000070: 5bbb eebb a914 15bb 73e6 daba 11af b03b

linear1_bn.weight f4 [32]
0.24485984 0.94592243 0.10969073 0.81614953 0.6797787 0.06716399 0.26605672 0.74971294
0.6783737 0.18105169 0.20491897 0.18890288 0.7132837 0.43216714 0.651392 0.7332741
0.6572685 0.31335813 0.4839607 0.16723779 0.6071559 0.015590361 0.732668 0.038830604
0.28982955 0.82372236 0.12956728 0.40059474 0.46140918 0.47760114 0.8024674 0.6782271
00000000: 8abc 7a3e f927 723f 89a5 e03d 2def 503f
00000010: fa05 2e3f 468d 893d 9638 883e 30ed 3f3f
00000020: e6a9 2d3f 9d65 393e 47d6 513e c26f 413e
00000030: c399 363f 0345 dd3e a0c1 263f dab7 3b3f
00000040: c042 283f 7a70 a03e b2c9 f73e 6240 2b3e
00000050: 926e 1b3f b76e 7f3c 2190 3b3f d70c 1f3d
00000060: 8a64 943e 78df 523f 49ad 043e c11a cd3e
00000070: d33d ec3e 2388 f43e 816e 4d3f 4ba0 2d3f

linear1_bn.bias f4 [32]
-0.10760663 0.009654401 0.069466576 0.031927455 -0.002346441 0.048700333 -0.0100049265 -0.035360966
-0.011915769 -0.0054207346 0.0154175805 0.03774849 -0.021867584 -0.020243693 0.05196972 -0.009316157
-0.01318814 0.018747957 0.02320242 0.01228412 -0.014017473 0.06884898 -0.013089587 0.07276062
-0.10706235 0.00091327936 -0.0130319195 0.008391235 0.007437285 0.029985303 0.01422843 -0.03322994
00000000: dd60 dcbd 7e2d 1e3c 7e44 8e3d 5dc6 023d
00000010: bfc6 19bb 007a 473d b4eb 23bc a9d6 10bd
00000020: 5c3a 43bc 6ba0 b1bb 059a 7c3c 299e 1a3d
00000030: a623 b3bc 1ad6 a5bc 33de 543d cba2 18bc
00000040: 1113 58bc 5195 993c 0013 be3c 5543 493c
00000050: 8ba9 65bc b200 8d3d b575 56bc 8503 953d
00000060: 8143 dbbd 2469 6f3a d583 55bc 647b 093c
00000070: 78b4 f33b bda3 f53c 5c1e 693c 1e1c 08bd

linear1_bn.running_mean f4 [32]
-1.1282002 -3.5735161 0.996771 0.5356145 4.101374 0.462794 -1.3158522 2.3455627
-0.01738075 -3.67509 2.046721 0.46662518 0.78313845 2.2408378 3.665098 1.6757195
2.6350331 2.953001 -2.7189052 3.716683 3.5933664 -0.7775561 1.2065402 -0.55331165
4.1511865 -4.183696 1.7949109 4.420231 3.0068593 -2.680951 -3.0382028 3.8686752
00000000: dd68 90bf 7db4 64c0 622c 7f3f 081e 093f
00000010: 753e 8340 56f3 ec3e d86d a8bf b31d 1640
00000020: 1362 8ebc ad34 6bc0 7afd 0240 7fe9 ee3e
00000030: c37b 483f e369 0f40 f790 6a40 fa7d d63f
00000040: 62a4 2840 f8fd 3c40 8b02 2ec0 22de 6d40
00000050: b7f9 6540 eb0d 47bf e96f 9a3f d5a5 0dbf
00000060: 85d6 8440 d6e0 85c0 a4bf e53f 8872 8d40
00000070: 6270 4040 b494 2bc0 ea71 42c0 6098 7740

linear1_bn.running_var f4 [32]
4.7109284 5.322463 3.5225465 3.1117256 15.323504 2.3850753 9.047501 11.965353
3.0685637 6.1916833 5.6159415 4.4954686 5.3913956 6.4400873 18.522493 15.41799
2.9530349 10.495542 2.9184973 3.0261688 12.83392 6.2565737 6.908993 4.991131
9.231423 7.083065 6.6839547 6.0517073 8.728472 4.512029 6.9695168 15.366226
00000000: edbf 9640 9e51 aa40 6771 6140 8326 4740
00000010: 132d 7541 13a5 1840 90c2 1041 1672 3f41
00000020: 5963 4440 4522 c640 cbb5 b340 e1da 8f40
00000030: 5086 ac40 3215 ce40 112e 9441 16b0 7641
00000040: 86fe 3c40 bded 2741 a9c8 3a40 c0ac 4140
00000050: bc57 4d41 da35 c840 7816 dd40 58b7 9f40
00000060: e9b3 1341 78a8 e240 f5e2 d540 96a7 c140
00000070: d2a7 0b41 8b62 9040 4806 df40 10dc 7541

linear2.weight f4 [39, 39]
-0.06836126 -0.025480356 -0.11996884 0.04636838 0.09408963 -0.030419737 0.12818888 -0.013385866
-0.0100145005 -0.12522593 0.07510667 0.057318073 -0.07586418 -0.082122676 -0.014021306 0.10691963
-0.027504086 0.10355493 0.022468556 0.12444222 0.12037934 0.077115044 0.09720486 0.13774152
0.10697192 -0.13111807 -0.15051277 0.13986646 -0.105423264 0.061152127 -0.060699746 0.006684237
0.18382427 0.10768483 -0.056223176 0.011556411 0.096462466 0.04800801 0.04212295 0.04572232
0.13322322 -0.108365 0.09951563 0.076838166 -0.06451684 0.08044838 -0.08132675 -0.120866604
-0.059352905 0.06430102 0.06992627 -0.07581166 0.09957745 0.05895808 0.14140679 0.091769665
-0.10518366 0.08650916 0.11249887 0.06668435 0.059679575 -0.07212791 0.03555907 -0.018952923
-0.0777543 0.08883917 0.007090945 -0.050628178 -0.003958359 0.06953381 0.0127508165 0.021541862
-0.00026829794 0.015039536 0.19327214 0.17151034 0.026161682 -0.047042765 -0.059482563 0.12416978
0.11380988 -0.017990634 -0.0477282 -0.1027355 -0.10353134 0.07437542 0.021031367 -0.05414249
0.10235183 -0.060759768 0.0032633862 -0.037670467 -0.053578235 -0.07082959 0.07859644 0.14466591
0.11126763 0.118647695 0.16277266 0.07637965 -0.007080797 -0.09298716 -0.10040155 -0.09591374
-0.103202686 0.011341128 0.1282251 0.13465993 0.078917004 -0.006925607 0.03598136 -0.07892766
0.02998728 0.010155324 0.15081167 0.14861006 0.1818042 0.1199696 -0.122656025 0.050871342
-0.009304028 -0.022159824 -0.07318706 0.12723827 -0.1297269 0.12168322 -0.074460834 -0.09329482
-0.10747573 0.07096181 0.0948933 0.02481104 -0.103049874 -0.001228895 0.04161937 0.1001792
-0.020042071 -0.13866904 0.055229496 0.10116475 0.016103689 0.090874806 -0.11643127 0.029304048
-0.023139408 0.057159748 0.030496698 -0.12814821 -0.020425506 0.06777428 0.14364642 0.100019805
0.08997068 0.12919341 0.023311734 0.21729223 -0.08912756 0.052775666 0.09173058 -0.14719403
0.02173771 0.04958234 0.045236953 -0.16088533 -0.0050411155 0.028443199 0.088671856 0.013613516
0.14734752 -0.11033128 0.01265203 0.05637061 -0.05076009 -0.02328754 0.14112148 -0.0056928718
-0.034765624 -0.024720358 0.09831296 0.1051679 0.06013264 -0.16330434 -0.11356463 -0.1461566
-0.09155184 -0.16527656 0.03689334 0.13519338 -0.04548415 -0.12493478 0.070319474 -0.120371394
-0.15862034 0.016355522 -0.09005369 0.0033232402 0.051280968 -0.11861639 0.13940917 -0.1477792
0.06644661 0.16774806 0.043542452 -0.09166072 -0.09867595 -0.11798302 -0.0039315214 0.12669954
0.12249715 0.12590393 0.060166642 0.12941948 -0.06274856 -0.036606748 0.048057854 -0.090979904
-0.07671913 0.1295755 -0.10452931 -0.06221371 0.095725976 -0.088431165 0.11783174 0.07987696
0.016532848 0.0019554424 -0.015499912 0.09698256 -0.05876713 0.0018788575 -0.0007688005 -0.07266161
-0.15167318 0.027275665 -0.12630773 0.057441432 -0.04803418 0.041035727 0.02029741 -0.06528125
-0.05692548 0.025252849 0.17510779 -0.06484845 0.136489 -0.02893854 -0.021876702 0.06158389
0.09703009 -0.1051994 0.10144349 0.08437598 -0.01323724 -0.08258724 0.16201736 0.040666968
00000000: fd00 8cbd 2ebc d0bc 39b2 f5bd c5ec 3d3d
00000010: 10b2 c03d d032 f9bc f243 033e 6450 5bbc
00000020: dc13 24bc 3a3b 00be 87d1 993d 5bc6 6a3d
00000030: ae5e 9bbd ef2f a8bd 9fb9 65bc aef8 da3d
00000040: 4050 e1bc 9b14 d43d fa0f b83c 90db fe3d
00000050: 7289 f63d 7eee 9d3d 5713 c73d 1d0c 0d3e
00000060: 1814 db3d d143 06be 0520 1abe 2739 0f3e
00000070: 27e8 d7bd a77a 7a3d 4ca0 78bd 7207 db3b
00000080: 6e3c 3c3e dd89 dc3d 464a 66bd 1a57 3d3c
00000090: 1d8e c53d 0ca4 443d 1d89 2c3d 5447 3b3d
000000a0: ab6b 083e 78ee ddbd dace cb3d 545d 9d3d
000000b0: 6821 84bd 1fc2 a43d a48e a6bd e988 f7bd
000000c0: 081c 73bd 41b0 833d 8135 8f3d 2543 9bbd
000000d0: 43ef cb3d 077e 713d f1cc 103e bcf1 bb3d
000000e0: 886a d7bd b72b b13d cf65 e63d ce91 883d
000000f0: 9272 743d ccb7 93bd 63a6 113d 2943 9bbc
00000100: a53d 9fbd 50f1 b53d 285b e83b 7e5f 4fbd
00000110: 1fb5 81bb be67 8e3d cde8 503c 8f78 b03c
00000120: 57aa 8cb9 6368 763c 22e9 453e 68a0 2f3e
00000130: 0651 d63c eaaf 40bd fda3 73bd ba4c fe3d
00000140: 2815 e93d 1861 93bc a57e 43bd fd66 d2bd
00000150: 3d08 d4bd 2452 983d f949 ac3c 84c4 5dbd
00000160: d69d d13d 3cdf 78bd 89de 553b 594c 1abd
00000170: da74 5bbd 1b0f 91bd 2cf7 a03d 4d23 143e
00000180: 48e0 e33d 90fd f23d e0ad 263e ef6c 9c3d
00000190: 0806 e8bb 0d70 bebd 549f cdbd 6c6e c4bd
000001a0: ee5b d3bd 23d0 393c 714d 033e 4be4 093e
000001b0: 3d9f a13d 34f0 e2bb 3161 133d d3a4 a1bd
000001c0: e2a7 f53c 8462 263c 606e 1a3e 3c2d 183e
000001d0: e12a 3a3e 9fb2 f53d 1533 fbbd 785e 503d
000001e0: ec6f 18bc 8588 b5bc 19e3 95bd c04a 023e
000001f0: 21d7 04be 0d35 f93d ec7e 98bd 5b11 bfbd
00000200: 3c1c dcbd 6d54 913d 6b57 c23d 8640 cb3c
00000210: d00b d3bd e012 a1ba 1379 2a3d c12a cd3d
00000220: 452f a4bc 42ff 0dbe 5338 623d 772f cf3d
00000230: e2eb 833c 921c ba3d 8573 eebd 0b0f f03c
00000240: db8e bdbc 5720 6a3d 36d4 f93c 4939 03be
00000250: 6453 a7bc 3ecd 8a3d 0c18 133e 2fd7 cc3d
00000260: 8c42 b83d 474b 043e 40f8 be3c db81 5e3e
00000270: 8388 b6bd 4c2b 583d 3edd bb3d 08ba 16be
00000280: 4813 b23c da16 4b3d 624a 393d 20bf 24be
00000290: f12f a5bb b601 e93c 9799 b53d 3a0b 5f3c
000002a0: 45e2 163e 5ef5 e1bd 764a 4f3c dee4 663d
000002b0: d0e9 4fbd 83c5 bebc 2682 103e 458b babb
000002c0: 6666 0ebd 5982 cabc 4e58 c93d 4562 d73d
000002d0: a54d 763d 4139 27be 9394 e8bd 13aa 15be
000002e0: 887f bbbd 423e 29be 791d 173d 2270 0a3e
000002f0: 974d 3abd cedd ffbd a803 903d 4785 f6bd
00000300: 5f6d 22be 04fc 853c 126e b8bd b8ca 593b
00000310: fe0b 523d 26ed f2bd 47c1 0e3e 6e53 17be
00000320: 2915 883d 26c6 2b3e 9259 323d 9eb8 bbbd
00000330: 9e16 cabd 15a1 f1bd fed3 80bb 86bd 013e
00000340: c9df fa3d f6ec 003e 4c71 763d 8a86 043e
00000350: 5182 80bd f5f0 15bd 50d8 443d ac53 babd
00000360: eb1e 9dbd 71af 043e 7613 d6bd ced3 7ebd
00000370: fb0b c43d 661b b5bd c451 f13d 8896 a33d
00000380: e56f 873c e126 003b 58f3 7dbc cb9e c63d
00000390: cdb5 70bd ff43 f63a 5489 49ba 9ccf 94bd
000003a0: 3750 1bbe 3771 df3c d056 01be b547 6b3d
000003b0: 7dbf 44bd 1415 283d c146 a63c 2db2 85bd
000003c0: b12a 69bd 10df ce3c 754f 333e 44cf 84bd
000003d0: c6c3 0b3e 8410 edbc c536 b3bc 643f 7c3d
000003e0: b6b7 c63d c872 d7bd 9bc1 cf3d 50cd ac3d
000003f0: 02e1 58bc 8023 a9bd e1e7 253e 6892 263d

linear2.bias f4 [39]
-0.023911567 0.12951271 0.11351539 0.10133018 0.004880859 0.15244272 -0.023923075 0.1945882
0.18230614 -0.046556775 0.065862015 0.13781083 0.0003190752 -0.077311486 -0.0042409375 0.06253253
-0.1004954 0.1972338 0.07330437 -0.109542385 0.08779255 0.14700484 0.018049259 -0.016696652
0.025197618 -0.12655191 0.007237753 -0.04824943 -0.21748404 -0.11142017 -0.07145555 -0.08101716
-0.095331095 -0.030664522 -0.09342092 0.0650856 0.14362453 0.19890553 0.09636147
00000000: 31e2 c3bc fb9e 043e c27a e83d 3386 cf3d
00000010: 9def 9f3b f219 1c3e 53fa c3bc 2142 473e
00000020: 76ae 3a3e 51b2 3ebd aae2 863d 481e 0d3e
00000030: 8c49 a739 7c55 9ebd 90f7 8abb 0e11 803d
00000040: 88d0 cdbd a8f7 493e 9a20 963d c257 e0bd
00000050: 95cc b33d 7088 163e 0adc 933c 6bc7 88bc
00000060: 3c6b ce3c d396 01be ac2a ed3b 32a1 45bd
00000070: 23b4 5ebe 4230 e4bd 4a57 92bd 53ec a5bd
00000080: f33c c3bd 2a34 fbbc 7853 bfbd 994b 853d
00000090: 4f12 133e e4ad 4b3e 2a59 c53d
