saved_models/gear_unconstrained_8.pt (torch_old, 954435 bytes, 28 tensors)

conv1.weight f4 [32, 3, 4, 4]
00000000: c82c 66be 449c 78be b4a7 fe3d e64d bc3e
00000010: b2de cd3e a0b7 8b3e 1288 8dbe 9c17 b93d
00000020: 82b8 5bbd 854c 1fbf 6e09 fabe 83d2 a03d
00000030: 2d06 be3d 9c1a 9ebe 2899 46bd e467 f1be
00000040: 19bf a0bd 06a8 d1bd 0ea4 213e 22cb 8abd
00000050: fce5 fc3e 5ce0 003f 04ed 8a3e 2366 68be
00000060: cbe4 0f3e a3d1 c8be 87df 8cbd 50b2 e53e
00000070: e548 013d 563c 88bd 48db 743e fde2 bc3d
00000080: f231 f6be 9422 64bd b755 8cbe a4b1 8ebd
00000090: 760c 753d 02da d33e 4a21 a33e f000 b9be
000000a0: 29bd 9ebd 8e89 e8be bc34 143b 9309 9d3e
000000b0: c4a5 933e 9aad 42bd da28 f93e 0e36 37be
000000c0: 894f 5b3e 787a 523e 11bb 22bd 748b 3bbe
000000d0: c766 fc3e 5f6b 493d 04a3 883e f0c7 923c
000000e0: 6f1d 0e3e cb29 093f cc9f 143f 70ae a5be
000000f0: 2848 893e c435 b63e 683f f93d 4601 c63d
00000100: 0ca3 30bd aa6f 853c a668 64be ef9c 7cbe
00000110: 6f9f 113e 2a08 07bf e315 aa3e ac9d f8bd
00000120: bb36 8bbe 7a10 203e a0f8 0b3f 75b0 43be
00000130: e071 cebd 997f 063e 6b6c 373e 01a3 a13d
00000140: 08e4 8f3e 2866 9f3e bea8 973e 3e7f 2e3e
00000150: 542d 923d 2154 45be 1298 d83e f38f 403e
00000160: 0798 fa3d cfb7 773e 054a 493e a904 53bd
00000170: f918 4a3d 836d 05bd 1ad4 0d3d 845c 573e
00000180: 9b72 a03e c870 4ebe b1f3 a13e 0868 aa3e
00000190: 9b2b 993c dd9d 8dbe 631c 443d cb88 163e
000001a0: 9d9c 043e aef4 0e3e 5b96 0a3e b757 bb3d
000001b0: 7134 e33c 518d 3fbe 5bb2 0abf 2a25 aebd
000001c0: d0cb 943e 3a2b f8bd 03c0 293e 62b3 513e
000001d0: a3ac 76be 201f b8bd 6b1b 60be 2f01 ff3d
000001e0: 0997 b4bd f016 9a3e f116 15be 36ca 16bd
000001f0: 4238 2d3e 3a60 d7be f0a2 15bf d2e7 333d
00000200: 0595 153e 87de a03e f3c8 ea3e 8449 0a3f
00000210: 35bd 54be 8ed9 e93e 6211 bdbc 1c55 933e
00000220: 251e 0cbe ba42 1a3e f42a 94bd e708 3abb
00000230: 214c a73d 6e34 09bf 50e8 08bf 1caa 23be
00000240: d02a 0c3e cfab cf3e dadf 543e 2001 1dbe
00000250: a4ef 5ebc 7a2d cebc b81c a53e 4cb9 8abe
00000260: 0135 b2bd 19be 74be 5df6 2dbe 1219 2a3e
00000270: d143 4d3e 6a6f 4fbd d695 dabb 6f27 c93e
00000280: ba3d 4ebe 5f50 14bd 1483 b5be c788 0fbf
00000290: 468b 4bbe e39b 4abe f5f4 243e db71 e2be
000002a0: 620e 5ebd 5052 38bc 1124 023e 000b 7d3e
000002b0: a703 5a3e ce9e 7e3e 32a1 6ebc 7549 bf3e
000002c0: 5c9c 8bbe 501e b8be fd52 ffbd 2dcf 86be
000002d0: e671 d1be b929 21be 41b2 1abe d526 cbbe
000002e0: 3f58 91bd 2a75 fdbe 4d8b 6fbe ef7b 033f
000002f0: e5b6 e2be 38fb fabe cdec febc 72c4 ee3e
00000300: 53e0 933e af77 8c3c 79e9 81bd 1d0e 00bc
00000310: bb19 e53d 462e b83d 44f1 e2be dad2 d93e
00000320: 78d1 b43e a13f 26be 63f8 ee3e 8083 0cbd
00000330: 334d f23c bda6 86bd bf8d 21be 2032 e6be
00000340: d667 f83e 2838 01be d0d5 d23e ea42 44be
00000350: 1c9b 1dbe 1ea2 0bbe e9d7 31be 2fc4 063f
00000360: 093b c83d a82e d23d 728f 173f 4deb 163e
00000370: d3fb 6cbe bcdd f63d eb02 18be 3fc7 253d
00000380: e18e 473d 736e 1abd f9c7 b1bd ad20 e8be
00000390: 8a79 05be 8897 0a3e c392 95be 86a4 8d3e
000003a0: 3d2c 583c 2af8 403a 36b3 ad3e 4a24 d6bc
000003b0: 35f7 9a3d 0bbd 6d3e 34ef adbd e4bf 153c
000003c0: 6688 453d b787 39be eb66 923c 5644 03be
000003d0: 93f1 123e 66cd 7c3e 5003 96bd 6783 463e
000003e0: 0c60 9bbe be6d 6bbe 8514 073f 94ab 61bd
000003f0: b2f4 0f3e 1abc 6a39 2ed7 df3e 85a2 e93d
-0.2247802 -0.2427836 0.124343306 0.36778182 0.40208966 0.27288532 -0.27642876 0.09037706
-0.053642757 -0.62226135 -0.4883532 0.07852652 0.09278522 -0.30879676 -0.048485905 -0.47149575
-0.07848949 -0.10237126 0.15785238 -0.06777026 0.49394214 0.50342345 0.27133954 -0.22695212
0.14052121 -0.3922244 -0.06878572 0.44862604 0.03156366 -0.06652133 0.23911774 0.09222982
-0.4808498 -0.05569704 -0.27409145 -0.06967476 0.059826337 0.41377264 0.31861335 -0.36133528
-0.07750923 -0.45417446 0.002261444 0.30671367 0.28837407 -0.04752884 0.4866398 -0.17891714
0.21417059 0.2055453 -0.03972918 -0.18314916 0.49297163 0.049174663 0.2668687 0.017917603
0.13878416 0.53579396 0.5805633 -0.32359648 0.26812863 0.35587895 0.12170297 0.09668212
-0.043124244 0.016288597 -0.22305545 -0.2466924 0.14220975 -0.5274683 0.33219823 -0.121394485
-0.27190194 0.15631285 0.54676247 -0.19110282 -0.10080314 0.13134612 0.17912452 0.07892419
0.28103662 0.31132627 0.29620928 0.17040727 0.07137552 -0.19270374 0.4230352 0.18804912
0.12236028 0.24191211 0.19657142 -0.051518116 0.049340222 -0.03257514 0.034626104 0.21031386
0.31337437 -0.2016021 0.31631234 0.33282495 0.01869755 -0.27659503 0.047878634 0.1470062
0.12950368 0.13960525 0.13533919 0.0914759 0.027734967 -0.18706252 -0.541784 -0.08503182
0.29061747 -0.1211762 0.16577153 0.20478585 -0.24089293 -0.089903116 -0.21885459 0.12451398
-0.0881787 0.30095625 -0.14559533 -0.036813937 0.16915992 -0.42065603 -0.5845175 0.043922253
0.14607628 0.31419775 0.45856437 0.54018426 -0.20775302 0.45673794 -0.023079578 0.2877587
-0.13683374 0.15064517 -0.07234755 -0.0028386654 0.08168817 -0.53595626 -0.5347948 -0.1598286
0.13688207 0.40560767 0.20788518 -0.1533246 -0.013606939 -0.02516817 0.32248473 -0.27094495
-0.08701516 -0.23900642 -0.16988511 0.16611126 0.20045401 -0.050643362 -0.006670694 0.39287898
-0.20140734 -0.03620946 -0.35451567 -0.5606808 -0.19877347 -0.19786029 0.16109069 -0.4422749
-0.054212935 -0.011250094 0.1270907 0.24711227 0.21290456 0.24865267 -0.014564799 0.3736073
-0.2726773 -0.35960627 -0.12467001 -0.26329938 -0.4090721 -0.15738572 -0.15107061 -0.39678064
-0.0709691 -0.49503452 -0.23392983 0.5136098 -0.44280162 -0.4901979 -0.031118775 0.4663425
0.28882083 0.017146913 -0.063433595 -0.007815865 0.11186548 0.08993201 -0.44324696 0.4254368
0.35316062 -0.1623521 0.4667388 -0.034305096 0.029577827 -0.065747716 -0.15776728 -0.44960117
0.4851672 -0.12619078 0.4117875 -0.1916615 -0.15391201 -0.13636062 -0.1736752 0.526431
0.09776885 0.10262805 0.59203255 0.14738198 -0.23142938 0.12054011 -0.14844863 0.04047322
0.048720244 -0.03770299 -0.0868072 -0.4533743 -0.13034645 0.13534367 -0.29213533 0.27664584
0.013194141 0.0007361198 0.3392579 -0.02614035 0.07566682 0.23216645 -0.0849289 0.009139989
0.048225783 -0.18118177 0.01787134 -0.12819037 0.14349966 0.24687728 -0.073248506 0.19386064
-0.30346715 -0.22991082 0.52765685 -0.05509527 0.14058188 0.00022386052 0.43718857 0.11407951

conv1.bias f4 [32]
00000000: 6e46 0d3e 03d2 083e b99a b6bc d39d 93bc
00000010: e71b c93d 1813 f9bd 7e35 d9bd 25f7 793d
00000020: 2ba4 0a3b 81e4 aaba f10a 76bd 4ee7 ddbd
00000030: 221b be3d 76cb cebd 3945 943d c32e a2bc
00000040: d906 053e d5ef 993c b164 f2bd 573d 51bd
00000050: a7d0 c7bd 507c c33c dcf0 9c3d 7302 0f3d
00000060: a169 80bc c8bb 3c3d 1796 b23d ba1d cfbd
00000070: 949c 0e3d 3adb a03d dba1 0dbe 016a 313c
0.13796398 0.13361363 -0.022290574 -0.018019592 0.09819775 -0.12161845 -0.10605906 0.06102671
0.002115498 -0.001303807 -0.06006903 -0.108351335 0.09282519 -0.10097401 0.07239766 -0.019797688
0.12990893 0.018791119 -0.118356116 -0.05108389 -0.09756594 0.023862988 0.07663128 0.034914445
-0.015675368 0.04607752 0.087200336 -0.10113092 0.034817293 0.07854314 -0.13831274 0.010828496

conv1_bn.weight f4 [32]
00000000: 1231 ac3e 4a28 3a3f a544 0a3f d29d 503f
00000010: 431e ae3e f3f9 8e3e d6a3 853f 3b20 e93e
00000020: 358f 1f3f 3ed0 173f 13f7 163f e62d 3a3f
00000030: 1e22 ef3e 1062 273f 0327 0a3f 9ed8 263f
00000040: 7586 443f b9a1 713f 0498 453f cb09 003f
00000050: 4b5c f63e fc19 ea3e 0cd3 203f 9bd4 283f
00000060: 50b4 003f 9c1a 1c3f 2ff2 7c3f 2747 413f
00000070: 3e63 6b3f 57e0 2b3f 2cac 053f 30aa 083f
0.33631188 0.72717726 0.54010993 0.81490815 0.34007463 0.2792507 1.0440624 0.45532402
0.6232789 0.5930213 0.58970755 0.72726285 0.46705717 0.65384007 0.5396578 0.6517428
0.76767665 0.94387394 0.7718508 0.5001494 0.4811729 0.4572295 0.6282203 0.6594941
0.50275135 0.609781 0.9880704 0.75499195 0.91948307 0.6713919 0.5221584 0.53384686

conv1_bn.bias f4 [32]
00000000: 790e ea3e bcb3 06be fe00 89be 4ec4 2ebe
00000010: 8c1f 33be 3b4e 803b fc13 67ba c0ec 09be
00000020: 2d7d e5bd 6ab1 30be fe3c 2ebe 7e89 c2be
00000030: 9e09 c1bd 7175 0ebe 286f 54be eb91 e53d
00000040: 9828 25be 0ab4 dbbd 5f46 84bd ea40 bdbe
00000050: e101 44bc 315f 85bc 69c6 15be dc45 4fbe
00000060: 07e9 aebd 38a8 f6bd 3e2e 8cbd 2989 e4bd
00000070: 0c0e 9d3c 79bb b1bd 1326 59be 7ba4 6bbe
0.45714167 -0.131545 -0.2675857 -0.17067072 -0.17492503 0.003915576 -0.00088149286 -0.13469219
-0.11205516 -0.17255178 -0.17015454 -0.37995523 -0.094256625 -0.13911988 -0.20745528 0.11209472
-0.16128767 -0.10727699 -0.06458735 -0.36963588 -0.011963339 -0.016280742 -0.14626469 -0.20241493
-0.0854054 -0.12043804 -0.068447575 -0.11158974 0.019171737 -0.08678336 -0.2120593 -0.23011963

conv1_bn.running_mean f4 [32]
00000000: 4e23 043e b0b9 4440 9363 853e d88e d4bf
00000010: a7b8 923f 6fd4 9c3f eff3 c7bf 643c 423f
00000020: da0b 063f 2f71 193f 15fe 013f 5a6f 1d3f
00000030: a072 0a3f 6f56 c0be ba8b 74be 1ad2 f4bf
00000040: b60e 3cbf 1196 66bf 8b4b 873f 41ba 103f
00000050: 0372 f8bc 76ff 823f a959 d13f 0d05 e43d
00000060: 1bf9 2d3f 6c93 e33f fba9 64bf 732d debe
00000070: 8b9b 0ec0 4c17 bfbf 08a4 60be 9c03 86be
0.12904093 3.0738335 0.26052532 -1.6606092 1.1462601 1.225233 -1.5621318 0.758734
0.52361834 0.5993833 0.50778323 0.61498034 0.54081154 -0.37565944 -0.23881426 -1.9126618
-0.7345995 -0.90072733 1.0569929 0.565342 -0.030327803 1.023421 1.6355487 0.11133776
0.6795823 1.7779365 -0.8932187 -0.4339405 -2.2282436 -1.4928985 -0.21937573 -0.2617463

conv1_bn.running_var f4 [32]
00000000: 7028 013d 61a0 f33e 4639 ba3d 37c1 4b3e
00000010: b5b1 9d3d 3398 e13d 8157 193e f0b8 7a3d
00000020: 63e1 783d 9c37 513d 7ec0 a93d d222 8a3d
00000030: 9af5 643d af04 303d 227c c43d 6453 483e
00000040: 1c60 893d ac04 c43d 1372 423e 79a4 563d
00000050: fc72 263d 7267 ba3d f428 373e 88fd 343d
00000060: aac8 a93d a7f9 343e e8cc 8c3d fe9f 623d
00000070: ce52 9b3e 03c1 283e ad8c f93c 0509 7b3d
0.031532705 0.47583297 0.09092955 0.19897924 0.076999106 0.11015358 0.14974786 0.061211526
0.06076182 0.051078424 0.08288668 0.06744923 0.055898286 0.042973217 0.09593989 0.19563061
0.067077845 0.095712036 0.18988828 0.052402947 0.040637 0.09101762 0.17886716 0.0441871
0.08290227 0.1767336 0.0687502 0.05532836 0.30336612 0.16479878 0.030462587 0.0612879

conv2.weight f4 [32, 32, 4, 4]
00000000: 4fd3 473c 5456 0c3e 273a 9cbe bd79 a13d
00000010: b578 dfbd 9c5d 923e 7eac c4be d5b3 89bd
00000020: fbad 95be f4c3 ef3e b3e5 433e f933 a33e
00000030: 0057 00be da6f 2ebe 0310 b53e e594 6f3e
00000040: 0786 b93e 0003 193d bb60 723e 5db7 553e
00000050: f04b 573c ccac 9c3d 7484 d33d ef99 573e
00000060: 80bc 923e 8f1a 153e 3ccd 353e 1b9e 2f3e
00000070: 0fab e2bd 139f 373e 30e9 003c 3837 8c3e
00000080: 8a19 023e 08ea 8a3e 0ae3 a73c 856e 263e
00000090: 0e8e 5abe d52d 6d3d e00b e93d bc2a 4f3e
000000a0: d9c2 a4bd 13e2 183e d907 553e aa33 6d3e
000000b0: e493 d2be 8807 b7bd c168 adbc a857 0c3e
000000c0: 382a e5bd 4f5f d3bb 7bba 2a3e 9b1e e13e
000000d0: f082 bfbd 7b7d 3bbe 85e8 f13d c5a4 f1bd
000000e0: f4ef a2be 4c16 0c3e 7f31 50bc c2fd 59bf
000000f0: 392e 72be 64fd 9bbe 0496 56be 4f1e 493e
00000100: ac4e 1abd 421c 003d 097e c43e fd8c 473e
00000110: 2cb9 35be 1ab3 0c3e bae5 373d dd83 da3d
00000120: 089d 773d 4a41 4cbe 744c b8bd 1545 3c3e
00000130: 232e a7bd cba7 f1bc f6bd 0f3c e43d 0b3d
00000140: 8de5 273e 6b8f cd3d 7f61 cfbc 9337 bd3d
00000150: 98da 4c3e 9a42 83bd 73f6 a53c 3d41 003e
00000160: a5e8 973d 52ed 383e 3763 7f3d 15fb 8b3e
00000170: c9c6 983c 60ea d73d 30e1 5c3d c0d3 a53e
00000180: 143f 363e a105 ebbe 47e0 643e eafd 4f3d
00000190: 916d 2bbd 5448 9b3e ebc2 d23c 3d7a 12be
000001a0: 992c 273c 4d79 c8bd 7a08 77be 732e ff3e
000001b0: 7893 983c 31d2 75bc 13fe 053e 2240 dabe
000001c0: af98 73bd 9888 00bd 822d 833e cdba 483d
000001d0: 36ed 8bbe b8a8 c3be 43e9 233e 3a5f a2bd
000001e0: 2565 e9bd b3fc 8b3e eb3b e83d eb6c cbbc
000001f0: 3002 01be 0317 febd 8055 e63d 9b6e 81be
00000200: 742a 68be e1be 16be 592e b63e 9623 4c3e
00000210: d103 23bd 7cc1 b7be f2ff 38be 065e 29be
00000220: 82e7 04bd b268 b0bd 8167 063e c3ad 0e3e
00000230: 293b 4cbe 79a5 903e fc51 993e 71fd e03e
00000240: 1f7f 85bd 7aa9 9ebe 2d8d 263e a3a1 f33d
00000250: 04f3 d73d e2c7 da3e 5c53 77be aa3f 91be
00000260: c5d0 9cbd c221 eebe 8f5b 803d 1e10 323e
00000270: 2a7b 4bbe 9c4e 82be 8d9f 0d3e 3598 93be
00000280: 677f 9c3e a073 e8bc 6eac 8abe 4694 96be
00000290: a584 363d 7d62 8e3e 4de7 2dbb 3afa e2be
000002a0: 7a67 873d e9b8 e7bd db77 2ebd 1d34 ac3d
000002b0: bdca a53d 4403 3a3e 5e08 b6bd 75c7 143e
000002c0: a189 d5bd 456e 853d 82e6 47be 797f 3c3e
000002d0: 920d b63d 713a 893a 9790 833d 738e 3cbe
000002e0: 25a9 813e 134c d9bd d914 2f3e 243b 173e
000002f0: 1725 5abc ad55 56bd 0e51 e6be 8eb6 8cbe
00000300: a38c da3d 7125 e0bd 72ca b1be c2e7 b53e
00000310: 95d8 293e a4e7 8e3e 4e04 3c3e d0d5 9d3d
00000320: 24e7 99be ccfa 143e 36cd 3f3e b78d bfbe
00000330: 73ad 4f3e f975 3c3e 3c6f f7be eab7 533e
00000340: 7a16 c53e 8c8a 7bbd 13ce f13b 99ec 813d
00000350: bc77 f23d 1be1 80be b4c9 65be 35d5 dc3d
00000360: 4538 1a3d e556 d63c 332f 243b d2bf febc
00000370: 7400 0b3e 5d83 c13d a058 31bc c739 6cbe
00000380: 46e9 e9bd 6e97 593e 7f26 4e3e e7aa b8bd
00000390: 6289 2b3e 712e 4bbe be68 163e fcaf dabd
000003a0: 750e 7ebd 0aca d3bb 0f03 8b3e 1a61 01bd
000003b0: b10a 84be c8a1 12be ee3b 2a3b 8368 9a3e
000003c0: d190 a33d 1282 513e 6aad 51be e42b e13c
000003d0: 01f3 32bd a2d1 f8bd 5552 9b3e 5f76 22bd
000003e0: 98be 3fbe cacf 363e 7862 1cbd 3b2f cdbe
000003f0: 8917 17be f02b e6bc 4923 bdbd 69d3 2f3e
0.012196376 0.13704807 -0.30513117 0.07884548 -0.10911695 0.28587043 -0.3841285 -0.06723753
-0.292343 0.46829188 0.19130592 0.3187559 -0.12533188 -0.17034855 0.35363778 0.23396643
0.36235067 0.037356377 0.23669712 0.20870729 0.0131406635 0.07650146 0.10327998 0.21054815
0.2865944 0.14560913 0.17754072 0.17150156 -0.11067783 0.17931776 0.007868096 0.2738588
0.12705055 0.27131677 0.020494003 0.16253097 -0.21343252 0.057905037 0.11379218 0.20231146
-0.08044977 0.1492999 0.20803775 0.2316424 -0.41128457 -0.08936983 -0.021168115 0.13705313
-0.11189693 -0.0064505707 0.16672699 0.43968663 -0.09351146 -0.18309586 0.11811928 -0.117990054
-0.31823695 0.1368038 -0.012707113 -0.8515283 -0.23650445 -0.3046676 -0.20955664 0.19640468
-0.037672684 0.03127695 0.38377407 0.19487377 -0.17746419 0.13740197 0.04489682 0.10669682
0.06045249 -0.19946781 -0.08998957 0.18385728 -0.08163097 -0.029498955 0.008773318 0.03399457
0.1639616 0.100371204 -0.025315044 0.092391156 0.20005262 -0.064091876 0.020259118 0.12524886
0.0741742 0.1805928 0.062350478 0.27339998 0.018649476 0.1054275 0.053925693 0.32388115
0.177975 -0.45902732 0.2235118 0.05077926 -0.041852538 0.3032862 0.02572771 -0.14304443
0.010203504 -0.09788761 -0.24124327 0.49840125 0.018625006 -0.015003727 0.13085203 -0.42627054
-0.059471782 -0.031380266 0.25620657 0.049006272 -0.27329415 -0.3821466 0.16006951 -0.07928319
-0.11396245 0.27341232 0.113395534 -0.02483221 -0.1259849 -0.12406733 0.112467766 -0.25279698
-0.22672445 -0.14721252 0.35582235 0.1993545 -0.03979856 -0.35889804 -0.18066385 -0.16539773
-0.032447346 -0.08613719 0.13125421 0.13933472 -0.19944443 0.28251246 0.29945362 0.4394336
-0.06518387 -0.30988675 0.16264792 0.11896064 0.105443984 0.42730623 -0.24152893 -0.28368884
-0.07657007 -0.4651013 0.062674634 0.1738896 -0.19871202 -0.254506 0.13830395 -0.28827062
0.3056595 -0.028375447 -0.27084678 -0.2941 0.044560093 0.27809516 -0.002653557 -0.44331533
0.066115335 -0.11314566 -0.04259477 0.08408377 0.0809531 0.18165308 -0.08888315 0.14529212
-0.10426641 0.06515173 -0.19521526 0.18408002 0.08889307 0.0010469687 0.06424063 -0.18413715
0.2532436 -0.10610213 0.17097796 0.14768654 -0.013314507 -0.0523278 -0.44983715 -0.27483028
0.106713556 -0.109446414 -0.34724766 0.3552838 0.16586526 0.27911103 0.18361017 0.07706797
-0.3005916 0.14548796 0.18730626 -0.37412807 0.2028101 0.18404378 -0.48327053 0.20675626
0.3849371 -0.061411425 0.0073793023 0.063439555 0.11839244 -0.25171742 -0.22440225 0.107828535
0.03765132 0.026164481 0.0025052547 -0.031097326 0.13574392 0.09448884 -0.0108243525 -0.23068915
-0.114214465 0.21249172 0.20131873 -0.09016972 0.16751626 -0.19841935 0.14688393 -0.106780976
-0.062025506 -0.006463294 0.2715077 -0.031586744 -0.25789407 -0.14319527 0.0025975662 0.3015786
0.07986606 0.20459774 -0.20476308 0.027486749 -0.043688778 -0.12149359 0.30336252 -0.03966367
-0.1872505 0.17852703 -0.038179845 -0.40075096 -0.14755072 -0.028097123 -0.09235246 0.1717049

conv2.bias f4 [32]
00000000: a51d d4bc 0423 04bb 5159 de3a 2627 a13c
00000010: c79e 713c 69ff 973c 14d8 11bd a331 093d
00000020: 5e8a 113d f780 0fbc edc1 91bb 41dc c2bb
00000030: 768c cd3b 9e7d f33c 329b 91bc 6377 30bd
00000040: 5f37 a33b 7d37 a0bc 7a42 e83c 4d28 26bb
00000050: c57b 0abd 7c6f 77bc e064 17bd 04c4 323d
00000060: 718b 393c 469e e83c f13d adbc a19c 9e3c
00000070: 8c4a b03c 95c5 00bc ccb7 3f3c 1cea 563c
-0.025893042 -0.0020162473 0.0016963874 0.019671988 0.014747328 0.018554406 -0.03560646 0.033494603
0.035532348 -0.008758775 -0.0044481666 -0.0059466665 0.0062728478 0.029722985 -0.017774198 -0.043082606
0.004980966 -0.019557709 0.028352011 -0.002535361 -0.033809442 -0.015102264 -0.036961436 0.043643966
0.011324749 0.028395783 -0.0211477 0.019361796 0.021519922 -0.007859607 0.011701535 0.013117339

conv2_bn.weight f4 [32]
00000000: 87a1 a63e 0580 c73e d28a 093f de44 523f
00000010: 2bab ab3e 2591 d53e b890 953f ec7c 0c3f
00000020: 05a5 c83e 4344 ab3e b4b6 113f fccf 443f
00000030: 8145 a73e 3832 46bc 27d4 d53e 937b 103f
00000040: b6b7 163f c098 f03e e093 393f b8fb 283f
00000050: ed96 623f 5d25 bd3e 6873 523f 8b15 983e
00000060: 846f fb3e 0c96 553f 2494 113f eed7 bf3e
00000070: c59a 603f 10c1 723f f55e 043f ab50 bb3e
0.3254511 0.3896486 0.5372745 0.82136333 0.33529028 0.417123 1.168479 0.54878116
0.391884 0.33450517 0.5691941 0.7687986 0.32670215 -0.012096934 0.41763422 0.5643856
0.5887407 0.4699154 0.72491264 0.6600909 0.88511544 0.36942568 0.82207346 0.29703936
0.49108517 0.8343208 0.5686667 0.3746943 0.8773616 0.9482584 0.5170739 0.36584982

conv2_bn.bias f4 [32]
00000000: a568 44be 5b8d a6be bede e9bd f093 c5bd
00000010: fae0 30be d78f a1be 6ce7 40bd f816 88be
00000020: 7da8 a1bd 6ec0 4cbe f348 753c f2c4 c73c
00000030: 8cdb 1ebe fd11 a1bd 9511 643d 9a4e 363d
00000040: c9fb c2be c8d7 e0bd a6bb b9bc 9c92 81bb
00000050: 61db 1dbd 51c1 84be 9004 cf3d e671 823d
00000060: 3b69 57be af4e 01bc e3be c2bc 3b29 a5be
00000070: 8add 7bbb 2a1b 7fbd 0571 193d 7e2e 623a
-0.19180544 -0.3252972 -0.11419438 -0.096473575 -0.17273322 -0.31555054 -0.0470957 -0.26580024
-0.07893465 -0.19995281 0.014971006 0.024385903 -0.15513438 -0.07864759 0.05568083 0.044508554
-0.38082722 -0.10978657 -0.022672486 -0.003954245 -0.038539294 -0.2592874 0.10108292 0.06369381
-0.21036236 -0.007892295 -0.023772663 -0.3225802 -0.0038431608 -0.062281765 0.0374613 0.00086281437

conv2_bn.running_mean f4 [32]
00000000: a937 6c3f 6b77 75be 0179 28c0 f31b 66bf
00000010: 4217 453f 6861 5cbf faf5 873a eaa4 de3f
00000020: b599 e83f ff99 e6be 8873 8cbf a4e6 e8bf
00000030: a780 41bf 0cc5 bbbd 7588 19c0 0f1a 12c0
00000040: 8149 fb3f 0174 20bf bb24 1ac0 202d 83bf
00000050: 687e 06c0 0b57 56bf 5cee 53c0 e10e d33f
00000060: 5942 e9be 3085 cbbf ac4c a8be b6ce b3be
00000070: 4e0e a8bf 6715 97bf 7b51 67bf e888 eabf
0.9227243 -0.23971336 -2.6323855 -0.898864 0.76988614 -0.8608613 0.0010372989 1.7394078
1.8171908 -0.45039365 -1.0972757 -1.8195386 -0.7558693 -0.09168443 -2.3989537 -2.2828405
1.9631807 -0.6267701 -2.4084918 -1.0248146 -2.1014652 -0.8372657 -3.3114233 1.6488916
-0.45558432 -1.5900021 -0.32870996 -0.35118645 -1.3129365 -1.1803406 -0.90358704 -1.832303

conv2_bn.running_var f4 [32]
00000000: e33b c240 723e f440 182e 3841 969d 9e41
00000010: ec18 ad40 4225 bf40 0fd1 e441 0a23 4c41
00000020: 3a1d 0041 e860 c940 3807 2e41 1456 af41
00000030: d26c aa40 2f4a 7d3e 2ae5 cb40 60c0 6641
00000040: 9cc2 8c41 8260 df40 c20c 6c41 b20b 4d41
00000050: eb43 b441 1e56 9940 6dd7 da41 f07c 8040
00000060: ea10 1841 3cc6 8a41 81b4 f640 1d66 5840
00000070: 9b7f d241 136a 9a41 21f8 0141 29a9 8e40
6.0698104 7.6326227 11.511253 19.826946 5.409292 5.973298 28.60208 12.758554
8.007135 6.2930794 10.876762 21.91703 5.3257837 0.2473533 6.371724 14.421967
17.595024 6.9805307 14.753115 12.815355 22.533163 4.7917624 27.355188 4.015251
9.504129 17.346794 7.709534 3.3812325 26.312307 19.301794 8.123078 4.4581494

conv3.weight f4 [32, 32, 4, 4]
00000000: e45c 74bd dab5 ad3e 7010 eabc 9044 93be
00000010: 1f34 babe 9174 d3bd af8a 5f3e dc0a ad3d
00000020: af4e 02bf 4708 da3d 3c03 0dbe f912 06bf
00000030: 5904 b1bc 77f5 2cbe db4f b03d debb 393d
00000040: 784e e1bc 1f71 af3e 17f7 7e3e 178f 91be
00000050: e49f acbe c287 f2be 1e28 443e 7919 da3c
00000060: b3ff cdbe 3214 90bc 9ebc cbbd 0d20 3ebe
00000070: d6df 49be ffc9 093f 5460 853b 7cd5 4dbe
00000080: ef6c cabe b06b 843e 6fbc adbe 35bf f4bc
00000090: a432 c43c 1852 06bf 4ed1 853c c78e bc3e
000000a0: b96e c0be 426a 6c3e eba0 fdbd dc38 47be
000000b0: 554c a73e c573 2cbe b99c 77be dcb6 76bd
000000c0: 7915 913d 113d d0be a3f1 8dbd c990 80be
000000d0: eb56 9f3e 7900 c1be 0fe7 a6be 1004 74be
000000e0: 2a01 323f 6574 823e 8878 443c 3aa3 163e
000000f0: d138 a13e e877 22bf 2a8d cbbe abb8 adbe
00000100: 3a1a 053f ef10 76be 2599 89be 1858 df3c
00000110: 431a 17bf fd1e c03e d883 a9be 4409 56be
00000120: b792 26bf 4524 83bd c32d 013e 116f 713e
00000130: 0412 da3d 0edb 013e faf3 7c3d f9a9 b7bd
00000140: 1de0 fe3c c8f8 e9bc cbfa 9f3e f017 263e
00000150: 988a 84bc cb4c 79be e885 a33a e9a0 89be
00000160: c74b cdbe a827 1abd 3b56 8f3d d549 97bd
00000170: a319 2abe 07b6 c5be fba1 a33d 32fe c0bd
00000180: fc15 463e 7bc3 96be 3896 643c 7ce9 2dbe
00000190: 46ba e63d 9a9a 98bd 9e45 79bc d818 653c
000001a0: 7da1 0bbe d5cb e0bd ee47 d7be 0064 47bc
000001b0: 0273 af39 57d2 10bd 222a d13e 7256 9dbd
000001c0: 972e 12bd 534f 153e 7171 c5bc 575d f83c
000001d0: f4aa 2bbe ed45 8c3c f66e c2be 09fe 843d
000001e0: 8102 4cbe 84cd 663d 42db 57bd 4679 f6be
000001f0: d413 8a3e 4cc1 d6bb 32e0 a0bd 0173 55ba
00000200: d63e dcbc b26c d5be d9e0 bbbd 57bf 31bd
00000210: f6c4 64bc e2c9 09be c80d 5bbe 32f9 603d
00000220: 2d1e c4be c704 a53b 920f 1a3f ea0b a43d
00000230: c04d 743e a8f6 53be 4ad8 a5be 95f8 03be
00000240: 4aab db3e bde8 d1be 1a61 813e d213 c3be
00000250: a444 20be ee44 e0be cef1 e8bd c7e9 a3be
00000260: 6451 0cbe 89eb f7bd a0fa a73e 8fa4 0ebe
00000270: 0fbb 4b3e 0bfa 12be 49d0 77bc 1eb8 623e
00000280: f265 833e 062f 1cbd 2b99 d7bd 0d3e 0fbe
00000290: 06a9 9dbd f1fb 9fbe 9abd 92bd b4b7 5cbd
000002a0: 8164 c83e 14ce 84be 0256 ad3a 14a6 7a3c
000002b0: 0d59 b93c 75ac 20bc 3706 debe 6797 aebe
000002c0: 0300 943e cf78 7ebd abaf 08be fa3d e43c
000002d0: 3342 103e 26e5 4b3e dbea 22be 4fe1 a0be
000002e0: 68d9 203e db4a 9cbe 2b6a babe d19b e9be
000002f0: ef54 c3bd 0b16 a03d b26c 2bbd a705 86be
00000300: bedb 7a3d 6a9d 773d 056b 963e 7fca 40be
00000310: 8bae 593e 5d1e 26be 76bc 8bbe 090c 893e
00000320: 3683 733d d537 263c 8fc3 bf3d a406 1c3e
00000330: e941 8dbd d58d 06be aa7c 223e 717c 423e
00000340: 6b56 cf3b 06be 50bc fdc4 23bd 1206 7a3b
00000350: eea4 d63b e114 8abc 5b46 273b 4363 f53c
00000360: f077 723c cdf1 1bbd 2eca 84bc 4f91 2ebc
00000370: f715 15bd 7365 373d 6f75 6b3c 6653 34bd
00000380: 8872 90be ba04 903e 3e92 623e 0983 38be
00000390: e60e 163e 6ca3 c73d 1d5a 9b3e 3c31 213e
000003a0: 839a dfbd e2e9 a4bd bbbb 3abd e76f 97be
000003b0: faff 913d 64bc 4cbe 8508 11bd 1a38 593e
000003c0: 4298 d53c 7836 95bc 2811 3f3e 88ea 3d3e
000003d0: c9f3 20bc 0dba 523e 5fae e0bd fe2b a0be
000003e0: 7b03 1a3e 4ae5 8bbe 5ef7 adbe 1fc8 d8be
000003f0: bbc8 6ebd 27a2 22bd 0f9a 5a3b cd8e 4bbe
-0.0596589 0.33927804 -0.028572291 -0.28763247 -0.3636789 -0.10324968 0.21830247 0.08449337
-0.5090131 0.1064611 -0.13770765 -0.523727 -0.021608518 -0.16890512 0.08608981 0.04534518
-0.027503237 0.34265992 0.24898945 -0.2842948 -0.33715737 -0.473692 0.19155928 0.026623474
-0.40234146 -0.017587755 -0.09948085 -0.18566914 -0.19714293 0.53823847 0.004070321 -0.20100969
-0.39536235 0.2586341 -0.33932826 -0.02987633 0.023949929 -0.52469015 0.016335156 0.3682768
-0.37584475 0.23087409 -0.12384208 -0.19455284 0.32675424 -0.16841038 -0.24180879 -0.060232982
0.07084174 -0.4067159 -0.06930854 -0.25110462 0.31121 -0.37695673 -0.3259816 -0.23829675
0.69533026 0.25479427 0.0119916275 0.14710703 0.3148866 -0.6346421 -0.39756137 -0.33929953
0.51993144 -0.24029897 -0.26874653 0.027263686 -0.5902445 0.37523642 -0.331084 -0.20901972
-0.6506762 -0.06403402 0.12615113 0.23577525 0.106479675 0.12681219 0.06175611 -0.089679666
0.031112725 -0.028561011 0.31246027 0.16220069 -0.016179368 -0.243457 0.001247582 -0.26880577
-0.40096876 -0.037635475 0.06998869 -0.07387129 -0.16611342 -0.38615438 0.0798988 -0.09423484
0.19344324 -0.29446015 0.013951831 -0.16983598 0.112659976 -0.07451363 -0.015214352 0.013982974
-0.13635822 -0.10976378 -0.42047065 -0.012169838 0.0003346429 -0.035356846 0.40852457 -0.07682504
-0.035688963 0.14581041 -0.024101945 0.030317945 -0.16764432 0.017123187 -0.3797528 0.06493766
-0.1992283 0.05634834 -0.052699335 -0.481394 0.26968253 -0.0065538045 -0.07855262 -0.0008142442
-0.026885431 -0.4168449 -0.09173746 -0.043395367 -0.013962975 -0.13455918 -0.21391976 0.05492515
-0.38304272 0.00503597 0.6018001 0.08010085 0.23857784 -0.2069956 -0.32391578 -0.12887795
0.4290412 -0.40997878 0.25269395 -0.3810106 -0.15651184 -0.4380259 -0.113742456 -0.32014295
-0.13702923 -0.12105472 0.328084 -0.13929962 0.19895576 -0.14353196 -0.015125343 0.22140548
0.25663716 -0.038130783 -0.10527261 -0.13988514 -0.07698254 -0.31246904 -0.0716507 -0.05388613
0.39139178 -0.25938475 0.0013224485 0.015298385 0.02262547 -0.009806742 -0.43364117 -0.34099886
0.2890626 -0.06212693 -0.13348262 0.027861584 0.14087753 0.19911632 -0.15909903 -0.31421897
0.15707934 -0.3052586 -0.36409125 -0.4562669 -0.09537684 0.07816704 -0.041851707 -0.26176187
0.06124472 0.060452856 0.29378524 -0.18827246 0.21257989 -0.1622252 -0.27292222 0.26766995
0.059451304 0.010145147 0.09363472 0.15236908 -0.06897337 -0.13140042 0.15867868 0.18992783
0.0063274405 -0.012740618 -0.039982785 0.003815059 0.006550423 -0.016855659 0.0025524113 0.029954558
0.014799103 -0.038072396 -0.016209688 -0.010654761 -0.0363979 0.044774484 0.01437126 -0.044024847
-0.2821238 0.28128606 0.221261 -0.18018736 0.14654121 0.09747967 0.30342188 0.15741438
-0.10918143 -0.08052422 -0.04558919 -0.29577562 0.07128902 -0.1999374 -0.035408515 0.21212807
0.026073579 -0.01821445 0.18658888 0.18546498 -0.009823748 0.20578785 -0.10970759 -0.31283563
0.1504039 -0.2732337 -0.3397779 -0.4234018 -0.0582969 -0.03970542 0.0033355986 -0.19878693

conv3.bias f4 [32]
00000000: ac8b 073d c471 c6ba a0d3 ed3c 56c0 b8bc
00000010: 89f7 16bd 7518 2abd 1d65 87bb a965 023d
00000020: 23f6 01bc 1219 4cbc a273 e03c 6994 de3c
00000030: 6ca1 8dbc b9df dfba e2b7 1ebd 296b ddba
00000040: f8af 9d3c 148d 463c c694 af3b d6e8 47bc
00000050: 6e7f edbb 874b 063d 08f9 b53c a9a6 a2bb
00000060: 2cdd dd3b 68cd ec3c 3ee8 323a a923 17bc
00000070: 8ee9 10bb dc08 edbb e44f 913c 1f7b 2c3d
0.033092186 -0.0015140106 0.029031575 -0.02255265 -0.03685716 -0.04152723 -0.0041319267 0.031835232
-0.007932219 -0.012457149 0.027398888 0.027170377 -0.017288886 -0.0017080224 -0.038749583 -0.0016892898
0.019248948 0.012118597 0.0053583113 -0.0122015085 -0.007247857 0.032786872 0.022213474 -0.004963715
0.0067707505 0.02890654 0.0006824768 -0.009224811 -0.0022111866 -0.007233722 0.01773829 0.042109605

conv3_bn.weight f4 [32]
00000000: ca72 4c3f a662 893f acfa 053f a882 0c3f
00000010: 822d 133f bafc 01bf 9268 343f f250 2c3f
00000020: 29bc 113f f5aa 853f 7193 2e3f 879f 603f
00000030: 29d1 e93e ad95 183f c237 3f3f 433f 9d3f
00000040: 03b2 823f 3f20 1a3f 6f7d 023f 3011 013f
00000050: d9f2 173f ec07 1b3f b71c af3f 1745 083f
00000060: 7e98 143f 61e7 393f 0b28 3b3f 1733 1f3f
00000070: 7b9f 063f 8ab1 173f 7685 103f 61ae 9d3f
0.79862654 1.073323 0.5233562 0.54886866 0.57491314 -0.50776255 0.7047206 0.6731101
0.56927735 1.0442797 0.6819373 0.8774342 0.4566739 0.5960339 0.74694455 1.2284931
1.0210575 0.60205454 0.50972646 0.5041685 0.5935493 0.6055896 1.3680638 0.5323042
0.58045185 0.7261868 0.73107976 0.6218733 0.525871 0.5925528 0.56453645 1.2318841

conv3_bn.bias f4 [32]
00000000: 36a8 7fbe 161c 413c 3241 b8be 9c7a a1be
00000010: 8e2c 66be 08ad 663e 273e 593d a0c5 0d3d
00000020: d65a d5bc 3dd4 29be a752 56be d0ca 20be
00000030: 6216 84be dc16 18be 3b15 94be be6a 8ebd
00000040: 8fd4 a3bd a7b4 75be f5d0 1ebe 4dd1 c6bd
00000050: 80fc 4dbd 15fc 90be a750 8fbd 8438 22bd
00000060: b93d 84be b44e 4a3d d044 6ebe 99fa b1be
00000070: fce3 81be d4e3 99be 0587 b9be b556 12bd
-0.24966511 0.011786481 -0.3598724 -0.31538856 -0.22477934 0.22526944 0.05303779 0.034612298
-0.02604429 -0.16584869 -0.20929967 -0.15702367 -0.25798327 -0.1485247 -0.28922448 -0.06953953
-0.07999527 -0.23994695 -0.15509398 -0.0970789 -0.05028963 -0.28317323 -0.06997805 -0.03960468
-0.2582834 0.049391463 -0.23268437 -0.34761503 -0.2536925 -0.30056632 -0.36235824 -0.03572722

conv3_bn.running_mean f4 [32]
00000000: 6c39 9bc0 f519 26bf 0a0d 1e3e 8da5 77c0
00000010: dc0f 86c0 6d9a 4540 8b65 f63f 515a cbbe
00000020: 6c36 28c0 54bc 16c0 1ad3 25bd 5aaf 7e40
00000030: b02f d23e 6fa7 4cc0 f60c 04bf 2958 62bf
00000040: 8617 de3f 4802 0bc0 b576 02c1 23b9 6240
00000050: 6ffa 2240 1c2a 9cbf 879e afbf 70be 43c0
00000060: 0b8f 36c0 b630 84c0 471f aabe feea 35c0
00000070: ab38 4dc0 5493 a2bf 3d7c bbbf 0fa2 d83e
-4.8507595 -0.6488336 0.15434662 -3.8694794 -4.189436 3.0875504 1.9249738 -0.39717343
-2.6283216 -2.3552446 -0.040484525 3.9794526 0.41052008 -3.1977193 -0.51582277 -0.8841577
1.7350929 -2.1720142 -8.153981 3.5425498 2.5465353 -1.2200351 -1.3720254 -3.0584984
-2.8524806 -4.130946 -0.33226988 -2.8424678 -3.2065837 -1.2701211 -1.464729 0.4231114

conv3_bn.running_var f4 [32]
00000000: 87f2 0740 fb16 4e40 7f83 1940 8ce6 3840
00000010: 04f1 c53f a9cf 4540 3b07 2c40 0fec 1640
00000020: c4e6 c43f cf92 4940 f2ee 9040 46f9 6840
00000030: 5683 b03f 3d15 1c40 7a5e 2a40 83c1 9740
00000040: 1624 8c40 8992 b23f 224b e23f eea9 1e40
00000050: c5cf e73f 915b 1d40 9992 c940 4a99 c33f
00000060: b7bd 3d40 35cc 1540 61c4 0340 0095 3840
00000070: c374 1e40 b4d9 4040 5373 1a40 0de5 9940
2.1241777 3.2201526 2.398651 2.8890715 1.5464177 3.0907996 2.6879413 2.3581579
1.5382924 3.1495855 4.529168 3.6402144 1.379008 2.4387963 2.6620164 4.742372
4.379405 1.3950969 1.7679179 2.4791217 1.8110281 2.4587138 6.299145 1.5281155
2.9647043 2.3405888 2.058861 2.8840942 2.4758766 3.0132875 2.4132888 4.8092103

linear1.weight f4 [32, 6272]
00000000: 1b02 c5bd 6f5b ccbd 75dd ecbd fc70 a2bd
00000010: 2fbc 673d c254 7cbd 104c c0ba 7e75 8c3d
00000020: 8b69 1ebd ba38 e23d 0e33 c1bd 6790 473d
00000030: 3127 68be 170b 183e 2d95 c73c 7e92 13bc
00000040: 1190 26be 8055 83bb ebc4 e1bb 105f 7ebc
00000050: 5925 173e 2514 efbb 0dd9 603e be4f cdbd
00000060: b77a 2d3c 613e f3bd 17be ba3d 91e8 80bd
00000070: 6221 b53d 5540 d53d bda4 1bbe 60a9 3cbe
00000080: 8e52 81be 8860 643d 4e27 ddbc bf23 073e
00000090: 077e bf3d 13ca 11bd 7c7c 233d dcbc a5bd
000000a0: d087 273e 2b24 28ba 2587 f8bd d022 3c3e
000000b0: 846f b8be 504b 973c d96d edbd 07aa 6dbd
000000c0: d970 3c3d 53c6 083f 4bb8 08be e40e cabe
000000d0: 1cbf 38be 7c8f 943b 258b 073e f43b 313e
000000e0: d839 8fbd 39b7 a3bd d5ca b3be fe0e 6abd
000000f0: 0a7b 5cbe f589 863d de92 093e 8260 923c
00000100: e887 a5be ad4c 19bf 82ac bf3d b252 09be
00000110: b240 e73d e5e0 f4bd 3338 05be a49d adbe
00000120: 8311 e13c 8db1 593e de5f 64bc 810d 25be
00000130: 46a0 7ebe 5219 f23d 33d9 babd 0c0f 503e
00000140: 4abf e63d ee16 2ebe a503 91bd 7adc 87bd
00000150: e287 a2be c16c 05be 4dcd bf3e f822 fc3b
00000160: 35d1 53be c6f9 10be 5093 3bbe 4edb f23d
00000170: e825 023e 36d7 18be 3f7f 823d aab1 eebd
00000180: 2e36 87bc d914 1bbc cb85 f93d 7b51 0bbe
00000190: 2482 05be 2d60 943d 1cc8 933d 61fd b13d
000001a0: 3ac4 f1bd 2323 84be 5f3e d53e bc53 63bd
000001b0: 2f73 ab3c f773 f03d ee15 f5bc e0fb 333c
000001c0: 5b0c 13be b601 b1be 510d 953d 2c42 d2bc
000001d0: 5d63 eebe 7a5b 46bd b9b0 973c c368 95bd
000001e0: 70e4 dd3c 9277 753e 24bc 353a a413 a5bd
000001f0: ae35 eb3c 1f2d 19bd 15b7 33be a859 8abd
00000200: 9193 cb3e cd89 5fbe a4fc a3bc 02e2 b4bb
00000210: f401 64bd 14b0 d7bb 64ea dcbb 0548 a5bd
00000220: 1a62 c9bd c007 eb3c 5618 af3c 944a 593c
00000230: a41a 06be ee80 9fbe 13aa 2d3e 47c7 b73c
00000240: 36f7 813c d794 203c 08d5 c83c b9c1 9ebd
00000250: 6334 a53c ee14 e03d 8f30 8bbc 22fb bdbd
00000260: 18e0 8d3d 30cf c33d 8246 83be d273 96bd
00000270: d22c cc3b db20 c9bc 8add 943d 03c2 85bd
00000280: c5a8 52bd 1cde fcbb d51d cd39 39f5 c3bd
00000290: 61bb 353d b413 9ebb 03db 5abd 647c da3d
000002a0: 39d1 aa3d db34 263e f650 2abc add1 f5bb
000002b0: a5ea 393c 64c6 293c 8c8b afbc 2228 323d
000002c0: c7a4 c83b b337 05bc 8287 e8bc cc96 123e
000002d0: 25ae 99bd 737d 613c 434c 06bd 8ede bbbd
000002e0: 509b ad3d d62f 06bc 7e84 61bb 76fb 003c
000002f0: 96d7 e03c 5451 233c b89b 84bd b4a0 52bd
00000300: b7ee 89bd d19e bdbd 74a3 0c3d b57d c8bb
00000310: 47fe 6c3c 654f ac3d b34b 03be cc19 17be
00000320: 1f41 a33d a8cd 38bd 8838 503e dde3 283e
00000330: 2301 3f3c d01e 4bbd 423c 8d3d 8fdd 02be
00000340: d6c0 503e f8b1 9abe ff5c 273e cba0 d43d
00000350: 0798 69be 0577 cbbd 2e81 a7be 4bbb 203e
00000360: 9e8a 5b3d 07a1 a13d a63e 4bbe 221a 28bd
00000370: 3b84 f8bc 8b27 263e b380 893e 19e1 d53d
00000380: 73d1 4c3e 6663 2cbe 1307 b8bd c771 fcbd
00000390: 3b54 6e3e 30bc 19bb a965 603e 41f4 11be
000003a0: 7607 cabe ac87 81be ea10 2f3e 3346 723e
000003b0: 26d9 d1bd 6998 86bc 0818 3fbc 84f8 acbd
000003c0: 1856 cc3d 3b27 233d da37 dc3c e740 87bc
000003d0: 09d7 b03d 7e28 85bd 3c35 68be e5d2 ea3d
000003e0: 2f50 d3bd 8747 cfbc 91ba d13d 208b d93c
000003f0: a938 31be 92bf cdbc d310 eb3d 7b09 0ebe
-0.09619542 -0.09978377 -0.11565677 -0.07931706 0.05657595 -0.06160427 -0.0014671106 0.06858347
-0.038674872 0.11045976 -0.09433566 0.048721697 -0.226712 0.1484798 0.024363125 -0.009007094
-0.16265894 -0.004007995 -0.0068899295 -0.015525594 0.14760341 -0.0072961026 0.21957798 -0.10024975
0.0105883395 -0.11877132 0.09118288 -0.062943585 0.08844258 0.10412661 -0.15199561 -0.18423986
-0.25258297 0.055756122 -0.026996281 0.1319723 0.0935021 -0.035593104 0.03991364 -0.08092663
0.16360402 -0.0006414081 -0.12135152 0.18372655 -0.3602258 0.018468529 -0.115932174 -0.05802348
0.046006057 0.5342762 -0.13351552 -0.39464486 -0.18041652 0.0045337062 0.13236673 0.17308027
-0.06993455 -0.07993931 -0.35115686 -0.057143204 -0.2153131 0.06569282 0.13434932 0.017868284
-0.3233025 -0.5988262 0.09359075 -0.13410452 0.112916365 -0.11956958 -0.1300972 -0.33909333
0.02747417 0.21259136 -0.013938872 -0.16118433 -0.24865827 0.11821236 -0.09123459 0.2031824
0.11266954 -0.17000934 -0.07080773 -0.066338494 -0.31744295 -0.13029768 0.3746132 0.0076945983
-0.20685275 -0.14157781 -0.18317914 0.11858235 0.12709773 -0.14925846 0.063719265 -0.116549805
-0.016505327 -0.00946542 0.12183722 -0.13605301 -0.13037926 0.072449066 0.07215902 0.08690906
-0.11805005 -0.25808057 0.41649148 -0.055499777 0.020928947 0.117408685 -0.029917683 0.010985345
-0.14360182 -0.34571618 0.072779305 -0.025666319 -0.46560183 -0.048427083 0.018516885 -0.07295372
0.027086467 0.23971394 0.0006932637 -0.08060387 0.02871212 -0.037396546 -0.17550309 -0.06755382
0.39761022 -0.2182991 -0.02001793 -0.0055201063 -0.055665925 -0.0065822694 -0.0067418087 -0.08070377
-0.098331645 0.028690219 0.021373909 0.01326241 -0.130961 -0.31153053 0.1695941 0.02243389
0.01586495 0.009801111 0.024515644 -0.077517934 0.020166581 0.10941492 -0.016990928 -0.092764154
0.06927508 0.09561002 -0.2563973 -0.0734631 0.006230929 -0.0245518 0.07268818 -0.065311454
-0.051430482 -0.007716907 0.00039122874 -0.09568257 0.04436815 -0.004824126 -0.053431522 0.10668257
0.08340687 0.162311 -0.010395279 -0.007501802 0.0113474475 0.010362241 -0.021428846 0.043495305
0.0061231586 -0.0081309555 -0.028384928 0.14315337 -0.075039186 0.01376282 -0.032787573 -0.09173308
0.08476889 -0.008190116 -0.0034411247 0.007872453 0.02744655 0.009968121 -0.064750135 -0.05142279
-0.06734984 -0.092588075 0.03433557 -0.006118501 0.014464921 0.08413581 -0.12821846 -0.14755934
0.07971405 -0.045118004 0.20334065 0.16493173 0.011657986 -0.049589932 0.06896259 -0.1277983
0.20386061 -0.30213904 0.16344069 0.10382231 -0.228119 -0.099348105 -0.32715744 0.15696447
0.053598993 0.07892042 -0.19848117 -0.041040547 -0.03033649 0.16226022 0.26856002 0.104433246
0.20001774 -0.16834792 -0.08985724 -0.12326389 0.23274319 -0.0023458116 0.2191378 -0.14253332
-0.39458817 -0.25298822 0.17096296 0.23659591 -0.10246496 -0.016430097 -0.011663444 -0.08445838
0.099773586 0.039832335 0.0268821 -0.01651044 0.08634765 -0.06501864 -0.22676557 0.11466006
-0.10318028 -0.025302662 0.10240663 0.026555598 -0.1730677 -0.025115762 0.11477818 -0.13870804

linear1.bias f4 [32]
00000000: 77b5 0abc 71da 573a a351 093c a593 1fbb
00000010: 01fd 3cbc 40cd 893a a483 a1ba 4b8a cebb
00000020: eb4b 3bbc 1eec e438 5ed2 f3bb 989b a73b
00000030: 3e81 773b 352b 1bbb 3d5e cebb dc3a c33b
00000040: 2224 30bc d5e0 4d3c 12ef 13bc fe26 b53b
00000050: 174f c9bb e61f da39 38a0 ce3b e6ab 28bc
00000060: cbe1 19bc 7f7d 023c 6888 99bb 2d54 5d3b
00000070: 2ffc 66ba fa5b 3abc 3004 ee3b 5675 dcbb
-0.008466116 0.00082341494 0.00838128 -0.0024349478 -0.01153493 0.001051344 -0.0012322557 -0.006303107
-0.0114316745 0.000109158675 -0.007440849 0.005114984 0.0037766243 -0.0023676876 -0.006297855 0.0059579443
-0.010750802 0.012565811 -0.009029167 0.00552833 -0.0061434614 0.00041603966 0.0063057207 -0.01029489
-0.009392212 0.007964491 -0.0046854503 0.0033772097 -0.0008811382 -0.011374468 0.007263683 -0.0067278547

linear1_bn.weight f4 [32]
00000000: 6780 bb3d 2bce 093e de52 203d 62b6 6f3d
00000010: bdc4 1b3d 5cae 923d d859 093d 89f0 5b3d
00000020: 94b6 223e cbbc 1c3e 227c 183d fc44 4f3d
00000030: 4b6e 1d3e ca60 553d a320 a53d 03ac 153d
00000040: 1f4a 043d fbb4 c03d e2c8 f03c 87f1 ee3d
00000050: 9244 2d3d 17d6 fa3c 326c 253e c082 4a3e
00000060: 2f14 043e b540 a83d 3659 c33d d4db a03d
00000070: 50a6 123d 781c 313d 41b4 9a3d c5e0 b73d
0.0915535 0.13457553 0.03914153 0.058523543 0.03802942 0.07162163 0.033532947 0.05369619
0.1588996 0.15306394 0.037227757 0.050602898 0.15374105 0.05209426 0.080628656 0.036540996
0.03229725 0.09409519 0.029392663 0.116671614 0.042301722 0.030619664 0.16154554 0.1977644
0.12898324 0.08215467 0.095385 0.07854429 0.03580314 0.04324004 0.07553912 0.08978418

linear1_bn.bias f4 [32]
00000000: 7aff 41bd 7abe 7abd bf77 df3c 8a61 b93b
00000010: 8492 8e3c 10cc 26bd c0d3 ff3c 6e4c d0bb
00000020: 2d74 88bd 7799 6bbd 6697 ae3c 2107 5d3c
00000030: 9c4e 68bd ed8f 1f3d 3e12 02bd 3cf5 e83c
00000040: 65d9 113d d1b3 07bd fbbc 803c f4d7 07bd
00000050: a424 f03c 533e 433b ead5 72bd 97ac 35be
00000060: 7ec7 03be 0280 10bd ec34 27bd 1736 1abc
00000070: 1cbf 1e3d 4894 c73b ae24 d4bc 0b9a 8cbd
-0.047362782 -0.06121681 0.02727878 0.0056573795 0.017403848 -0.040721953 0.0312289 -0.0063567674
-0.06662784 -0.057519402 0.021312427 0.013490469 -0.056715593 0.038955618 -0.03175568 0.02843725
0.035607714 -0.03313047 0.015715113 -0.033164933 0.029314347 0.0029791787 -0.059286036 -0.17741619
-0.12869069 -0.035278328 -0.040821955 -0.00941231 0.038756475 0.0060906745 -0.025896396 -0.06865319

linear1_bn.running_mean f4 [32]
00000000: 2a3a 1940 8833 c5c0 3b0b 0dc1 c4a4 08c1
00000010: ea51 18c0 5332 4a41 94e8 bb40 3975 54c1
00000020: 4f5b 18c1 f625 b03f 068c 3fc1 411a da3e
00000030: eff2 62c1 266c 1541 6101 e0bf 2d39 81c0
00000040: cadd bebf d755 3c41 2fac 9240 f7a5 8d41
00000050: 8599 bd3f 58bf 77c0 64f7 4141 2163 16c1
00000060: 1b2c b640 7faa e53f e3a0 cbc0 ef95 05bf
00000070: d82f dd40 09e3 07c1 a07e 1f41 5b46 6940
2.394175 -6.1625404 -8.815242 -8.540226 -2.3799996 12.637286 5.872141 -13.278619
-9.522292 1.3761585 -11.971685 0.42598155 -14.18431 9.338903 -1.7500421 -4.0382295
-1.4911435 11.770957 4.5835185 17.706038 1.4812475 -3.8710537 12.122898 -9.399201
5.692884 1.7942656 -6.3633895 -0.52181906 6.9120903 -8.4929285 9.968414 3.6449192

linear1_bn.running_var f4 [32]
00000000: aed2 da42 ea85 2443 ae9f 9f42 37d0 ba42
00000010: 26b3 1642 33b6 c842 0289 0942 73e3 8742
00000020: 83fb 9e43 f5ab ad43 db37 8f42 82e3 d342
00000030: 2152 b243 03aa fd42 1f6c c642 d4ad 2e42
00000040: 81a6 2142 d925 1c43 1206 ff41 d91c 4a43
00000050: a666 9e42 0718 e341 7417 3443 a379 8f43
00000060: 3ca4 6c43 5d52 0143 4ab5 a143 dc71 0743
00000070: 7943 2042 85c7 7742 eae2 bf42 9d25 d942
109.41148 164.5231 79.811874 93.40667 37.67495 100.35586 34.383797 67.94424
317.96494 347.3434 71.60909 105.94435 356.64163 126.832054 99.211174 43.669754
40.4126 156.14784 31.877964 202.11269 79.200485 28.386732 180.09161 286.9503
236.64154 129.32173 323.41632 135.44476 40.06589 61.944843 95.94319 108.57346

linear2.weight f4 [39, 39]
00000000: 4dac 643d 7473 ab3d 0235 1b3e 6b0d 073d
00000010: c63a 47be 4d5a 1abd 5101 9fbd 88a9 fb3d
00000020: 110c c43d 0bd4 313e 5aba 7a3e a388 e03d
00000030: 9ebb 113e 9099 1fbe e5b4 d33d 953d ef3d
00000040: 21b1 073e 7880 11be 1c46 33be dab1 56be
00000050: ad47 a33d 6a4b 51bf 0d75 823d f00a a8be
00000060: 67d4 8cbe cd90 f73c 4b97 a8bc a9d2 11bc
00000070: 2fbd 573e 2989 b03e 933c 9ebe d81b 5d3d
00000080: ea24 1a3d c44c 273d f769 b6bb ff46 813d
00000090: 09b3 783e 49f8 78be a0c7 bfbe f82b 4f3d
000000a0: a7be 443c cd91 423d 7f74 0abd 4056 cd3d
000000b0: a934 efbd 3b8d 37be d4f9 b23c 8665 c5bd
000000c0: bcc7 b43c 4198 09be 7ba6 08be 1bf6 ed3c
000000d0: 0333 f03d b9fd 813b 3442 b53c f068 d5bb
000000e0: 2f00 d3bd 2704 32bd 41e4 3f3d 3f6c ad3c
000000f0: deda 60bd 3c73 93bd 651b 583e 3fa6 8d3d
00000100: c830 5cbc 63b6 213e e3ce 0abd acf0 553d
00000110: 01a5 1a3b fb8e aabc 6cf3 76bc 55b1 c8bc
00000120: d8ee 823d d813 48be 33fa c73b 03cc 033f
00000130: 1a8a 6dbe 6d3a 83be fd97 133e cc49 eb3d
00000140: 1f25 b1bc 7c87 4abd ca98 50b9 4d2a 13be
00000150: 5187 f3bc 9dc9 823d e2cd a3bc d8be 613e
00000160: 7b42 e53d b2aa a3bd cf4b a0bd 53ed 653e
00000170: 875d cdbd b18f 2cbe 8cd3 0e3e 69c7 53bb
00000180: a32d cdbd dc24 3bba 7496 39be 64de debd
00000190: d316 c3bd b48d dbbc 1e7e c9bd de76 9b3d
000001a0: 7c3c c939 fddc d33c c25c af3d 4463 8ebc
000001b0: 48ee b33c f9d0 27be 0a9f 673e deb4 cb3c
000001c0: e5dc 983d 9fc2 f33d d03e 49be 40e9 fc3d
000001d0: c86d 673d 87f3 45be 7b0c 573e 460f 6d3e
000001e0: 8a72 45bf 5aa9 973e f518 cd3e e4c6 6fbd
000001f0: 0fdf 8a3e 0920 9b3d 963e 32bf ef12 a33e
00000200: 8152 63bf 9055 55bf 302a 53bd f02c 4a3d
00000210: 4952 bcbe 5c08 f7bd 5418 fd3a 6f0f 0abd
00000220: 0c37 65be cb70 2d3c 80d5 923c aad6 29be
00000230: 5b25 c43e 7154 03be 9dae 4e3f d64e 32bf
00000240: 6639 a6be b86b 8abe 642b 4abe 71de aebe
00000250: a8f6 ed3d 538c ae3d 47dd 9fbd 8d7b 9dbd
00000260: 2c3c 683d e62a 7a3e 95e5 3fbd 80d9 dbbd
00000270: 2b9c cabd d6ec 583d 9412 6cbd f5d9 163e
00000280: 2363 793c bd65 593d 1fe6 e939 b2dd 4a3d
00000290: 99d1 cdbc 115b 0abc a5d4 8c3c ffc5 01be
000002a0: b62b b2bd 38d8 f13d 0080 5bbe aef3 ce3c
000002b0: 0fdb d33c fe24 46bd c1f8 173d f01d 69bd
000002c0: 4652 97bd 2092 683d 0383 2c3d 8851 09bc
000002d0: 21b2 ae3d bc58 0ebe 4da8 823d ce17 ac3d
000002e0: 0930 f83b 8cca 19bc 0fa7 6fbd 9ac0 c5bc
000002f0: d16f 0fbe 1982 263e 3b01 a53d 01ef db3e
00000300: a947 85bd e03d 15be d7be 58bd 6bac ea3c
00000310: b1a0 ecbb 60e0 2cbe 3f96 4ebb 9f30 97bd
00000320: 50a3 f93d 2dc1 c43d feaa 773d 8146 2bbd
00000330: abfd d13d 2a5b 74bc 9532 ba3b f2e1 8f3c
00000340: 7fc6 493b 467d ee3c 648d a3bd cbbf f6bd
00000350: 06be 2ebd 619d 533e f3ae 3e3e c69f a5bc
00000360: 9497 85ba 5e04 a43d 8fef 223e 24aa 76bd
00000370: 50cb 053d df23 063d 71fb 57bd da90 683c
00000380: 6896 64bc 67d5 27be 7878 553d e7b1 423c
00000390: 6534 ffbd c2c7 343e a66a f93d 4e74 7f3e
000003a0: cda2 e5bd 9a01 77be b467 77bb e821 23bd
000003b0: eeca 12be 66c1 3bbd f616 06bd 1bdf a9bc
000003c0: a7f3 5d3d fe6a 093d 1700 53bc f99f ee3c
000003d0: 2187 bc3d 2d61 e53c c97f 02bd 50f5 323e
000003e0: c223 503d 4471 27bd 53f0 a53c fb11 c9bc
000003f0: 8749 e43d 8559 453d 5180 92bb 47e3 14bd
0.05582838 0.0837163 0.1515694 0.03297178 -0.19456014 -0.037683774 -0.07763923 0.12288195
0.09572614 0.17366044 0.2448515 0.109635614 0.14231727 -0.15585923 0.10337237 0.11681668
0.13251163 -0.14209163 -0.17507213 -0.20966282 0.079726554 -0.817557 0.06369982 -0.32820845
-0.275058 0.030220414 -0.020579955 -0.008900323 0.21068262 0.34479645 -0.3090559 0.053981632
0.03763286 0.040844694 -0.005566831 0.063123696 0.24287046 -0.24313463 -0.3745699 0.05057904
0.012008346 0.047502328 -0.033802506 0.100262165 -0.11679966 -0.17924969 0.021847643 -0.09638505
0.022067897 -0.13436987 -0.13344757 0.029048016 0.1172848 0.0039670137 0.022126295 -0.0065127537
-0.103027694 -0.04346099 0.04684854 0.02116978 -0.054896228 -0.071997136 0.211042 0.069164746
-0.013439365 0.15792231 -0.03388871 0.052231476 0.0023596885 -0.020820132 -0.015072685 -0.024498621
0.06393212 -0.1953882 0.006102824 0.5148317 -0.23197213 -0.25630513 0.14413448 0.11488685
-0.021624146 -0.049445614 -0.00019893344 -0.14371605 -0.02972761 0.06386111 -0.019995634 0.22045457
0.11194321 -0.07991542 -0.07826959 0.22453813 -0.100276046 -0.16851689 0.13947886 -0.0032314903
-0.1001847 -0.00071389764 -0.181238 -0.108822614 -0.09525838 -0.026800968 -0.09838508 0.075910315
0.00038382772 0.025862211 0.08562614 -0.017381318 0.021964207 -0.1638831 0.22619262 0.024866518
0.07464007 0.119023554 -0.19652867 0.123491764 0.05650118 -0.1933118 0.21000855 0.23150358
-0.771279 0.29621392 0.40058103 -0.058539286 0.27123305 0.075744696 -0.6962675 0.31850383
-0.88797766 -0.83333683 -0.051553905 0.049359262 -0.3678153 -0.12062141 0.0019309619 -0.033706125
-0.2238428 0.010585974 0.01792407 -0.16585794 0.3830975 -0.1282518 0.8073519 -0.69651544
-0.32465667 -0.27035308 -0.19743115 -0.34154084 0.116193116 0.085228585 -0.07805877 -0.07689581
0.05669801 0.24430427 -0.046849806 -0.10734844 -0.09893068 0.05296024 -0.057634905 0.14731582
0.01522139 0.05307554 0.00044612677 0.04952783 -0.025124358 -0.0084445635 0.01719124 -0.12673186
-0.086997434 0.118088186 -0.21435547 0.02526268 0.025861291 -0.048375122 0.037102465 -0.056913316
-0.07388739 0.05677998 0.04211713 -0.008381255 0.08530069 -0.13901037 0.06379757 0.08402978
0.0075740856 -0.00938667 -0.05850893 -0.024139691 -0.14007498 0.16260566 0.08056875 0.42955783
-0.06507809 -0.14574385 -0.052916374 0.028646668 -0.0072213043 -0.16882467 -0.003152266 -0.073823206
0.121893525 0.09607158 0.060465805 -0.041815285 0.102534615 -0.014914313 0.0056822994 0.017563794
0.003078848 0.02911247 -0.079859525 -0.120483 -0.04266169 0.20665504 0.18621425 -0.020217787
-0.0010192269 0.080086455 0.15911697 -0.060220852 0.032664597 0.032749053 -0.052730028 0.014194692
-0.013951875 -0.1639 0.05211684 0.011883236 -0.12461165 0.17654327 0.12178545 0.2494671
-0.112126924 -0.24121705 -0.003775102 -0.039827257 -0.14335224 -0.045838736 -0.03273674 -0.020736268
0.054187443 0.0335493 -0.012878439 0.029129015 0.09205461 0.028000439 -0.031860147 0.17476392
0.05081535 -0.040879503 0.020256197 -0.024544707 0.11146837 0.048181076 -0.004470863 -0.03634956

linear2.bias f4 [39]
00000000: dd6e 9f3d 6d07 193e da12 3a3e dae3 2f3c
00000010: 6cba 41bd b1b5 49bd 9c03 c33b 4d24 1b3d
00000020: d332 9c3c a9cb 903d be0a 24be ac5d 4a3e
00000030: e5f5 353d 09f1 ca3c 98e7 253e 94da c73d
00000040: 1c88 3f3d 1467 fe3d 2467 0f3e e613 ae3c
00000050: e91b 843c e5ea cfbd 3cd8 56bd 4364 a9bd
00000060: db71 1b3d 40d1 91bd 7df5 533d 6134 10bd
00000070: 6e9f d13d 6d7f d43d fc49 0b3e 7de8 823d
00000080: 4961 93bd 3a14 f4bd e99f 093e 65dc 1b3e
00000090: f05f 10bd 417f 983d ed3f b9bd
0.07784817 0.14944239 0.18171254 0.010735476 -0.047296926 -0.04924554 0.005951358 0.037876416
0.019067204 0.07070095 -0.16019723 0.19762295 0.044423956 0.024773138 0.16201627 0.09758487
0.046760663 0.12422004 0.14004189 0.021249723 0.01612659 -0.101522245 -0.05245231 -0.082710765
0.037950378 -0.071199894 0.051747788 -0.035206202 0.10235487 0.10375867 0.13602442 0.06392
-0.0719629 -0.119179204 0.13439907 0.15220793 -0.035247743 0.07446147 -0.09045396
