saved_models/gear_unconstrained_6.pt (torch_old, 954435 bytes, 28 tensors)

conv1.weight f4 [32, 3, 4, 4]
-0.15477376 -0.20993103 0.03598304 0.2851209 0.34020746 0.2062058 -0.23319246 0.089197345
-0.057938 -0.4551091 -0.3015409 0.09076622 0.037874226 -0.22668768 -0.05065439 -0.35072938
-0.01933138 -0.11212204 0.13410261 -0.05183064 0.3531503 0.35939503 0.24612482 -0.14866538
0.076274455 -0.27102914 -0.007935354 0.3049899 0.040709585 -0.13669118 0.20752522 0.063297674
-0.37546602 -0.00081268064 -0.18046993 -0.054910265 0.010382077 0.302544 0.21461327 -0.25200444
-0.01331891 -0.33568576 -0.010645198 0.19260442 0.17009546 0.008874814 0.39012045 -0.13857026
0.18599334 0.15964882 0.056323558 -0.12794259 0.37217376 0.044270597 0.19169447 0.009504587
0.105845965 0.36933494 0.3923256 -0.23365028 0.15559144 0.29542938 0.04644952 0.09869986
-0.07992311 0.009018588 -0.16707459 -0.117598474 0.096421435 -0.3917635 0.24029504 -0.086707376
-0.2753738 0.13433175 0.3794402 -0.06040155 -0.08344417 0.13601126 0.15809646 0.055165667
0.15503065 0.17083263 0.2295144 0.11750125 0.053041883 -0.1316422 0.34899205 0.15548211
0.13057537 0.1704757 0.100149006 -0.01736997 0.056792445 -0.039938882 0.012834896 0.1519156
0.23216252 -0.1494581 0.22938767 0.1997652 0.042984 -0.18521866 0.056939494 0.057068717
0.047226228 0.087844744 0.08917907 0.049935974 0.048906375 -0.110426344 -0.3823421 -0.023732932
0.21287039 -0.055970296 0.117963396 0.16243309 -0.1750188 -0.017080797 -0.12026154 0.20429441
-0.16302133 0.22407758 -0.10221668 -0.057534277 0.11290653 -0.31645295 -0.409998 0.0594103
0.08875452 0.21065454 0.36760852 0.38332498 -0.124274485 0.35083616 -0.0013723476 0.1728867
-0.053329006 0.12103793 -0.115145795 0.022730162 0.05300039 -0.36696243 -0.3856055 -0.17534204
0.108824216 0.29296538 0.13914898 -0.073447384 0.020374417 -0.064524755 0.25499433 -0.14428833
-0.07553297 -0.14955226 -0.15009037 0.116389915 0.13606273 -0.06757514 -0.0016079097 0.2914853
-0.16958423 -0.025297496 -0.24577571 -0.37990296 -0.1893694 -0.16040526 0.15581606 -0.31321126
-0.052499205 -0.010261268 0.085082 0.17291228 0.12844585 0.20520434 -0.04684581 0.22284941
-0.18715341 -0.29079536 -0.098551214 -0.203022 -0.26541263 -0.046535905 -0.16070807 -0.30336908
-0.07427584 -0.40354317 -0.1745981 0.37810713 -0.2894378 -0.3173773 0.017585967 0.36790767
0.2629988 0.08125222 -0.13833526 0.006892394 0.15111402 0.08025723 -0.27663267 0.31393608
0.30118573 -0.097986154 0.3589247 0.027379068 -0.05681595 -0.018435564 -0.05367282 -0.24936302
0.3264439 -0.12930563 0.23474196 -0.16365862 -0.092292346 -0.16926001 -0.07313329 0.32720664
0.09107131 0.059782166 0.34165978 0.078336485 -0.20680758 0.11436611 -0.054562133 0.040350746
-0.00764661 0.026792035 -0.075158976 -0.3241341 -0.10100732 0.10836172 -0.18829893 0.22341341
0.03209054 0.032103423 0.26628116 -0.0040661828 0.04458118 0.18980864 -0.053269867 -0.046877787
0.0070826104 -0.12752311 0.054067194 -0.0539651 0.1365022 0.16194797 -0.0021240653 0.16545697
-0.19262041 -0.22652097 0.37412485 -0.030692292 0.10615824 0.014555426 0.33801195 0.14373103
00000000: 037d 1ebe 29f8 56be f462 133d 5efb 913e
00000010: ac2f ae3e 9d27 533e 01ca 6ebe 19ad b63d
00000020: 6550 6dbd 0f04 e9be 9263 9abe a4e3 b93d
00000030: 0122 1b3d d120 68be fa7a 4fbd cd92 b3be
00000040: d85c 9ebc 3da0 e5bd 3252 093e 5d4c 54bd
00000050: 1ed0 b43e a002 b83e 2508 7c3e bd3b 18be
00000060: c835 9c3d 55c4 8abe 4903 02bc a327 9c3e
00000070: 18bf 263d c6f8 0bbe 7e81 543e 36a2 813d
00000080: 153d c0be 130a 55ba 1ccd 38be 96e9 60bd
00000090: 9619 2a3c 0ce7 9a3e 95c3 5b3e ba06 81be
000000a0: 8f37 5abc 01df abbe 3269 2ebc 183a 453e
000000b0: 812d 2e3e ab67 113c debd c73e 5de5 0dbe
000000c0: 0a75 3e3e fb7a 233e 88b3 663d 6203 03be
000000d0: 8f8d be3e 1655 353d 8e4b 443e 21b9 1b3c
000000e0: c5c5 d83d 7819 bd3e e7de c83e 0542 6fbe
000000f0: 5d53 1f3e 8542 973e da41 3e3d 2723 ca3d
00000100: baae a3bd b3c2 133c 9a15 2bbe 78d7 f0bd
00000110: 9a78 c53d 3a95 c8be e70f 763e a393 b1bd
00000120: cbfd 8cbe 438e 093e fc45 c23e 9e67 77bd
00000130: c7e4 aabd 8946 0b3e 0ae4 213e 65f5 613d
00000140: 5bc0 1e3e c0ee 2e3e d305 6b3e 7fa4 f03d
00000150: 7242 593d 36cd 06be 16af b23e b436 1f3e
00000160: 8db5 053e 2f91 2e3e ec1a cd3d 784b 8ebc
00000170: 329f 683d f496 23bd 7549 523c c38f 1b3e
00000180: 03bc 6d3e 8b0b 19be 9ae4 6a3e 408f 4c3e
00000190: fe0f 303d f6a9 3dbe 6339 693d e3c0 693d
000001a0: 4a70 413d f2e7 b33d 84a3 b63d aa89 4c3d
000001b0: 0d52 483d 3527 e2bd 58c2 c3be 916b c2bc
000001c0: b2fa 593e 1c41 65bd cb96 f13d dc54 263e
000001d0: 2138 33be 07ed 8bbc af4b f6bd 8e32 513e
000001e0: 10ef 26be 9874 653e fb56 d1bd 10a9 6bbd
000001f0: 8a3b e73d 1f06 a2be 42eb d1be 3758 733d
00000200: eec4 b53d d3b5 573e 2f37 bc3e 2c43 c43e
00000210: 9f83 febd cca0 b33e 58e0 b3ba 3609 313e
00000220: 846f 5abd bce2 f73d 8fd1 ebbd 9b34 ba3c
00000230: f016 593d 80e2 bbbe 166e c5be dd8c 33be
00000240: 3bdf de3d 8fff 953e 127d 0e3e 956b 96bd
00000250: 40e8 a63c 8e25 84bd 9e8e 823e 52c0 13be
00000260: 08b1 9abd 3a24 19be 4ab1 19be d65d ee3d
00000270: 0754 0b3e d664 8abd 7fc0 d2ba 903d 953e
00000280: 7da7 2dbe b23c cfbc a1ac 7bbe a482 c2be
00000290: 0dea 41be 4741 24be 3f8e 1f3e 3a5d a0be
000002a0: 6809 57bd e11e 28bc 793f ae3d eb0f 313e
000002b0: 4f87 033e 1621 523e 64e1 3fbd a332 643e
000002c0: 25a5 3fbe 21e3 94be 38d5 c9bd 00e5 4fbe
000002d0: 2ae4 87be 6f9c 3ebd a890 24be 3153 9bbe
000002e0: ee1d 98bd 369d cebe d8c9 32be 4297 c13e
000002f0: 3131 94be 477f a2be 7210 903c 655e bc3e
00000300: c7a7 863e 9067 a63d c2a7 0dbe 97d9 e13b
00000310: a2bd 1a3e e75d a43d cca2 8dbe 3bbc a03e
00000320: 0435 9a3e f7ac c8bd fac4 b73e 114a e03c
00000330: d7b7 68bd 2e06 97bc 08d8 5bbd 0559 7fbe
00000340: a823 a73e b268 04be 3260 703e 2096 27be
00000350: c503 bdbd 7f52 2dbe e8c6 95bd a187 a73e
00000360: 9883 ba3d 25de 743d 08ee ae3e e16e a03d
00000370: 5ec5 53be c738 ea3d 8b7c 5fbd d346 253d
00000380: 6a90 fabb f87a db3c f3ec 99bd e8f4 a5be
00000390: eddc cebd c0ec dd3d 6fd1 40be 7cc6 643e
000003a0: 5f71 033d e17e 033d 0156 883e 9d3d 85bb
000003b0: c19a 363d 325d 423e 8131 5abd ec02 40bd
000003c0: 3e15 e83b 6b95 02be 9075 5d3d 820a 5dbd
000003d0: 3cc7 0b3e b0d5 253e e733 0bbb 8d6d 293e
000003e0: 493e 45be 1df5 67be 4b8d bf3e 676e fbbc
000003f0: 7e69 d93d e279 6e3c e70f ad3e 3a2e 133e

conv1.bias f4 [32]
0.13797568 0.13360582 -0.022275953 -0.018051408 0.09819366 -0.12161446 -0.10610313 0.061012965
0.002104304 -0.0013334298 -0.06007766 -0.10834469 0.0928244 -0.101065435 0.07240343 -0.019794522
0.12990847 0.018771999 -0.11836577 -0.0510837 -0.09753995 0.023865942 0.07664164 0.03490933
-0.01565558 0.046090446 0.087077096 -0.1011183 0.03479953 0.078569464 -0.13832285 0.010852098
00000000: 7f49 0d3e f7cf 083e 0f7c b6bc 8ce0 93bc
00000010: c219 c93d 0111 f9bd 994c d9bd bbe8 793d
00000020: 5de8 093b 7bc6 aeba fe13 76bd d2e3 ddbd
00000030: b81a be3d 65fb cebd 4048 943d 1f28 a2bc
00000040: ba06 053e bcc7 993c c169 f2bd 243d 51bd
00000050: 06c3 c7bd 8282 c33c 4bf6 9c3d 16fd 0e3d
00000060: 2240 80bc 56c9 3c3d 7a55 b23d 1c17 cfbd
00000070: f489 0e3d 07e9 a03d 81a4 0dbe 00cd 313c

conv1_bn.weight f4 [32]
0.29329515 0.6820243 0.4619354 0.70559007 0.24031386 0.23498227 0.97683734 0.40056577
0.55599236 0.50723594 0.56237996 0.66466624 0.42325437 0.6034878 0.41554266 0.5278116
0.6684441 0.91290444 0.8346957 0.39397815 0.40103862 0.4102726 0.6226372 0.6522878
0.4518667 0.61550164 0.9408871 0.73658437 0.7933217 0.5405118 0.4535702 0.43395904
00000000: c82a 963e 2599 2e3f cc82 ec3e 8da1 343f
00000010: d614 763e 319f 703e 0312 7a3f f516 cd3e
00000020: 8455 0e3f 37da 013f 22f8 0f3f 9127 2a3f
00000030: ccb4 d83e 2d7e 1a3f 02c2 d43e a91e 073f
00000040: 271f 2b3f 1bb4 693f 9eae 553f 81b7 c93e
00000050: ef54 cd3e 400f d23e 2765 1f3f 55fc 263f
00000060: 125b e73e 8491 1d3f fadd 703f cb90 3c3f
00000070: 2217 4b3f fb5e 0a3f 5a3a e83e e12f de3e

conv1_bn.bias f4 [32]
0.4368862 -0.11416901 -0.19533566 -0.15672374 -0.06882795 0.0073771505 -0.005855574 -0.13054627
-0.10443654 -0.12865044 -0.13957043 -0.31153467 -0.08171506 -0.12015543 -0.15527317 0.09182575
-0.12862417 -0.09725569 -0.07023597 -0.30018467 -0.0046388516 -0.026709849 -0.12060772 -0.1868956
-0.07371852 -0.09610607 -0.07720851 -0.10873176 -0.020724839 -0.04328091 -0.19025211 -0.15466543
00000000: 8caf df3e 71d1 e9bd 1206 48be 307c 20be
00000010: abf5 8cbd 06bc f13b 1de0 bfbb ecad 05be
00000020: d3e2 d5bd f1bc 03be 8deb 0ebe 7981 9fbe
00000030: 3a5a a7bd 0d14 f6bd eeff 1ebe 240f bc3d
00000040: 0eb6 03be fe2d c7bd e0d7 8fbd ceb1 99be
00000050: 8201 98bb 9dce dabc 2e01 f7bd 8f61 3fbe
00000060: bcf9 96bd 42d3 c4bd 7f1f 9ebd c2ae debd
00000070: 23c7 a9bc 5347 31bd 73d1 42be 9d60 1ebe

conv1_bn.running_mean f4 [32]
0.14429428 2.3267643 0.28415334 -1.2199433 1.0174193 1.1134468 -1.2500119 0.5488309
0.34696865 0.38638136 0.41866133 0.5016345 0.41589904 -0.3561431 -0.209235 -1.4014955
-0.5213295 -0.5367437 0.78804475 0.29968223 -0.040707547 0.9392894 1.263444 0.11580506
0.5321173 1.491045 -0.545036 -0.33784178 -1.6457514 -1.0133753 -0.26679513 -0.16875818
00000000: e1c1 133e b5e9 1440 8c7c 913e 1a27 9cbf
00000010: cc3a 823f 6d85 8e3f 6400 a0bf 2f80 0c3f
00000020: e0a5 b13e c7d3 c53e c75a d63e 1e6b 003f
00000030: b8f0 d43e 6358 b6be b341 56be 3464 b3bf
00000040: da75 05bf 0968 09bf 4dbd 493f f36f 993e
00000050: f5bc 26bd 4575 703f 88b8 a13f 342b ed3d
00000060: d738 083f 90da be3f 7b87 0bbf 99f9 acbe
00000070: fba7 d2bf 48b6 81bf 5f99 88be f2ce 2cbe

conv1_bn.running_var f4 [32]
0.016584076 0.25920758 0.050572578 0.104703315 0.053615473 0.083485104 0.08925844 0.029855203
0.028218906 0.023649892 0.04336145 0.0396215 0.029024122 0.02369016 0.052436035 0.10226962
0.03384376 0.040422667 0.09913881 0.02348055 0.021504927 0.06269607 0.09963658 0.022791924
0.04567737 0.11867267 0.030353436 0.026175627 0.16343759 0.08531106 0.016681002 0.031543124
00000000: 54db 873c dbb6 843e 3125 4f3d b16e d63d
00000010: e69b 5b3d 3dfa aa3d 21cd b63d e692 f43c
00000020: 562b e73c 6bbd c13c c79b 313d 274a 223d
00000030: ffc3 ed3c de11 c23c 2bc7 563d bc72 d13d
00000040: c19f 0a3d 3d92 253d 4a09 cb3d 485a c03c
00000050: 1a2b b03c cc66 803d 430e cc3d 21b6 ba3c
00000060: 3218 3b3d a80a f33d c5a7 f83c 456e d63c
00000070: 2f5c 273e 91b7 ae3d 99a6 883c 5d33 013d

conv2.weight f4 [32, 32, 4, 4]
-0.0073729847 0.1032241 -0.34151003 0.10855907 -0.16272599 0.2720531 -0.25791278 -0.16022877
-0.30284297 0.36556605 0.12874894 0.16711943 -0.05762188 -0.13244702 0.29398248 0.20991744
0.18295917 -0.03396594 0.1432936 0.1185802 0.043024138 0.044528466 0.06348804 0.14950106
0.18452959 0.15489264 0.112470426 0.14744319 -0.05879626 0.16037959 -0.033549294 0.16554488
0.25486556 0.29867712 0.0064429757 0.080021955 -0.10296064 0.061961915 0.06449798 0.2724704
-0.06963762 0.06580276 0.12309403 0.16834217 -0.27359462 -0.0638176 -0.005330349 0.007217621
-0.0029607518 -0.0947091 0.05535386 0.34334967 -0.1563716 -0.08541618 0.22081265 -0.17512341
-0.13436398 0.09100553 -0.020237628 -0.61650294 -0.11263132 -0.16653109 -0.120132476 0.19857487
0.031304635 -0.022475524 0.29729822 0.040269684 -0.04977661 0.049943358 0.05386562 0.025239004
0.05663386 -0.108990036 -0.105275996 0.1691235 -0.031094512 -0.013238812 -0.032501362 0.04849737
0.06687139 0.00037543828 -0.022704445 0.0907234 0.16166133 -0.009263244 -0.0104163075 0.10825656
0.0424693 0.08765122 0.10488093 0.19282883 -0.00626334 0.03204442 0.0435246 0.22869697
0.12510803 -0.30583364 0.04006651 -0.027978826 -0.023828244 0.13766244 0.060871437 -0.17192541
-0.09344382 -0.076080166 -0.12798834 0.41151723 0.07122564 -0.10948763 0.048493966 -0.12200701
-0.13976248 -0.03428499 0.18366079 0.05334438 -0.22334658 -0.24644995 0.06749109 -0.013588485
0.027434558 0.14093967 -0.0015767692 0.037826914 0.007046593 -0.08050869 0.05533605 -0.21863687
-0.2196521 -0.07283819 0.2258554 0.091532156 0.021020677 -0.28520855 -0.052829362 -0.13423766
-0.056883726 -0.051455736 0.060478352 0.19263057 -0.21748689 0.085996225 0.1059195 0.26708564
-0.04863972 -0.18125254 0.17302002 0.052615784 0.11013231 0.17962986 -0.20467463 -0.23217273
0.014202092 -0.2137658 0.14378488 -0.040888164 -0.199519 -0.21257755 0.06621832 -0.14292046
0.29500264 -0.04901611 -0.13975005 -0.17347875 0.031376705 0.1571269 -0.043172035 -0.23969604
-0.007335456 -0.020849766 -0.041648917 0.055518445 0.14338416 0.057276282 -0.012858721 0.20217672
-0.05241808 0.20402569 -0.22468033 0.045552723 0.05062595 -0.0034838442 0.04043783 -0.09570308
0.133294 -0.0782709 0.21358529 0.21822576 -0.009470205 -0.09866671 -0.31575844 -0.15658431
0.044048686 -0.0089863315 -0.14591467 0.242368 0.03737534 0.26840967 0.057286277 0.081015594
-0.22904561 0.14313333 0.07026114 -0.26507157 0.14343019 0.106627055 -0.36961803 0.17424947
0.27214432 -0.09622577 0.021620423 0.045424297 0.13981135 -0.066410355 -0.09264159 0.08365591
-0.022881279 -0.040315688 -0.0020204736 -0.029098775 0.03833424 0.1903351 0.037811913 -0.12796308
-0.19463125 0.15987833 0.16127247 0.06277043 0.20945139 -0.143614 0.14948471 -0.07924757
-0.026753139 -0.08534654 0.26232302 -0.04161675 -0.14710294 -0.10527847 0.028103292 0.21205492
0.111587204 0.11752711 -0.14512567 0.03935196 -0.06345552 -0.061750643 0.22589862 0.049564604
-0.13173379 0.06507659 -0.12058579 -0.13397361 -0.12418999 -0.0224888 -0.12465519 -0.013886811
00000000: 1499 f1bb 2867 d33d 67da aebe 3854 de3d
00000010: a4a1 26be 8b4a 8b3e 250d 84be 0313 24be
00000020: 3c0e 9bbe 792b bb3e c3d6 033e 5b21 2b3e
00000030: ec04 6cbd 31a0 07be df84 963e 99f4 563e
00000040: a659 3b3e df1f 0bbd 8fbb 123e 2dda f23d
00000050: 143a 303d 7b63 363d 0406 823d ce16 193e
00000060: 53f5 3c3e 2d9c 1e3e e556 e63d 59fb 163e
00000070: 59d4 70bd 8c3a 243e fc6a 09bd 9984 293e
00000080: bd7d 823e 35ec 983e 991f d33b 8de2 a33d
00000090: 07dd d2bd c7cb 7d3d 8417 843d 3e81 8b3e
000000a0: 2b9e 8ebd 99c3 863d b918 fc3d e461 2c3e
000000b0: 9814 8cbe cdb2 82bd 35aa aebb cb81 ec3b
000000c0: 2c09 42bb d8f6 c1bd bbba 623d 87cb af3e
000000d0: e01f 20be aeee aebd b61c 623e 8d53 33be
000000e0: b696 09be 1b61 ba3d 62c9 a5bc 23d3 1dbf
000000f0: 40ab e6bd 2087 2abe 0408 f6bd 3657 4b3e
00000100: 4a39 003d 971e b8bc 7937 983e d3f1 243d
00000110: 8fe2 4bbd 6891 4c3d 32a2 5c3d 07c2 ce3c
00000120: e8f8 673d 2b36 dfbd f19a d7bd b62e 2d3e
00000130: ebb9 febc 9ae7 58bc 2620 05bd 2ea5 463d
00000140: def3 883d 79d6 c439 acfe b9bc 31cd b93d
00000150: 8c8a 253e ddc4 17bc 29a9 2abc 9eb5 dd3d
00000160: 4af4 2d3d 7c82 b33d d0cb d63d ec74 453e
00000170: b43c cdbb 0241 033d da46 323d 8a2f 6a3e
00000180: 521c 003e 3a96 9cbe c81c 243d da33 e5bc
00000190: 7333 c3bc 62f7 0c3e 5454 793d 370d 30be
000001a0: 795f bfbd ebcf 9bbd 600f 03be 63b2 d23e
000001b0: c0de 913d 0d3b e0bd 9ca1 463d d0de f9bd
000001c0: e51d 0fbe 6b6e 0cbd 9311 3c3e a37f 5a3d
000001d0: f7b4 64be 605d 7cbe c538 8a3d 3da2 5ebc
000001e0: 70be e03c 7d52 103e 98ab ceba 65f0 1a3d
000001f0: 1be7 e63b bde1 a4bd 0ea8 623d 58e2 5fbe
00000200: 7bec 60be 302c 95bd a346 673e 3675 bb3d
00000210: 8e33 ac3c db06 92be 9a63 58bd 9975 09be
00000220: e9fe 68bd 40c3 52bd 26b8 773d f340 453e
00000230: e2b4 5ebe ca1e b03d 53ec d83d 73bf 883e
00000240: 713a 47bd 449a 39be 292c 313e a683 573d
00000250: 0c8d e13d e4f0 373e 3a96 51be b0be 6dbe
00000260: e4af 683c 6ce5 5abe 583c 133e 597a 27bd
00000270: b54e 4cbe eead 59be 789d 873d be59 12be
00000280: 960a 973e 1ec5 48bd a31a 0fbe 6aa4 31be
00000290: dc84 003d e0e5 203e 29d5 30bd e172 75be
000002a0: 445e f0bb 21cd aabc 0e98 2abd 4f67 633d
000002b0: 4cd3 123e 899a 6a3d 63ad 52bc 6a07 4f3e
000002c0: 57b4 56bd 1cec 503e 9a12 66be 7e95 3a3d
000002d0: 285d 4f3d 3551 64bb 23a2 253d faff c3bd
000002e0: 397e 083e 7e4c a0bd 1ab6 5a3e 9376 5f3e
000002f0: eb28 1bbc c611 cabd 17ab a1be a357 20be
00000300: 656c 343d 683b 13bc a86a 15be 512f 783e
00000310: e216 193d fe6c 893e 04a5 6a3d 81eb a53d
00000320: ef8a 6abe 8b91 123e 13e5 8f3d 76b7 87be
00000330: 5ddf 123e 495f da3d 933e bdbe 746e 323e
00000340: 8056 8b3e 0412 c5bd 501d b13c d40e 3a3d
00000350: b52a 0f3e 2702 88bd e0ba bdbd ca53 ab3d
00000360: 8571 bbbc 1022 25bd ec69 04bb 8e60 eebc
00000370: 5d04 1d3d 34e7 423e aae0 1a3d c108 03be
00000380: 6a4d 47be 25b7 233e 9c24 253e c98d 803d
00000390: 6d7a 563e 8c0f 13be 8512 193e 8d4c a2bd
000003a0: 6629 dbbc 2bca aebd 344f 863e 5376 2abd
000003b0: 27a2 16be 3d9c d7bd e038 e63c ed24 593e
000003c0: d587 e43d 0eb2 f03d d39b 14be 852f 213d
000003d0: f8f4 81bd 3eee 7cbd f851 673e 4104 4b3d
000003e0: 39e5 06be e046 853d aff5 f6bd 6130 09be
000003f0: 5257 febd 6f3a b8bc 384b ffbd 8285 63bc

conv2.bias f4 [32]
-0.02589267 -0.0020164098 0.001694397 0.019669304 0.014747405 0.01855446 -0.035608605 0.03349471
0.03553431 -0.0087580215 -0.0044479305 -0.0059480467 0.006273067 0.029722985 -0.01777599 -0.04308324
0.0049814563 -0.01955767 0.028353738 -0.0025367138 -0.033812333 -0.015102914 -0.03696279 0.043643508
0.011323343 0.028392712 -0.02114978 0.01936353 0.02152242 -0.007854994 0.011700745 0.013116609
00000000: dd1c d4bc be25 04bb 8716 de3a 8521 a13c
00000010: 1a9f 713c 86ff 973c 54da 11bd c031 093d
00000020: 6d8c 113d ce7d 0fbc f2bf 91bb d5e7 c2bb
00000030: 4d8e cd3b 9e7d f33c f49e 91bc 0d78 30bd
00000040: 7c3b a33b 6837 a0bc 1946 e83c ff3e 26bb
00000050: cd7e 0abd 3672 77bc 4b66 17bd 89c3 323d
00000060: 8b85 393c d597 e83c 4e42 adbc 44a0 9e3c
00000070: c94f b03c 3cb2 00bc 7bb4 3f3c 0ce7 563c

conv2_bn.weight f4 [32]
0.2478348 0.31246495 0.47534272 0.73501116 0.28422037 0.32289606 1.1435126 0.527133
0.39046586 0.25270283 0.4398656 0.59713066 0.26827332 -0.010832086 0.33958536 0.42835867
0.5725409 0.4653429 0.58923954 0.56861365 0.75008583 0.3321907 0.6992045 0.2582387
0.49530226 0.73910666 0.4625724 0.28347838 0.8068067 0.83098054 0.41845945 0.29805636
00000000: 68c8 7d3e 68fb 9f3e 1f60 f33e b129 3c3f
00000010: 5585 913e a252 a53e 9f5e 923f 30f2 063f
00000020: 24eb c73e 4462 813e 1036 e13e 8edd 183f
00000030: 1f5b 893e 1079 31bc 22de ad3e d451 db3e
00000040: 0a92 123f 6d41 ee3e 67d8 163f aa90 113f
00000050: a005 403f e614 aa3e 11ff 323f dd37 843e
00000060: 4298 fd3e 1836 3d3f 4ad6 ec3e 1424 913e
00000070: e28a 4e3f 24bb 543f 5140 d63e d89a 983e

conv2_bn.bias f4 [32]
-0.11502498 -0.257629 -0.08218503 -0.08292461 -0.17493416 -0.23484132 -0.04898741 -0.21991383
-0.067394994 -0.14266479 0.029756855 0.03706677 -0.12953684 -0.060942855 0.05950803 0.049325835
-0.327291 -0.0799065 0.011995067 -0.0017749612 0.006879814 -0.19699174 0.07650032 0.066013
-0.19207129 0.011236408 -0.008607901 -0.23356321 0.028577529 -0.025812274 0.05612095 0.010462875
00000000: 3792 ebbd f3e7 83be a050 a8bd 61d4 a9bd
00000010: f121 33be 3e7a 70be 06a7 48bd 1731 61be
00000020: 6306 8abd b816 12be a6c4 f33c 53d3 173d
00000030: 4ea5 04be 379f 79bd b1be 733d e309 4a3d
00000040: b092 a7be 05a6 a3bd f586 443c d1a5 e8ba
00000050: 1070 e13b 34b8 49be 33ac 9c3d d331 873d
00000060: 56ae 44be e918 383c 2708 0dbc 322b 6fbe
00000070: 6c1b ea3c 4374 d3bc 15df 653d 7a6c 2b3c

conv2_bn.running_mean f4 [32]
0.4675643 -0.29024518 -1.5175657 -0.7028174 0.854131 -0.43938196 -0.118089415 1.1356199
1.4513981 -0.060169034 -0.8699801 -1.3436807 -0.4829632 -0.11936231 -1.581311 -1.5930496
1.5757622 -0.24721757 -1.6607491 -0.35277855 -1.4595468 -0.6390248 -2.3645139 1.2543142
-0.20635977 -1.0868925 -0.31484368 -0.1214139 -0.95597386 -0.94927865 -0.4873379 -1.1282461
00000000: 9764 ef3e 049b 94be 983f c2bf d7eb 33bf
00000010: 54a8 5a3f acf6 e0be ddd8 f1bd fe5b 913f
00000020: 6ac7 b93f ce73 76bd 04b7 5ebf bbfd abbf
00000030: f446 f7be 3a74 f4bd 6668 cabf 0de9 cbbf
00000040: 93b2 c93f 9a26 7dbe 6d93 d4bf 649f b4be
00000050: 6ed2 babf 2197 23bf 3254 17c0 5e8d a03f
00000060: fa4f 53be 4b1f 8bbf 3133 a1be daa7 f8bd
00000070: b4ba 74bf ed03 73bf 5a84 f9be 5e6a 90bf

conv2_bn.running_var f4 [32]
3.3546295 3.6462395 5.8890777 10.128412 2.7666917 3.2065184 14.592019 7.1072483
4.1055465 3.422763 5.820989 12.046467 2.3867285 0.24886909 3.040791 8.058401
8.394904 3.537875 7.1896243 6.1296697 12.968313 2.2564442 16.031681 2.050892
4.9051766 8.29328 4.7748294 1.622698 14.053141 9.833482 4.1034303 2.0634549
00000000: 40b2 5640 fd5b 6940 5373 bc40 fa0d 2241
00000010: 7a11 3140 9937 4d40 e978 6941 946e e340
00000020: a360 8340 8d0e 5b40 8b45 ba40 54be 4041
00000030: 29c0 1840 8ad7 7e3e 529c 4240 36ef 0041
00000040: 8751 0641 8b6c 6240 6711 e640 4126 c440
00000050: 367e 4f41 9569 1040 e240 8041 d141 0340
00000060: 35f7 9c40 46b1 0441 67cb 9840 91b4 cf3f
00000070: aad9 6041 f155 1d41 4d4f 8340 a50f 0440

conv3.weight f4 [32, 32, 4, 4]
-0.02677159 0.27194372 -0.10084887 -0.21039936 -0.2839108 -0.070301935 0.121370174 -0.015647324
-0.32110766 0.03529871 -0.08516813 -0.3135616 -0.040484928 -0.012436755 0.04012806 0.056034144
-0.06977063 0.27778623 0.12154446 -0.1565161 -0.20240287 -0.25302526 0.093193494 -0.08922524
-0.31547278 0.012037573 -0.046341617 -0.15889268 -0.036808245 0.42149672 -0.018832382 -0.08866462
-0.18591617 0.1949503 -0.2816789 -0.03598632 -0.005404033 -0.36493355 0.03644499 0.28903398
-0.36855194 0.18052612 -0.071441434 -0.110853516 0.15389855 -0.09963981 -0.2695074 -0.1327213
0.07805902 -0.25006598 -0.08647815 -0.21162419 0.17389719 -0.22916444 -0.21773164 -0.10343468
0.51237464 0.16922316 -0.031947307 0.039405543 0.27494892 -0.40141588 -0.2073114 -0.21417338
0.27834344 -0.23786516 -0.26839462 -0.023646912 -0.3636047 0.2712843 -0.26061308 -0.10374525
-0.48913088 -0.05299055 0.11391131 0.21549168 0.1075523 0.10783687 0.09671045 -0.11070612
-0.016536076 0.014669138 0.19143055 0.0890244 -0.04603882 -0.16690865 -0.023869477 -0.19965594
-0.4048559 -0.16630526 0.0022718129 -0.09625769 -0.103610866 -0.20898591 0.04498246 -0.06443336
0.09616326 -0.2152901 -0.04062067 -0.08695803 0.09585891 -0.03598804 0.007742926 0.046513077
-0.13017903 -0.08810759 -0.21829723 -0.030095778 -0.04608294 0.013327961 0.2234179 -0.12972699
-0.09078458 0.08224655 -0.04383855 -0.0071015316 -0.108378634 0.025173157 -0.27599135 -0.00059553015
-0.12515654 0.145069 -0.046455406 -0.26325378 0.14454679 -0.04645915 -0.092390746 -0.062545456
-0.021230465 -0.3309044 -0.03811463 -0.028135413 -0.055434372 -0.105309874 -0.14234158 0.026262317
-0.31396192 0.021108441 0.43646485 0.022975903 0.13232411 -0.16965573 -0.17994635 -0.15509784
0.3485518 -0.35306543 0.15596591 -0.26859584 -0.09835835 -0.31039223 -0.029638227 -0.24618185
-0.12745228 -0.07068608 0.25723287 -0.07633603 0.057541005 -0.0844747 0.044062324 0.1927786
0.21897797 -0.08071852 -0.10253388 -0.0628218 -0.020807829 -0.16655953 0.024858963 -0.025696907
0.27786934 -0.22106437 0.02184241 0.13988017 -0.096602745 -0.00023142611 -0.3026428 -0.19228086
0.2518659 -0.01154276 -0.022965701 0.040374435 0.010722013 0.081900075 -0.15783922 -0.21713912
-0.015142012 -0.10043017 -0.2753835 -0.24683632 -0.056614794 0.08201965 -0.013130467 -0.29228702
-0.011374539 0.070219055 0.11558444 -0.18818013 0.016794646 -0.054887153 -0.13992977 0.17095369
-0.034393683 0.031180393 0.075724445 0.109911285 -0.0459502 -0.1759208 0.120235644 0.059785526
0.006096116 -0.011459845 -0.040545058 0.0051247124 0.0075808074 -0.01632553 0.0024594318 0.029859977
0.015893998 -0.038071845 -0.017283382 -0.009646431 -0.036447704 0.044250876 0.017088402 -0.043167096
-0.28443286 0.21151055 0.14276522 -0.052581456 0.03247234 0.04492266 0.18580231 0.098855324
-0.09288283 -0.07348115 -0.00081621204 -0.24461596 0.047772575 -0.1268832 -0.074311696 0.17419645
0.005428189 0.088988714 0.05478273 0.12099605 -0.005696435 0.15736707 -0.18059744 -0.19739059
0.121646486 -0.09343159 -0.17669445 -0.30090103 -0.070022084 -0.014677088 0.0881921 -0.08541534
00000000: 1850 dbbc 353c 8b3e da89 cebd ee72 57be
00000010: c25c 91be 76fa 8fbd ed90 f83d d12e 80bc
00000020: 3968 a4be 6195 103d a16c aebd 258b a0be
00000030: 86d3 25bd 88c3 4bbc 525d 243d 0f84 653d
00000040: e7e3 8ebd ff39 8e3e 4dec f83d c245 20be
00000050: b342 4fbe 878c 81be 3bdc be3d b9bb b6bd
00000060: a685 a1be 3e39 453c b5d0 3dbd c3b4 22be
00000070: 3ec4 16bd 6bce d73e 5e46 9abc cc95 b5bd
00000080: cf60 3ebe 0da1 473e 3738 90be 6466 13bd
00000090: 5114 b1bb 92d8 babe 5847 153d 43fc 933e
000000a0: d7b2 bcbe d7db 383e e34f 92bd 2b07 e3bd
000000b0: 9597 1d3e f50f ccbd e0fc 89be 18e8 07be
000000c0: 68dd 9f3d a608 80be 751b b1bd 03b4 58be
000000d0: 1b12 323e 15aa 6abe 0bf5 5ebe 90d5 d3bd
000000e0: fc2a 033f d648 2d3e 2edb 02bd b567 213d
000000f0: 1bc6 8c3e 6286 cdbe 7149 54be 4450 5bbe
00000100: 0883 8e3e ed92 73be 056b 89be 2bb7 c1bc
00000110: 652a babe c7e5 8a3e 146f 85be 6478 d4bd
00000120: 5d6f fabe 9e0c 59bd 554a e93d daa9 5c3e
00000130: 6144 dc3d 94d9 dc3d 2110 c63d e4b9 e2bd
00000140: aa76 87bc d356 703c 5f06 443e 6d52 b63d
00000150: 3493 3cbd 1aea 2abe ec89 c3bc 9b72 4cbe
00000160: 4649 cfbe ed4b 2abe b2e2 143b c022 c5bd
00000170: ef31 d4bd 6700 56be 873f 383d a3f5 83bd
00000180: 3ef1 c43d 0275 5cbe dc61 26bd 0d17 b2bd
00000190: ad51 c43d 3268 13bd 5fb8 fd3b 7f84 3e3d
000001a0: a74d 05be c171 b4bd 4f89 5fbe 6c8b f6bc
000001b0: 77c1 3cbd 855d 5a3c a9c7 643e 27d7 04be
000001c0: 44ed b9bd e170 a83d 0d90 33bd f7b3 e8bb
000001d0: 9ef5 ddbd f037 ce3c bd4e 8dbe 5a1d 1cba
000001e0: 0929 00be f88c 143e 0648 3ebd 33c9 86be
000001f0: 1304 143e f34b 3ebd 5c37 bdbd d517 80bd
00000200: 83eb adbc 4d6c a9be 161e 1cbd 3d7c e6bc
00000210: 270f 63bd b4ac d7bd fec1 11be 1224 d73c
00000220: 9ebf a0be 9ceb ac3c 5278 df3e f637 bc3c
00000230: f97f 073e 3bba 2dbe db43 38be f8d1 1ebe
00000240: 6275 b23e fec4 b4be 87b5 1f3e 6585 89be
00000250: 1a70 c9bd bbeb 9ebe decb f2bc 1817 7cbe
00000260: da82 02be ddc3 90bd 07b4 833e 1156 9cbd
00000270: 1eb0 6b3d 1201 adbd b27a 343d c167 453e
00000280: c33b 603e c04f a5bd 48fd d1bd b7a8 80bd
00000290: 2e75 aabc 958e 2abe 06a5 cb3c 5282 d2bc
000002a0: e444 8e3e b35e 62be dbee b23c bf3c 0f3e
000002b0: a9d7 c5bd f9aa 72b9 fff3 9abe 46e5 44be
000002c0: 91f4 803e d81d 3dbc 9122 bcbc aa5f 253d
000002d0: 62ab 2f3c 3abb a73d 9ba0 21be b859 5ebe
000002e0: 3416 78bc 55ae cdbd 11ff 8cbe a9c2 7cbe
000002f0: eae4 67bd ebf9 a73d 2c21 57bc a5a6 95be
00000300: 465c 3abc 02cf 8f3d 89b7 ec3d 4bb2 40be
00000310: ed94 893c 5ad1 60bd c049 0fbe 7c0e 2f3e
00000320: 64e0 0cbd 066e ff3c 6b15 9b3d 2b19 e13d
00000330: 4736 3cbd 9524 34be 1b3e f63d abe1 743d
00000340: edc1 c73b 13c2 3bbc 9312 26bd 34ed a73b
00000350: 6c68 f83b 1ebd 85bc 6b2e 213b e99c f43c
00000360: 2134 823c 39f1 1bbd e195 8dbc 100c 1ebc
00000370: 304a 15bd 6840 353d fafc 8b3c fbcf 30bd
00000380: 2fa1 91be 3996 583e 0c31 123e a75f 57bd
00000390: b701 053d d300 383d f642 3e3e a974 ca3d
000003a0: 5a39 bebd 497d 96bd 10f7 55ba 9b7c 7abe
000003b0: 2dad 433d abed 01be bb30 98bd 8e60 323e
000003c0: f3de b13b b73f b63d db63 603d c7cc f73d
000003d0: 29a9 babb d524 213e 89ee 38be c220 4abe
000003e0: cb21 f93d 1059 bfbd 64ef 34be b30f 9abe
000003f0: bd67 8fbd 2b78 70bc 0f9e b43d 3dee aebd

conv3.bias f4 [32]
0.03309327 -0.0015151316 0.02903138 -0.022552842 -0.036857855 -0.041529525 -0.0041301996 0.031836636
-0.007931923 -0.012460849 0.027398461 0.027167924 -0.017288327 -0.0017067435 -0.038750798 -0.001693731
0.019247662 0.012117827 0.0053587384 -0.01220316 -0.007246546 0.032786142 0.02221392 -0.0049631596
0.0067708674 0.028902814 0.0006821576 -0.009224872 -0.0022120017 -0.0072349915 0.017738229 0.042109083
00000000: cf8c 073d 6197 c6ba 37d3 ed3c bdc0 b8bc
00000010: 43f8 16bd dd1a 2abd a056 87bb 2267 023d
00000020: e5f4 01bc 9728 4cbc bd72 e03c 448f de3c
00000030: 40a0 8dbc cfb4 dfba 28b9 1ebd 2f00 deba
00000040: 46ad 9d3c da89 463c 5b98 af3b c3ef 47bc
00000050: 6f74 edbb c34a 063d f7f9 b53c 00a2 a2bb
00000060: 27de dd3b 98c5 ec3c d2d2 323a eb23 17bc
00000070: 3bf7 10bb 8213 edbb c34f 913c 937a 2c3d

conv3_bn.weight f4 [32]
0.69402766 0.9882966 0.43371418 0.50769955 0.4576935 -0.55180055 0.7191764 0.5816813
0.49129206 0.9291611 0.8093252 0.8571223 0.30181694 0.60384834 0.6684772 1.1093364
0.86277646 0.48074338 0.48013052 0.4813834 0.53655636 0.554678 1.2692059 0.4505851
0.5195021 0.6167696 0.68403864 0.5050036 0.5016887 0.559656 0.5218349 1.0697042
00000000: ccab 313f 0201 7d3f c90f de3e 99f8 013f
00000010: cd56 ea3e cd42 0dbf f21b 383f 11e9 143f
00000020: a28a fb3e 80dd 6d3f f02f 4f3f 5e6c 5b3f
00000030: c087 9a3e ce95 1a3f 5221 2b3f bcfe 8d3f
00000040: ebde 5c3f ff23 f63e abd3 f53e e377 f63e
00000050: c25b 093f 61ff 0d3f 5775 a23f 17b3 e63e
00000060: 17fe 043f 9de4 1d3f 281d 2f3f ea47 013f
00000070: ac6e 003f 9e45 0f3f f996 053f 11ec 883f

conv3_bn.bias f4 [32]
-0.23307133 0.04324947 -0.26269284 -0.24866298 -0.20483325 0.24120367 0.10929031 0.048906382
-0.006113858 -0.12244123 -0.15432972 -0.15121712 -0.17899045 -0.17662212 -0.21599637 -0.055824406
-0.07446603 -0.20401277 -0.14397308 -0.10822236 -0.07129829 -0.23218644 0.015755145 -0.048352934
-0.2341876 0.0545849 -0.17685024 -0.26643768 -0.19092476 -0.2109439 -0.35461932 -0.030259797
00000000: 40aa 6ebe 5b26 313d ad7f 86be 82a1 7ebe
00000010: cfbf 51be 18fe 763e 99d3 df3d 0f52 483d
00000020: c256 c8bb 78c2 fabd 9c08 1ebe a9d8 1abe
00000030: 4649 37be 6edc 34be 272e 5dbe 22a8 64bd
00000040: a581 98bd b9e8 50be ae6d 13be afa3 ddbd
00000050: d604 92bd 48c2 6dbe ef10 813c ba0d 46bd
00000060: e0ce 6fbe 6b94 5f3d 3b18 35be 856a 88be
00000070: c881 43be ad01 58be aa90 b5be 65e3 f7bc

conv3_bn.running_mean f4 [32]
-3.5125387 -0.3396479 -0.21741647 -2.6012063 -3.0752969 2.7815096 1.4758648 -0.34081066
-2.2474022 -1.3470826 0.002112219 2.8594725 0.36458138 -2.490988 -0.35207528 -0.53701246
1.2019708 -1.6950761 -5.178111 2.4995542 1.84651 -0.5419503 -0.61700135 -2.4129858
-1.8172767 -2.8507664 0.10897113 -1.7748954 -1.9816816 -0.44986537 -1.2840871 0.37935942
00000000: 6fcd 60c0 54e6 adbe 6ca2 5ebe 2a7a 26c0
00000010: aad1 44c0 4104 3240 23e9 bc3f bc7e aebe
00000020: 70d5 0fc0 346d acbf 286d 0a3b 9901 3740
00000030: 69aa ba3e 596c 1fc0 3643 b4be a679 09bf
00000040: 2eda 993f 41f8 d8bf 16b3 a5c0 b2f8 1f40
00000050: 715a ec3f 41bd 0abf cdf3 1dbf 5c6e 1ac0
00000060: 869c e8bf f572 36c0 412c df3d c62f e3bf
00000070: bea7 fdbf c154 e6be f75c a4bf 663b c23e

conv3_bn.running_var f4 [32]
0.82601917 1.8175261 1.4683472 1.7243617 0.853717 1.700273 1.4285954 1.0187162
0.7500262 1.4554498 2.9703615 1.6954924 0.70677257 1.3136142 1.2642035 2.233336
1.9130996 0.6206608 0.94201225 1.4301789 0.9083288 1.4165797 3.0253775 0.7641118
1.6582388 1.0526175 0.9451868 1.5117612 1.7376791 1.7120376 1.6282606 1.9217483
00000000: fe75 533f b2a4 e83f cdf2 bb3f e2b7 dc3f
00000010: 338d 5a3f 8ca2 d93f 37dc b63f 4b65 823f
00000020: b801 403f 2e4c ba3f 671a 3e40 e505 d93f
00000030: 0cef 343f 8324 a83f 6cd1 a13f faee 0e40
00000040: 73e0 f43f a0e3 1e3f b727 713f 1a10 b73f
00000050: 3c88 683f 7c52 b53f c99f 4140 d59c 433f
00000060: 2b41 d43f 2cbc 863f c3f7 713f 6481 c13f
00000070: 456c de3f 0c24 db3f d86a d03f d9fb f53f

linear1.weight f4 [32, 6272]
-0.10391117 -0.06715262 -0.15051685 -0.081549756 0.058766108 -0.012690451 -0.0021807202 0.049676027
-0.018657738 0.094758004 -0.013769425 0.019687338 -0.2918836 0.038810197 -0.00137417 -0.052844916
-0.079763785 -0.0035564105 -0.003787427 -0.008348068 0.14726621 0.047498565 0.13438185 -0.10855708
-0.0273906 -0.12308509 0.02220934 0.0033370887 -0.022263639 0.08791714 -0.14348891 -0.22919963
-0.28439808 0.04925141 0.08188913 0.13270536 0.063082434 0.006142889 0.03478671 -0.033484865
0.13871126 -0.017447889 -0.06931711 0.11721438 -0.39465737 0.05487013 -0.13314807 0.07786198
0.0043386514 0.49544153 -0.063277066 -0.25374603 -0.07909339 0.019930856 0.09326141 0.06261478
-0.085993364 -0.09522219 -0.22275966 -0.028906045 -0.11970878 -0.0007952991 0.15663238 0.08887688
-0.16531476 -0.31733558 0.14809942 -0.097550094 0.08404502 -0.10068041 -0.11086144 -0.29846084
0.07202044 0.04622486 -0.0072783465 -0.08838004 -0.21688925 0.055675823 0.073319115 0.045975592
0.054878805 -0.13879737 -0.052837115 -0.06854562 -0.18657023 -0.06654894 0.32005215 0.030179774
-0.15124899 -0.108099915 -0.11714107 0.10997021 0.10551193 -0.055406276 0.030239072 -0.08448518
-0.01571043 -0.011393282 0.071302086 -0.22206871 0.037830755 -0.03264904 0.18678692 0.24414371
-0.1488944 -0.21233158 0.23937628 -0.054553445 -0.014257779 0.04014764 -0.019713793 0.05559037
-0.09868667 -0.3004019 0.027681323 0.06137501 -0.3822374 -0.04470638 0.024205294 -0.09480521
0.020069232 0.21389928 0.0038100663 -0.019374168 0.029403731 0.01429974 -0.19816032 -0.08871462
0.35590386 -0.14689682 -0.03792411 0.0010623323 -0.041902654 -0.006994508 -0.019103572 -0.10294141
-0.093653046 0.0023699987 -0.06706116 -0.019944806 -0.08527009 -0.33724952 0.054727245 0.01846562
0.015678087 0.009480292 -0.023545256 -0.06753674 0.035693053 0.040064353 -0.017547848 0.016465785
-0.012114296 0.20232485 -0.23105806 -0.10872926 0.08766889 -0.018362585 0.07176774 -0.017567147
-0.05122437 -0.008773963 0.0018441072 -0.10744987 0.044283856 -0.029114971 0.040197343 0.12938963
0.03043753 0.16386192 -0.0165446 -0.009694659 0.0105242655 0.009108855 -0.012606281 0.004325063
0.0075071678 -0.040774163 0.036308408 0.07979769 -0.07371706 0.012815871 0.029040555 -0.085800715
0.084528394 -0.0078101726 -0.0025066787 0.0073466036 0.012071801 0.009772454 -0.02028946 -0.16669433
-0.054019228 -0.042368673 0.03521902 0.012182444 0.03243544 0.07833131 -0.08707591 -0.1572133
0.05503859 -0.03028566 0.20469727 0.1224573 -0.0065715485 0.019606188 0.079257645 -0.14077002
0.1279688 -0.27543652 0.135068 0.022375192 -0.15420306 -0.09945122 -0.16437986 0.056021146
0.06491594 -0.02738961 -0.13679214 0.04381117 0.07591921 0.14380917 0.22759332 0.09289367
0.1610581 -0.20259103 -0.13876408 -0.05584642 0.24412058 0.005098402 0.10080902 -0.09724121
-0.16124965 -0.095930316 0.1977139 0.1442073 -0.051216744 -0.025356183 -0.053895216 -0.086722784
0.05280347 0.1829773 -0.036928058 0.13325745 -0.0003822684 -0.030266665 -0.17902973 0.06374769
-0.1166506 -0.084092855 0.111016504 0.1048396 -0.10183216 0.011909249 0.13380869 -0.06320186
00000000: 61cf d4bd 5087 89bd 1721 1abe 8f03 a7bd
00000010: bbb4 703d 9ceb 4fbc 6aea 0ebb 1779 4b3d
00000020: 1dd8 98bc 7c10 c23d 2899 61bc 5747 a13c
00000030: c471 95be 71f7 1e3d 7e1d b4ba e973 58bd
00000040: 325b a3bd ab12 69bb 7b36 78bb 56c6 08bc
00000050: f4cc 163e db8d 423d 659b 093e 2d53 debd
00000060: 4062 e0bc 0914 fcbd 5df0 b53c 0fb3 5a3b
00000070: 3c62 b6bc e70d b43d c2ee 12be 4fb3 6abe
00000080: a09c 91be d9bb 493d 7db5 a73d eae3 073e
00000090: 5d31 813d 4a4a c93b 827c 0e3d 6d27 09bd
000000a0: 530a 0e3e e0ee 8ebc 21f6 8dbd 180e f03d
000000b0: 8810 cabe 80bf 603d f857 08be 1a76 9f3d
000000c0: 3f2b 8e3b 83aa fd3e 6897 81bd 00eb 81be
000000d0: b7fb a1bd 0946 a33c d7ff be3d 2e3c 803d
000000e0: 4a1d b0bd da03 c3bd 1c1b 64be 5fcc ecbc
000000f0: e029 f5bd 9f7b 50ba 3d64 203e 1505 b63d
00000100: 4648 29be cf79 a2be 60a7 173e 58c8 c7bd
00000110: cc1f ac3d 8831 cebd 530b e3bd dccf 98be
00000120: 747f 933d 4756 3d3d 327f eebb 9800 b5bd
00000130: 3718 5ebe 550c 643d 5528 963d e750 3c3d
00000140: 99c8 603d e620 0ebe bb6b 58bd a561 8cbd
00000150: 440c 3fbe d04a 88bd e0dd a33e 933b f73c
00000160: 04e1 1abe 7d63 ddbd a8e7 efbd 1038 e13d
00000170: a416 d83d b1f1 62bd eeb7 f73c 9106 adbd
00000180: 29b3 80bc e3aa 3abc d406 923d fb65 63be
00000190: 6cf4 1a3d 00bb 05bd 1245 3f3e cf00 7a3e
000001a0: c677 18be 736d 59be 0e1f 753e 6f73 5fbd
000001b0: 7699 69bc da71 243d d27e a1bc bab2 633d
000001c0: 3d1c cabd 47ce 99be f1c3 e23c 5d64 7b3d
000001d0: 9fb4 c3be 0a1e 37bd 2e4a c63c 3c29 c2bd
000001e0: 3b68 a43c 6a08 5b3e 4eb2 793b 93b6 9ebc
000001f0: 18e0 f03c 7549 6a3c 8aea 4abe 03b0 b5bd
00000200: 0839 b63e 1f6c 16be 5056 1bbd f53d 8b3a
00000210: 1ea2 2bbd 3032 e5bb 187f 9cbc f2d2 d2bd
00000220: 2bcd bfbd fb51 1b3b 5d57 89bd 4a63 a3bc
00000230: 16a2 aebd f8ab acbe ad29 603d 3645 973c
00000240: 556f 803c 3a53 1b3c fbe1 c0bc b450 8abd
00000250: e132 123d 851a 243d 81c0 8fbc 41e3 863c
00000260: 0a7b 46bc 3f2e 4f3e 7c9a 6cbe 72ad debd
00000270: bf8b b33d 226d 96bc f7fa 923d fae8 8fbc
00000280: a5d0 51bd abc0 0fbc f8b5 f13a ad0e dcbd
00000290: fd62 353d 8582 eebc f8a5 243d b77e 043e
000002a0: 2058 f93c 6bcb 273e 8a88 87bc 59d6 1ebc
000002b0: f86d 2c3c 4f3d 153c 938a 4ebc 42b9 8d3b
000002c0: b0fe f53b cf02 27bd 20b8 143d f96c a33d
000002d0: f8f8 96bd a9f9 513c 75e6 ed3c 49b8 afbd
000002e0: 391d ad3d 7aec ffbb 1747 24bb c7bb f03b
000002f0: cec8 453c a51c 203c 1536 a6bc ebb1 2abe
00000300: 4443 5dbd c68a 2dbd d241 103d e098 473c
00000310: 06db 043d 2a6c a03d db54 b2bd 86fc 20be
00000320: 2570 613d a219 f8bc 299c 513e e5ca fa3d
00000330: 2556 d7bb 289d a03c d551 a23d 0426 10be
00000340: 410a 033e 0406 8dbe 444f 0a3e 2e4c b73c
00000350: 68e7 1dbe 15ad cbbd 3253 28be 6e76 653d
00000360: a6f2 843d 2d60 e0bc 3d13 0cbe 5773 333d
00000370: 887b 9b3d b642 133e 390e 693e 093f be3d
00000380: 6aec 243e 0674 4fbe 2c18 0ebe 37bf 64bd
00000390: bffa 793e 7f10 a73b f674 ce3d 6626 c7bd
000003a0: a11e 25be 1d77 c4bd 8375 4a3e 14ab 133e
000003b0: a6c8 51bd c5b7 cfbc 3bc1 5cbd b79b b1bd
000003c0: 7448 583d 675e 3b3e e041 17bd a474 083e
000003d0: 326b c8b9 ccf1 f7bc 9253 37be 268e 823d
000003e0: 83e6 eebd e038 acbd 9f5c e33d 25b6 d63d
000003f0: 618d d0bd 031f 433c 2505 093e fa6f 81bd

linear1.bias f4 [32]
-0.008465939 0.0008236211 0.008382201 -0.0024341769 -0.011535071 0.00105357 -0.0012324803 -0.006302768
-0.011431838 0.00010934437 -0.0074406 0.0051150327 0.0037764662 -0.0023673656 -0.0062979357 0.0059572975
-0.010750783 0.012562899 -0.0090291165 0.0055282703 -0.0061432864 0.0004159335 0.006305564 -0.0102954665
-0.009391867 0.007964381 -0.0046853414 0.0033773694 -0.0008812916 -0.011374463 0.007263691 -0.006727389
00000000: b9b4 0abc 47e8 573a 8055 093c b686 1fbb
00000010: 98fd 3cbc f117 8a3a 2d8b a1ba 7387 cebb
00000020: 9b4c 3bbc d04f e538 47d0 f3bb 019c a73b
00000030: 977e 773b ce25 1bbb ea5e cebb 6f35 c33b
00000040: 0d24 30bc 9ed4 4d3c dcee 13bc 7e26 b53b
00000050: 9f4d c9bb a611 da39 e89e ce3b 51ae 28bc
00000060: 58e0 19bc 097d 023c 7e87 99bb db56 5d3b
00000070: 7a06 67ba f55b 3abc 4204 ee3b 6e71 dcbb

linear1_bn.weight f4 [32]
0.22313675 0.3203085 0.06889986 0.1491728 0.07508303 0.12741803 0.05090762 0.08511323
0.36456725 0.34456345 0.0708481 0.08338535 0.41085038 0.09555614 0.12514827 0.07502556
0.049423225 0.14587957 0.07284082 0.25569388 0.07860771 0.040241875 0.3840945 0.38638592
0.30063945 0.14197214 0.13229574 0.17809077 0.042973235 0.09044511 0.08782338 0.18919721
00000000: f67d 643e 7aff a33e 5f1b 8d3d c1c0 183e
00000010: 22c5 993d df79 023e 8284 503d d84f ae3d
00000020: 8fa8 ba3e 9f6a b03e cf18 913d f0c5 aa3d
00000030: fb5a d23e f0b2 c33d de26 003e 00a7 993d
00000040: 0270 4a3d 7461 153e 912d 953d 4fea 823e
00000050: 14fd a03d aad4 243d 09a8 c43e 60d4 c53e
00000060: 6aed 993e 2561 113e 8978 073e 6d5d 363e
00000070: b404 303d 493b b93d bfdc b33d eabc 413e

linear1_bn.bias f4 [32]
-0.1201464 -0.13807252 0.05371738 -0.008294829 0.039977502 -0.068686165 0.04158249 -0.009642746
-0.16543815 -0.1696616 0.038371794 -0.006556957 -0.14114292 0.08492176 -0.06630203 0.053204954
0.052863576 -0.044330392 0.019427462 -0.08414641 0.0595784 -0.0051421016 -0.14844713 -0.31358677
-0.2680522 -0.0636497 -0.057128686 -0.05158547 0.04180006 -0.022749314 -0.037894346 -0.14801668
00000000: 510f f6bd e262 0dbe c106 5c3d 09e7 07bc
00000010: 73bf 233d 55ab 8cbd 6752 2a3d 9cfc 1dbc
00000020: 9e68 29be c5bb 2dbe be2b 1d3d bedb d6bb
00000030: c587 10be 76eb ad3d 5cc9 87bd 70ed 593d
00000040: 7a87 583d c993 35bd 5726 9f3c f454 acbd
00000050: 7b08 743d 137f a8bb 8602 18be 728e a0be
00000060: 233e 89be c65a 82bd c5ff 69bd 494b 53bd
00000070: 8a36 2b3d c55c babc 1a37 1bbd af91 17be

linear1_bn.running_mean f4 [32]
9.122498 -0.30277315 -9.358549 -14.826486 -3.4160173 11.356579 4.527764 -14.499413
-3.971561 -1.8765281 -7.1347985 -3.9508715 -11.247376 5.438361 2.396584 -9.548088
-3.7832308 10.751315 -6.9636583 12.728725 0.55976665 -5.3877025 16.192495 -7.0726943
8.033044 4.5669093 -4.535035 -3.1342735 5.0771756 -5.400148 11.475538 7.4484634
00000000: c0f5 1141 1505 9bbe 9ebc 15c1 4939 6dc1
00000010: 07a0 5ac0 8cb4 3541 71e3 9040 98fd 67c1
00000020: 0e2e 7ec0 1332 f0bf 4550 e4c0 14db 7cc0
00000030: 41f5 33c1 0e07 ae40 a261 1940 f8c4 18c1
00000040: 7420 72c0 6305 2c41 4ad6 dec0 dca8 4b41
00000050: de4c 0f3f 0f68 acc0 3b8a 8141 8353 e2c0
00000060: 5987 0041 1f24 9240 021f 91c0 f097 48c0
00000070: 3978 a240 03ce acc0 ce9b 3741 d059 ee40

linear1_bn.running_var f4 [32]
132.10176 198.78206 79.04566 148.46114 51.255173 92.21857 34.253143 87.69437
345.6346 312.1395 77.74149 114.57006 318.24146 96.75367 113.495766 40.351547
42.01416 175.35857 60.34714 295.42877 93.83469 35.660625 253.91393 177.02502
268.45102 102.14481 301.8867 171.13799 25.788631 63.6329 52.67417 94.20847
00000000: 0d1a 0443 35c8 4643 6117 9e42 0d76 1443
00000010: 4c05 4d42 e86f b842 3803 0942 8463 af42
00000020: 3bd1 ac43 db11 9c43 a57b 9b42 df23 e542
00000030: e81e 9f43 e181 c142 d5fd e242 fc67 2142
00000040: 800e 2842 cb5b 2f43 7963 7142 e2b6 9343
00000050: 5cab bb42 7ba4 0e42 f7e9 7d43 6806 3143
00000060: bb39 8643 254a cc42 7ff1 9643 5323 2b43
00000070: 1e4f ce41 1788 7e42 5ab2 5242 bd6a bc42

linear2.weight f4 [39, 39]
0.040022276 0.038354464 0.17359667 0.055717897 -0.050029643 0.00076215423 -0.048719797 0.13155776
0.093106836 0.10944707 0.12831464 0.20027386 0.070569836 -0.10935038 -0.07332151 0.07519754
0.14177778 -0.061163213 -0.057092857 -0.09862922 0.08666446 -0.45271596 -0.032928076 -0.15421842
-0.29969317 0.0012007636 -0.019529816 -0.024934728 0.16558528 0.23824221 -0.20879562 0.047082998
0.023156548 0.028954312 -0.027388217 0.1064399 0.14859481 -0.25224134 -0.25960588 0.01775363
-0.018745173 0.11247566 0.033864502 0.05163286 -0.07821556 -0.1853803 0.06975317 -0.103256896
0.043644864 -0.11825696 -0.16314112 0.05704906 0.17004572 0.005182445 0.0790678 0.029042829
-0.13616887 -0.043333903 0.055182252 0.085072756 -0.023128157 -0.06913523 0.0788076 0.043287214
0.019611446 0.15723076 -0.06047345 0.075310744 0.021627218 0.041935686 0.055081576 -0.027100222
0.06414169 -0.16212119 0.013315005 0.3697249 -0.2135161 -0.18334678 0.09926822 0.10716939
-0.03557846 -0.09594238 -0.04197616 -0.13987878 -0.025417898 -0.0030989428 0.0067365076 0.18087883
0.1081277 -0.102610156 -0.10431036 0.19559985 -0.09783811 -0.19112481 0.104975805 0.017623546
-0.09437104 -0.025579045 -0.1667335 -0.12089586 -0.09711856 -0.06349795 -0.068153106 0.021841777
-0.074040405 -0.009797693 0.06766283 -0.06748078 -0.001674144 -0.17174889 0.22300223 0.022601483
0.057907116 0.11393111 -0.16464393 0.12286121 0.06281672 -0.0863584 0.095172994 0.14087556
-0.55083096 0.26020467 0.34520042 0.04208508 0.22680975 0.012867823 -0.437499 0.19297835
-0.7683396 -0.638603 0.06475339 0.026088687 -0.17786758 -0.18608586 0.10531767 -0.043761283
-0.16021052 0.07768855 0.1584393 -0.13345768 0.32235366 0.023118887 0.612598 -0.39954308
-0.1760086 -0.089437336 -0.0023348255 -0.25143552 -0.012812438 0.09043743 -0.077788375 -0.05163828
0.018144539 0.13725902 -0.09502853 -0.05712498 -0.12808175 0.050176766 -0.051339295 0.12948754
-0.031142784 0.098949686 0.042062473 -0.017007023 0.022950232 -0.028006243 0.015761985 -0.12669042
-0.11439742 0.115151994 -0.19086397 0.036698435 0.017752966 -0.018385159 0.041849684 -0.053917874
-0.023104131 0.06553318 0.08101842 -0.060563847 0.06358207 -0.1686438 0.023183517 0.06610485
-0.0043255747 -0.05680832 -0.059203222 -0.014109509 -0.092127584 0.18788327 0.095756836 0.38280788
-0.026615027 -0.08514233 -0.019840635 -0.017789107 -0.027352089 -0.08350508 0.040560123 -0.11215193
0.0760728 0.063950635 0.017834952 -0.039957087 0.06330078 -0.15095657 -0.02716747 0.051130082
0.0047109514 -0.03364439 -0.08462535 -0.18008938 -0.13848773 0.172465 0.17772229 0.03482693
0.023218198 0.06239711 0.0073704342 -0.013050808 -0.045024928 0.06779138 -0.0023050958 -0.013383197
-0.02068401 -0.10062217 0.0743742 0.019201692 -0.1012568 0.1767562 0.120682 0.18286584
-0.07076669 -0.16800708 -0.07053076 -0.019165533 -0.089421034 0.01997923 -0.024527637 -0.028618732
0.014592864 0.07315709 0.05761131 0.016627414 -0.01557759 -0.00035011373 -0.07331614 0.13424756
-0.00656584 -0.07138855 0.056043427 -0.13931146 0.0071944925 0.09153062 0.020790134 -0.09655429
00000000: 66ee 233d 9219 1d3d 53c3 313e 7338 643d
00000010: e2eb 4cbd 4ecb 473a 698e 47bd 14b7 063e
00000020: ccae be3d c925 e03d ea64 033e 9714 4d3e
00000030: eb86 903d 18f3 dfbd 9629 96bd 2b01 9a3d
00000040: 322e 113e 4786 7abd 33da 69bd 1efe c9bd
00000050: 237d b13d 63ca e7be 97df 06bd 6feb 1dbe
00000060: 6271 99be f162 9d3a fefc 9fbc ea43 ccbc
00000070: 308f 293e c4f5 733e 85ce 55be 1ada 403d
00000080: cdb2 bd3c 9831 ed3c 415d e0bc 2afd d93d
00000090: 3d29 183e c725 81be 10eb 84be 1070 913c
000000a0: 7a8f 99bc a459 e63d 81b5 0a3d fa7c 533d
000000b0: 7b2f a0bd 55d4 3dbe c0da 8e3d 5a78 d3bd
000000c0: f5c4 323d b430 f2bd 770e 27be 46ac 693d
000000d0: 7720 2e3e 80d1 a93b 4cee a13d 3aeb ed3c
000000e0: da6f 0bbe e47e 31bd c906 623d a03a ae3d
000000f0: 4377 bdbc c596 8dbd e165 a13d ef4d 313d
00000100: 2fa8 a03c 1a01 213e 02b3 77bd 853c 9a3d
00000110: 902b b13c c1c4 2b3d 389d 613d 4901 debc
00000120: b85c 833d 1903 26be 2e27 5a3c 954c bd3e
00000130: f7a3 5abe 42bf 3bbe 234d cb3d a07b db3d
00000140: b8ba 11bd 707d c4bd 32ef 2bbd 623c 0fbe
00000150: 3239 d0bc a217 4bbb ecbd dc3b 4d38 393e
00000160: 0e72 dd3d 4625 d2bd aca0 d5bd 544b 483e
00000170: 595f c8bd 39b6 43be 8efd d63d 415f 903c
00000180: 9b45 c1bd 258b d1bc 30bc 2abe 4098 f7bd
00000190: 18e6 c6bd 370b 82bd db93 8bbd 87ed b23c
000001a0: 7fa2 97bd 8186 20bc cf92 8a3d 5d33 8abd
000001b0: f36e dbba f1de 2fbe b25a 643e bf26 b93c
000001c0: 0330 6d3d b754 e93d 6b98 28be a89e fb3d
000001d0: 0da6 803d acdc b0bd 0fea c23d af41 103e
000001e0: 4203 0dbf 8c39 853e 1cbe b03e 6861 2c3d
000001f0: d140 683e 90d3 523c deff dfbe 1e9c 453e
00000200: e7b1 44bf 7c7b 23bf 6d9d 843d f1b7 d53c
00000210: eb22 36be 4b8d 3ebe cab0 d73d 083f 33bd
00000220: 3a0e 24be 2d1b 9f3d e93d 223e 21a9 08be
00000230: 8a0b a53e d263 bd3c 39d3 1c3f e990 ccbe
00000240: 993b 34be ec2a b7bd df03 19bb 28bc 80be
00000250: 43eb 51bc 4237 b93d 834f 9fbd a982 53bd
00000260: dba3 943c a18d 0c3e 519e c2bd e2fb 69bd
00000270: dd27 03be 2786 4d3d 2749 52bd 6298 043e
00000280: 271f ffbc 22a6 ca3d b349 2c3d 5052 8bbc
00000290: 2002 bc3c 596d e5bc 471f 813c 22bb 01be
000002a0: 3249 eabd cfd4 eb3d d871 43be 1951 163d
000002b0: ab6e 913c 799c 96bc 936a 2b3d fdd8 5cbd
000002c0: e044 bdbc 4336 863d fcec a53d cc11 78bd
000002d0: 5137 823d f6b0 2cbe 5ceb bd3c fb61 873d
000002e0: 8dbd 8dbb d7af 68bd 147f 72bd 922b 67bc
000002f0: 63ad bcbd 7964 403e 291c c43d 65ff c33e
00000300: c207 dabc 1a5f aebd d488 a2bc 76ba 91bc
00000310: 7d11 e0bc b604 abbd 5f22 263d e9af e5bd
00000320: 0ecc 9b3d 8df8 823d 9b1a 923c 0baa 23bd
00000330: d7a3 813d 5c94 1abe 508e debc c76d 513d
00000340: 535e 9a3b b3ce 09bd 0e50 adbd 5a69 38be
00000350: bacf 0dbe aa9a 303e d5fc 353e afa6 0e3d
00000360: 1734 be3c 1d94 7f3d af83 f13b 0ed3 55bc
00000370: 0f6c 38bd 35d6 8a3d 1711 17bb 3245 5bbc
00000380: 8371 a9bc ff12 cebd 8051 983d de4c 9d3c
00000390: ba5f cfbd 94ff 343e 2028 f73d 2f41 3b3e
000003a0: 20ee 90bd 0c0a 2cbe 6e72 90bd 0901 9dbc
000003b0: 6022 b7bd 7bab a33c 2fee c8bc d571 eabc
000003c0: e816 6f3c 62d3 953d d6f9 6b3d 3736 883c
000003d0: 2639 7fbc 788f b7b9 c626 96bd 3178 093e
000003e0: 4226 d7bb 2934 92bd cb8d 653d aaa7 0ebe
000003f0: c7bf eb3b 6874 bb3d 1250 aa3c 41be c5bd

linear2.bias f4 [39]
0.06285235 0.14621662 0.20611916 -0.0045882957 -0.0026094879 -0.034848943 -0.0034566852 0.013578399
-0.0056986087 0.060690988 -0.13523181 0.21065518 0.023787495 0.027740596 0.16307244 0.108177066
0.0350796 0.13622855 0.12884857 0.031583894 0.046887726 -0.10196811 -0.048022553 -0.04057006
0.040954232 -0.08897683 0.034260206 0.0069555296 0.090035655 0.15564747 0.12985514 0.076155856
-0.052240815 -0.09629011 0.13595104 0.13429683 -0.07519368 0.09997862 -0.10375399
00000000: bcb8 803d cfb9 153e e710 533e 6a59 96bb
00000010: f103 2bbb c4bd 0ebd 8e89 62bb ef77 5e3c
00000020: 65bb babb 1d97 783d 357a 0abe feb5 573e
00000030: fedd c23c 3f40 e33c 76fc 263e f08b dd3d
00000040: a0af 0f3d 7f7f 0b3e e1f0 033e 1d5e 013d
00000050: 580d 403d a8d4 d0bd 4cb3 44bd cb2c 26bd
00000060: a0bf 273d 7c39 b6bd 6e54 0c3d 36eb e33b
00000070: 9d64 b83d 0d62 1f3e bff8 043e 9af7 9b3d
00000080: 77fa 55bd c033 c5bd c036 0b3e 1c85 093e
00000090: 25ff 99bd 97c1 cc3d f97c d4bd
