saved_models/gear_unconstrained_7.pt (torch_old, 954435 bytes, 28 tensors)

conv1.weight f4 [32, 3, 4, 4]
000000 cd 72 3c be 9f 6b 70 be e4 2b a9 3d 69 3d ad 3e
       -0.18403168 -0.23478554 0.082603246 0.33835915
000010 84 f9 bc 3e 37 01 84 3e f7 55 84 be 78 60 98 3d
       0.36909115 0.25782177 -0.25846836 0.07440275
000020 c6 f4 4a bd 9a dc 0a bf 2f ba d5 be 4b 3e 94 3d
       -0.04954984 -0.5424286 -0.4174361 0.07238444
000030 81 f5 a0 3d 17 9f 94 be d2 fe 8d bd 32 b9 cf be
       0.07859326 -0.29027626 -0.06933369 -0.4057098
000040 53 48 75 bd 1d 69 e1 bd 6a 84 26 3e 2a af 84 bd
       -0.059883427 -0.11006377 0.1626145 -0.064787224
000050 b5 be d9 3e bb 2d e7 3e 77 a7 8d 3e 24 ed 3e be
       0.4252831 0.45152077 0.27666828 -0.1864515
000060 3d bc cb 3d e7 94 b2 be 75 46 d1 bc 09 39 c3 3e
       0.09948013 -0.34879228 -0.025546292 0.38129452
000070 a7 29 d2 3c 3e ff ed bd 47 b9 6a 3e 09 85 bc 3d
       0.025654627 -0.11620949 0.2292224 0.09205062
000080 c8 6a e6 be 5d 3b 53 bd 8d 32 60 be 1a 89 83 bd
       -0.45003343 -0.051570285 -0.21894284 -0.064226344
000090 fd d6 0e 3d ad e1 b3 3e f4 a0 8f 3e 67 df 9b be
       0.034872998 0.35133114 0.28052485 -0.3044388
0000a0 c5 ac 43 bd b7 5f c5 be bb 39 11 bc 79 22 87 3e
       -0.047772188 -0.38549587 -0.008863862 0.26393488
0000b0 17 f6 6f 3e e2 41 5d bb db 94 e1 3e bc 1b 1c be
       0.2343372 -0.0033761193 0.4405888 -0.15244955
0000c0 4e 73 4e 3e 05 f0 42 3e 15 48 20 3c af 48 16 be
       0.20161173 0.19036873 0.009782811 -0.14676164
0000d0 08 3c e3 3e f5 0f 72 3d b7 b4 80 3e 2b e6 31 3a
       0.44381738 0.05909725 0.25137874 0.0006786312
0000e0 29 e2 0c 3e db 31 ee 3e 47 ab fc 3e 37 f2 91 be
       0.13758148 0.46522412 0.49349424 -0.28505108
0000f0 ef 4a 6a 3e ce 82 a4 3e 14 e8 da 3d 0d fe b1 3d
       0.22880147 0.32131046 0.10688797 0.086910345
000100 50 89 8a bd 0b bc d5 3c 0e e7 48 be fd 00 34 be
       -0.067644715 0.026090642 -0.1961939 -0.17578502
000110 73 a7 f1 3d 7c 7e e8 be 0d be 9e 3e 16 a6 ec bd
       0.117995165 -0.45409 0.31004372 -0.11555116
000120 f9 fd 97 be 8c d5 1e 3e c8 55 f0 3e dd d4 06 be
       -0.29685953 0.15511149 0.46940446 -0.13167138
000130 e6 27 ff bd c1 db db 3d f1 ff 30 3e 02 4d 1c 3d
       -0.12458782 0.10735274 0.17285134 0.038159378
000140 7a 92 5e 3e b3 72 6e 3e e2 68 82 3e 03 64 14 3e
       0.21735564 0.23285942 0.25470644 0.14491276
000150 27 16 a1 3d 1a a9 1e be d0 f3 d2 3e 6b 2c 28 3e
       0.07865553 -0.15494195 0.4120164 0.16423194
000160 62 c0 0a 3e 81 68 6d 3e b7 ba 19 3e 58 a5 fb bc
       0.1354995 0.23184396 0.15012632 -0.03071849
000170 bf 8e 6c 3d 5f 3d df bc 6f 1a f9 3c 42 7d 3c 3e
       0.05775332 -0.027250944 0.030408112 0.18407157
000180 89 81 86 3e aa 54 3f be 61 96 85 3e c8 2e 85 3e
       0.26270702 -0.1868464 0.26091293 0.26012254
000190 7f aa 05 3d 5c ae 7b be 5e 08 5f 3d 44 e2 a2 3d
       0.0326333 -0.24578232 0.05445134 0.07953313
0001a0 ef ee 84 3d 86 e1 cb 3d ab 36 da 3d 5e 89 dc 3d
       0.064908855 0.099551246 0.10654958 0.10768388
0001b0 8c 85 20 3d 39 2d 10 be 61 f7 ec be 1c 37 41 bd
       0.03918986 -0.14079751 -0.46282485 -0.047171697
0001c0 60 ec 80 3e 7f 8e bb bd 08 90 24 3e 63 e8 2d 3e
       0.2518034 -0.09158038 0.16070569 0.1698318
0001d0 07 f7 3d be f8 fd 89 bd 34 d2 2d be 60 4b 0c 3e
       -0.18551265 -0.06737894 -0.16974717 0.13700628
0001e0 e3 e1 f6 bd 47 e6 83 3e f2 95 f3 bd 14 15 b1 bc
       -0.12054803 0.25761625 -0.11893834 -0.021616496
0001f0 b1 7b 27 3e 21 b6 c3 be 0a cc 02 bf ee eb 7d 3d
       0.16355778 -0.3822489 -0.5109259 0.06199258
000200 69 5a f9 3d 13 39 84 3e ce 7e d6 3e 81 0c f0 3e
       0.121754475 0.25824794 0.4189362 0.4688454
000210 93 a2 3b be 07 8d d4 3e f5 86 f1 bc ec 43 70 3e
       -0.18323736 0.41513845 -0.029483298 0.2346341
000220 08 bf dd bd 28 e5 ff 3d b8 49 d7 bd 31 de 11 3d
       -0.10827452 0.1249488 -0.105121076 0.03561229
000230 78 af 9a 3d 3f cc f6 be 0e ac 01 bf 54 63 28 be
       0.07552999 -0.48202702 -0.5065316 -0.1644414
000240 89 7b 01 3e ae f4 b8 3e 42 f6 31 3e 6c f3 cc bd
       0.12644781 0.36124176 0.17379096 -0.100073665
000250 36 f1 91 39 4e 01 3b bd 00 47 95 3e cf 77 4d be
       0.0002783627 -0.04565554 0.2915573 -0.20065235
000260 18 e7 c4 bd 74 ac 5b be db 03 1e be 84 02 1a 3e
       -0.0961439 -0.21452504 -0.15431158 0.15040022
000270 ed 82 3b 3e 56 43 45 bd 0f 53 1e bb 1d cd b2 3e
       0.18311663 -0.04815992 -0.0024158393 0.34922114
000280 c5 ff 2e be 60 6a e6 bc f2 f4 9a be 70 f9 f5 be
       -0.17089756 -0.028126895 -0.30265003 -0.48041868
000290 d7 76 39 be bc bb 3c be 9c 3e 10 3e 18 54 c6 be
       -0.1811174 -0.1843099 0.14086384 -0.38736033
0002a0 a1 3a 62 bd 04 6d 19 b9 26 b6 e0 3d 77 8f 53 3e
       -0.055231694 -0.00014631829 0.10972242 0.20660196
0002b0 9c a5 3b 3e 06 c5 77 3e e6 bf 91 bc 10 15 97 3e
       0.18324894 0.24196252 -0.0177917 0.29508257
0002c0 81 b0 6d be 18 e8 b0 be d9 97 fa bd f6 df 84 be
       -0.23211862 -0.34552073 -0.12235994 -0.2595212
0002d0 c5 65 af be b4 fa dd bd 17 57 12 be 4c e0 bb be
       -0.34257331 -0.108388335 -0.14291035 -0.36694562
0002e0 66 cd 99 bd b9 63 de be d3 f0 49 be 9d 16 f0 3e
       -0.0750988 -0.43435457 -0.19720773 0.46892253
0002f0 22 46 bc be 82 61 c5 be 1c f3 a8 bb bf 30 e4 3e
       -0.36772257 -0.38550955 -0.005155934 0.4456844
000300 71 8a 80 3e 1c 47 5b 3d 96 77 a8 bd 6d 90 e0 bc
       0.25105622 0.053534612 -0.08225934 -0.027412618
000310 3e ef 0d 3e 16 4e 9b 3d 0d 3b c4 be c2 3a b3 3e
       0.13860795 0.07583253 -0.38326302 0.35005766
000320 ea 6c b9 3e 25 94 fb bd 8a 92 de 3e 86 f0 2a bd
       0.36215907 -0.12284116 0.43471175 -0.041733287
000330 33 32 91 bb f9 a5 19 bd e9 85 e1 bd 2b 71 ad be
       -0.004431033 -0.0375118 -0.110118695 -0.33875403
000340 5f 60 c2 3e 1d c2 f0 bd 97 9b b8 3e bc 99 48 be
       0.3796415 -0.11755774 0.36056206 -0.19589895
000350 7f 81 0d be b7 a4 18 be 9b e5 f8 bd a7 f3 d9 3e
       -0.1381893 -0.14906584 -0.12153169 0.42568704
000360 39 79 fa 3d 83 73 ab 3d 9d b4 fd 3e 2c 26 b4 3d
       0.12230153 0.083716415 0.4955186 0.08796343
000370 5a 46 59 be 3d ac c6 3d a7 9c f0 bd 37 28 26 3d
       -0.21218243 0.097008206 -0.11748629 0.040565696
000380 81 9b 99 bc 0e 52 e1 bc 46 0b 9a bd 55 cc d9 be
       -0.018750908 -0.027504947 -0.075216815 -0.42538705
000390 02 8d 0d be 65 9c da 3d 4f 38 6a be 5a 4f 74 3e
       -0.13823321 0.10674361 -0.22873043 0.23858395
0003a0 38 15 30 3d 1f 9b d8 3c 3a 4a af 3e 4b 35 d2 bc
       0.042988986 0.026441155 0.34236318 -0.025660178
0003b0 7e 77 59 3d 41 81 57 3e 8c c6 50 bd 6d ca 96 3c
       0.053092472 0.210454 -0.0509706 0.018407071
0003c0 b9 dd e1 3c ca 01 0a be 6a 5f 26 3d 95 e2 c7 bd
       0.027571546 -0.13477245 0.040618338 -0.09760014
0003d0 16 70 18 3e 8c f3 58 3e 77 d9 0c bd 45 65 4a 3e
       0.14886507 0.21186656 -0.034387078 0.19765194
0003e0 3a d3 80 be fc 37 61 be 52 e6 f0 3e 63 a0 33 bd
       -0.25161153 -0.21994013 0.4705072 -0.04385413
0003f0 65 c7 17 3e 4e 12 02 3d 03 02 ca 3e d1 32 13 3e
       0.14822157 0.031755738 0.3945466 0.14374854

conv1.bias f4 [32]
000000 38 49 0d 3e 53 d0 08 3e 16 8d b6 bc 57 b9 93 bc
       0.13797462 0.1336072 -0.022284072 -0.018032713
000010 a4 18 c9 3d 86 12 f9 bd 62 51 d9 bd 6e f1 79 3d
       0.09819153 -0.12161736 -0.10611226 0.06102126
000020 56 e3 09 3b e5 fc ac ba 44 02 76 bd df e3 dd bd
       0.0021040044 -0.0013197927 -0.060060754 -0.108344786
000030 c7 1a be 3d f6 d7 ce bd 6c 44 94 3d 32 1a a2 bc
       0.09282451 -0.10099785 0.07239613 -0.019787882
000040 00 09 05 3e c2 1a 9a 3c 59 64 f2 bd f3 38 51 bd
       0.12991714 0.018811587 -0.11835546 -0.0510797
000050 a5 ca c7 bd ea 98 c3 3c 2f f3 9c 3d 52 fa 0e 3d
       -0.09755448 0.023876626 0.07663571 0.034906693
000060 0b 45 80 bc f1 c0 3c 3d ee 87 b2 3d 4a 29 cf bd
       -0.015657922 0.04608244 0.08717333 -0.10115297
000070 16 9b 0e 3d ff ec a0 3d 53 a4 0d be 19 8f 31 3c
       0.03481587 0.078577034 -0.13832216 0.01083734

conv1_bn.weight f4 [32]
000000 c0 4a a2 3e ad 38 33 3f fb 59 00 3f c3 f9 44 3f
       0.31697655 0.70008355 0.501373 0.76943606
000010 e5 d9 95 3e c6 a4 83 3e 4c c3 7d 3f 2b af e2 3e
       0.29267803 0.2571165 0.99126124 0.44274268
000020 eb 48 14 3f ae fb 0e 3f 1b 93 11 3f 4c aa 33 3f
       0.57923764 0.5585278 0.5686509 0.7018173
000030 45 21 e4 3e b0 f7 23 3f b9 d2 f9 3e ff fc 1b 3f
       0.44556633 0.64049816 0.4879358 0.60932916
000040 02 aa 31 3f a3 4e 69 3f 30 e5 4a 3f e3 a4 e9 3e
       0.69400036 0.91135615 0.7925596 0.4563361
000050 ff f6 e2 3e 62 0c e2 3e ea 17 1f 3f 5c 08 25 3f
       0.44329068 0.44150072 0.62145865 0.6446588
000060 d3 6f f9 3e b6 a9 1a 3f 8f 62 76 3f e4 e6 3f 3f
       0.48718128 0.6041521 0.9624414 0.74961686
000070 e7 e8 5b 3f d6 19 21 3f 1d fd f8 3e 57 14 00 3f
       0.85902256 0.6293005 0.4863061 0.50031036

conv1_bn.bias f4 [32]
000000 34 2e e8 3e d8 01 f4 bd e3 60 91 be 98 ce 25 be
       0.4534775 -0.11914414 -0.2839423 -0.1619209
000010 53 7c f6 bd 0d 71 05 bb 81 5c 70 3b 40 0e 01 be
       -0.12035432 -0.0020361573 0.003667623 -0.12603092
000020 0f 70 e4 bd db 99 33 be 9c d3 21 be 29 dc b5 be
       -0.11154186 -0.1753916 -0.15803379 -0.3551953
000030 74 95 b8 bd 9e 24 17 be 13 18 40 be ec 12 e4 3d
       -0.09012881 -0.14760062 -0.18759184 0.111364216
000040 35 5d 24 be da 52 d1 bd 37 02 a3 bd e9 ca b0 be
       -0.1605118 -0.10220881 -0.07959407 -0.34529808
000050 9d 92 16 bc ca e4 22 bd 88 7a 1f be 48 c8 3f be
       -0.009190229 -0.03976897 -0.15574086 -0.18728745
000060 b9 39 9a bd 5b 6d c6 bd e0 0f 91 bd ed 59 0e be
       -0.07530541 -0.09688827 -0.07083106 -0.13901491
000070 0b aa 0d bc a9 83 87 bd da bd 48 be 49 ca 41 be
       -0.008646498 -0.06616909 -0.19603673 -0.18924822

conv1_bn.running_mean f4 [32]
000000 5f 10 0a 3e e5 80 32 40 ff 35 3a 3e a9 11 b2 bf
       0.13482808 2.789117 0.1818466 -1.391164
000010 65 a6 84 3f 7e 45 a9 3f b3 76 b9 bf 89 00 1c 3f
       1.036328 1.3224332 -1.4489349 0.60938317
000020 5f 4f c5 3e ef a7 1e 3f 8e 44 01 3f fd 2c 1d 3f
       0.38537118 0.61974996 0.5049523 0.6139677
000030 14 25 10 3f f5 dd cf be 3a 0e 54 be 7a 79 e0 bf
       0.56306577 -0.40599027 -0.20708552 -1.7537072
000040 64 fb 11 bf e0 74 34 bf af 32 7c 3f ea ef d2 3e
       -0.57024217 -0.7049084 0.9851484 0.41198665
000050 b6 7d eb bb d7 21 68 3f 02 a8 bd 3f 82 32 c8 3d
       -0.007186617 0.90676636 1.4816897 0.097752586
000060 0a 8c 17 3f c8 37 de 3f a0 44 45 bf 08 d6 d7 be
       0.5919806 1.7360773 -0.7705784 -0.4215548
000070 6f 33 ed bf 4b 99 bb bf 92 ef 7e be 1d fc 88 be
       -1.8531321 -1.4656156 -0.24896076 -0.26754847

conv1_bn.running_var f4 [32]
000000 50 d8 c7 3c 19 56 c5 3e 46 a6 8c 3d 83 b5 13 3e
       0.024395138 0.3854225 0.06867652 0.1442471
000010 fc 1f 7d 3d dc 5e ee 3d f6 35 00 3e 71 e1 30 3d
       0.06179808 0.11639187 0.12520584 0.043183748
000020 db da 2e 3d 1a 3b 2f 3d 90 42 85 3d 90 12 70 3d
       0.042689186 0.042780973 0.065068364 0.058611453
000030 6b 79 3f 3d 01 ba 11 3d 4c 45 9a 3d 90 15 24 3e
       0.046746653 0.035577778 0.075327486 0.1602385
000040 f5 0f 3b 3d 79 90 86 3d c9 ba 19 3e ed 8f 17 3d
       0.045669515 0.06570525 0.15012659 0.037002493
000050 93 2a fe 3c 94 af 90 3d 1a fc 11 3e 97 59 10 3d
       0.03102616 0.07064739 0.14256325 0.03524169
000060 74 81 83 3d 00 49 26 3e fd 3b 59 3d 88 74 30 3d
       0.064211756 0.16238785 0.053035725 0.043079883
000070 58 df 5c 3e 36 a7 1d 3e 15 7b c1 3c b5 79 46 3d
       0.21569574 0.15395817 0.02361826 0.048455913

conv2.weight f4 [32, 32, 4, 4]
000000 73 9b 26 3d 02 6e f3 3d da ef ac be 75 b8 a2 3d
       0.04067559 0.11886217 -0.33776742 0.07945339
000010 de 9e ad bd fd 02 7d 3e bc 42 aa be 5e 1e da bd
       -0.08477567 0.24708171 -0.3325404 -0.10650323
000020 c4 ff b7 be 18 5e c0 3e 1a 14 0b 3e 25 e7 70 3e
       -0.3593732 0.37571788 0.13581887 0.23525675
000030 8d c9 a3 bd f2 99 11 be a2 f3 a1 3e a2 61 5f 3e
       -0.07997427 -0.14218882 0.3163119 0.21814588
000040 d0 3f 8b 3e 06 3c b7 3c ec 2a 4b 3e 83 87 22 3e
       0.27197123 0.022367489 0.19840592 0.15872006
000050 38 07 14 3d f8 dd 52 3d f9 1f cd 3d 35 27 46 3e
       0.036139697 0.051481217 0.10015864 0.19350894
000060 f2 0c 77 3e 97 a3 1e 3e 30 0f 2b 3e 44 30 4f 3e
       0.24126032 0.15492092 0.16705012 0.20233256
000070 05 fb c8 bd 51 95 25 3e e6 d1 2d 3c dd 0c 82 3e
       -0.09813503 0.16170241 0.010609126 0.2540044
000080 30 a2 6b 3e 76 14 96 3e 77 ef ee bc 14 6e f6 3d
       0.23011088 0.29312485 -0.02916692 0.120327145
000090 69 ea 1a be 29 5c d9 3c 17 bb bd 3d 5f 75 52 3e
       -0.15128483 0.026533203 0.092642 0.20552586
0000a0 a3 aa 40 bd 53 6a e1 3d 00 61 1f 3e d0 19 3f 3e
       -0.04703773 0.11006608 0.15564346 0.1866219
0000b0 a8 02 bd be 5e aa a1 bd f8 c9 85 3b 03 16 86 3d
       -0.3691609 -0.07893823 0.0040829144 0.06547167
0000c0 c8 7c 36 bd 60 88 65 bd e7 53 f6 3d e6 dd c9 3e
       -0.044552594 -0.05603826 0.12027722 0.39427108
0000d0 20 95 07 be d8 d3 18 be 61 42 3f 3e 14 ae 32 be
       -0.1324048 -0.14924562 0.18677665 -0.17449218
0000e0 32 5b 78 be 48 d5 c5 3d c0 80 01 bd da 9c 48 bf
       -0.24253538 0.09659821 -0.031616926 -0.78364336
0000f0 8a f5 1b be a9 a2 59 be 2d 1f 30 be dd 28 40 3e
       -0.15230384 -0.21253456 -0.17199393 0.18765588
000100 9d 2c a3 3b 0d 89 54 3c 1a 7f b8 3e af cc db 3d
       0.0049796836 0.012972129 0.3603447 0.107324
000110 64 23 df bd 75 3c c1 3d 98 fb 7b 3d 81 42 5a 3d
       -0.10895422 0.094353594 0.061519235 0.05328608
000120 5c 47 e2 3c 05 18 2c be 1c da fa bd 2e 48 58 3e
       0.027621917 -0.16806038 -0.12248632 0.21121284
000130 92 e4 92 bd 07 f3 4a bd 50 b0 57 bc 92 ac d8 3c
       -0.071725026 -0.049548175 -0.013164595 0.026449475
000140 5a 15 b8 3d 97 38 3a 3d ad 2d 5b bd 02 78 c8 3d
       0.089884475 0.045464125 -0.053510357 0.09788515
000150 46 5d 46 3e 49 ba 70 bd f9 83 a5 bb c0 99 f0 3d
       0.19371518 -0.058771405 -0.0050511328 0.117480755
000160 e3 00 98 3d f4 e9 17 3e 6b 9a a5 3d 32 8f 88 3e
       0.07422044 0.1483534 0.080860935 0.2667175
000170 24 97 d8 3b 35 d4 b9 3d b6 10 3a 3d 90 af 94 3e
       0.0066098142 0.090736784 0.045426093 0.29040194
000180 10 3c 33 3e 1d 37 ce be 3b b4 01 3e be dd 44 3c
       0.17503381 -0.40276423 0.12666409 0.012015758
000190 17 09 31 bd 90 a7 82 3e c8 b2 35 3d 47 43 30 be
       -0.04322156 0.25518465 0.044359952 -0.17213164
0001a0 c5 52 56 3b 65 8d b7 bd 38 d3 63 be cf 3a fd 3e
       0.0032703143 -0.08962516 -0.22248542 0.4945893
0001b0 9c b7 bd 3a e8 f4 ba bd e0 70 97 3d ae 5f a9 be
       0.0014474276 -0.091287434 0.07394576 -0.3308081
0001c0 ee 81 bf bd 66 78 21 bd 26 aa 65 3e e7 d5 2e 3d
       -0.09350954 -0.03942146 0.22428188 0.042684462
0001d0 9b 04 98 be 75 e5 9a be 9f 4c 7c 3d 22 cf ba bd
       -0.29691014 -0.30253187 0.06159651 -0.09121539
0001e0 b9 09 84 bd 26 df 81 3e 36 a4 7f 3d de 30 a9 3c
       -0.06447167 0.2536556 0.062412463 0.020653185
0001f0 b1 57 6c bd 8d 14 e3 bd 2a c7 bc 3d d7 ce 7d be
       -0.057700817 -0.11087904 0.09217675 -0.24785934
000200 ff 1d 7b be af 3a dc bd 98 dd 83 3e eb 91 0d 3e
       -0.24523161 -0.107533805 0.25755 0.13825195
000210 d1 5c 77 3c e2 6e b2 be e5 63 d2 bd 1c c7 0c be
       0.015097813 -0.34850222 -0.102729596 -0.13747829
000220 e1 ab 92 bc 27 50 8d bd 44 b2 10 3e f7 cc 1c 3e
       -0.017904224 -0.069000535 0.14130503 0.15312563
000230 1a 29 33 be b6 f5 3c 3e 68 86 79 3e d1 8d ae 3e
       -0.17496148 0.18453106 0.24367678 0.34092572
000240 b9 28 44 bd b2 dd 80 be 4d b6 21 3e a0 2a 40 3d
       -0.0478904 -0.2516914 0.15792198 0.04691565
000250 ac 9b 13 3e 56 92 9f 3e 67 8b 88 be d1 14 8b be
       0.14414853 0.31166333 -0.26668856 -0.2716432
000260 ae da f5 bc 0c c8 b4 be 97 b3 e9 3d 5a 11 1d 3d
       -0.030011501 -0.35308874 0.11411207 0.038346626
000270 7c bd 51 be f9 0e 4f be 74 a2 be 3d b7 c3 7b be
       -0.20482439 -0.20220555 0.09308329 -0.24586378
000280 15 17 98 3e d9 fd 2e 3b b4 ce 60 be e8 7f 7c be
       0.2970511 0.0026701598 -0.21953851 -0.24658167
000290 d5 fc 8a 3d 6c ad 79 3e bc 7e 8a bc 0c fd b6 be
       0.06786505 0.24382561 -0.016906135 -0.35739934
0002a0 1c 78 3d 3d 57 12 70 bd eb de e0 bc 6f 7d 99 3d
       0.046257123 -0.05861124 -0.027450046 0.07494628
0002b0 36 d4 fe 3d 78 70 36 3e 13 57 ca bc ae 8f 06 3e
       0.1244282 0.17816341 -0.024699723 0.13140747
0002c0 90 24 b4 bd dc e1 05 3e 1e 8d 84 be 5b 2c 19 3e
       -0.08796036 0.1307444 -0.25888914 0.14958327
0002d0 fa 9a ae 3d 43 a5 14 bc 9f 40 df 3c 59 ab 05 be
       0.08525653 -0.009072605 0.027252493 -0.13053645
0002e0 c0 6b 31 3e 28 4f 03 be 28 17 66 3e d5 57 3d 3e
       0.1732626 -0.12823164 0.22469771 0.18490537
0002f0 ef 09 b8 bb a2 f0 f5 bd 96 91 ca be b9 17 68 be
       -0.0056164186 -0.12008788 -0.39564198 -0.226653
000300 0b ab 59 3d 60 cf 8e bd c8 93 8b be 87 fe 9d 3e
       0.053141635 -0.069731474 -0.27261186 0.3085825
000310 74 fe 04 3e 6f fa 8d 3e 27 96 04 3e 3e 87 6b 3d
       0.12987691 0.27730128 0.12947904 0.057502024
000320 e0 8b 84 be 88 df 30 3e d5 d6 16 3e 00 f3 a2 be
       -0.25887966 0.1727277 0.1473039 -0.3182602
000330 67 be 2f 3e 8b af 02 3e f0 b1 e7 be fc c3 36 3e
       0.17162476 0.12762277 -0.45252943 0.178482
000340 21 a6 a5 3e 3f aa 3b bd 54 22 0c bd 1d 52 3d 3d
       0.3235331 -0.045816656 -0.034212425 0.046220887
000350 9d 7a 1f 3e a0 ef 0e be db b4 06 be ea ae b6 3d
       0.15574117 -0.13958597 -0.13154928 0.08920081
000360 9f 91 9c 3c 6b 5e 35 ba a6 5f 67 bc 94 ea 9c bc
       0.019112406 -0.00069186714 -0.014121925 -0.019154824
000370 5a 63 ff 3d 89 f4 06 3e a8 25 3e bb 7f 6a 44 be
       0.12470122 0.1317922 -0.0029014144 -0.1918125
000380 7c 0f 4c be 04 a7 44 3e 5c ac 3c 3e ed 8b 1c bc
       -0.19927782 0.19204336 0.18425125 -0.009554845
000390 72 fb 57 3e be 8b 40 be e9 66 e0 3d d0 01 19 be
       0.21092013 -0.18803307 0.109571286 -0.14942098
0003a0 bf 0b 84 bd 37 f6 c5 bc 79 cb 87 3e 38 e6 08 bd
       -0.06447553 -0.024165256 0.26522425 -0.03342268
0003b0 a8 45 49 be 81 e7 eb bd e3 48 79 bc 78 d3 8f 3e
       -0.19655478 -0.11518765 -0.015215131 0.28091025
0003c0 34 f6 cf 3d f7 05 37 3e 5d 60 32 be c0 09 33 3d
       0.101543814 0.17873369 -0.17419572 0.04371047
0003d0 48 40 13 bd 5e 9b e7 bd e1 cf 7c 3e c2 a6 a4 3c
       -0.035949975 -0.11308931 0.24688675 0.020099048
0003e0 c9 19 3d be 89 58 17 3e c9 e6 d9 bd 5c 9d 8e be
       -0.18466868 0.14779867 -0.10639722 -0.2785443
0003f0 c9 fb 05 be 6e d0 2e bd 11 9c a8 bd f6 f7 8e 3d
       -0.1308433 -0.042679243 -0.08232892 0.069808885

conv2.bias f4 [32]
000000 41 1d d4 bc f5 22 04 bb 28 26 de 3a 3a 25 a1 3c
       -0.025892856 -0.0020162438 0.0016948627 0.019671071
000010 45 9e 71 3c ec fe 97 3c 4a dc 11 bd 91 31 09 3d
       0.014747207 0.018554173 -0.035610475 0.033494536
000020 a1 8a 11 3d 00 7e 0f bc 7c bc 91 bb c6 da c2 bb
       0.035532597 -0.008758068 -0.004447518 -0.00594649
000030 9a 88 cd 3b 9e 7d f3 3c 6e 98 91 bc cf 76 30 bd
       0.0062723877 0.029722985 -0.01777288 -0.043082055
000040 0d 37 a3 3b ed 34 a0 bc 3d 4b e8 3c 1e 38 26 bb
       0.004980928 -0.019556487 0.028356189 -0.0025363038
000050 0f 7d 0a bd c2 6e 77 bc aa 62 17 bd 19 c4 32 3d
       -0.03381067 -0.01510209 -0.036959328 0.043644045
000060 a4 8a 39 3c e1 a1 e8 3c 94 3f ad bc fb 9d 9e 3c
       0.011324558 0.028397502 -0.02114848 0.01936244
000070 b8 4c b0 3c 56 d1 00 bc 15 b6 3f 3c ba ea 56 3c
       0.021520957 -0.00786241 0.011701127 0.013117487

conv2_bn.weight f4 [32]
000000 eb d5 8e 3e 18 41 af 3e a4 3e 02 3f e3 75 44 3f
       0.2789758 0.3422935 0.5087683 0.7674238
000010 17 85 9d 3e 5e 0f c6 3e c5 b7 93 3f b6 42 08 3f
       0.30765602 0.386836 1.1540457 0.5322679
000020 bb 15 c9 3e cb b6 98 3e 2a bd 02 3f cc e9 32 3f
       0.39274392 0.2982696 0.5106989 0.69887996
000030 f9 0d 95 3e 15 6d 5c bc 57 42 c7 3e 25 39 ff 3e
       0.29112223 -0.013453742 0.389178 0.49848285
000040 1b 5a 14 3f cc 4d eb 3e 3d 6f 2c 3f 87 5b 23 3f
       0.5794999 0.45957792 0.67357236 0.63811535
000050 7a 39 53 3f 3d b8 b7 3e 57 a5 48 3f 2c 44 8d 3e
       0.8250958 0.3588275 0.7837729 0.27591074
000060 9e 83 f8 3e 1c d4 47 3f f4 91 06 3f 6f 12 ab 3e
       0.48537916 0.7805803 0.52566457 0.334125
000070 18 f7 55 3f 8a a8 61 3f 98 8e f7 3e c1 ea a6 3e
       0.8358016 0.88147795 0.48350978 0.32600978

conv2_bn.bias f4 [32]
000000 1b 42 1c be fe 73 92 be 38 a6 d9 bd 30 6d dc bd
       -0.15259592 -0.2860412 -0.10627407 -0.10763013
000010 e2 b9 2f be 21 e3 96 be 03 2e 24 bd bd ab 7b be
       -0.17160752 -0.2947016 -0.040082943 -0.24577232
000020 48 bf 99 bd cf 7a 2e be 83 1e 72 3c 80 67 1f 3d
       -0.07507187 -0.17039035 0.014777782 0.038917065
000030 e0 a1 10 be 63 a0 95 bd 0c 03 51 3d 17 ab bd 3c
       -0.1412425 -0.07305982 0.051028296 0.023152871
000040 ec 70 b2 be dd f4 a6 bd c1 3b c8 3a 12 40 12 3c
       -0.34851778 -0.08152173 0.0015276597 0.008926408
000050 bc 21 8d bc a0 8d 7c be 6d ba a2 3d e2 a0 98 3d
       -0.017228 -0.246634 0.07945714 0.07452561
000060 f8 46 58 be b5 20 e2 3b ac 6a ec bb 1e 4f 86 be
       -0.21120822 0.0069008716 -0.0072148647 -0.26232237
000070 05 a7 dd 3b 35 f7 35 bd c7 1d 58 3d cd 6c eb 3b
       0.006764295 -0.044425208 0.052762773 0.007184601

conv2_bn.running_mean f4 [32]
000000 5c de 16 3f a0 be 8f be 37 bd 11 c0 28 a8 5e bf
       0.58933043 -0.28075123 -2.2771738 -0.86975336
000010 0a 01 55 3f 63 2c 24 bf a7 71 57 3d 9b bb ac 3f
       0.8320471 -0.6413023 0.05259862 1.3494753
000020 01 8e e1 3f 62 a3 76 be 1d f8 70 bf 97 8d ed bf
       1.7621461 -0.24085763 -0.9412859 -1.8558835
000030 5e 13 4a bf 19 99 c6 bd 99 e0 03 c0 24 83 06 c0
       -0.789358 -0.0969717 -2.0605834 -2.1017542
000040 10 f4 c5 3f 4c 01 e1 be b1 e3 05 c0 05 04 25 bf
       1.5465107 -0.43946302 -2.0920222 -0.6445926
000050 41 ad e0 bf 7c cc 0b bf a7 c4 36 c0 96 80 c9 3f
       -1.7552873 -0.54608893 -2.8557527 1.5742366
000060 ab 40 a1 be 28 e7 95 bf cc 00 2d be 9a a3 da bd
       -0.3149465 -1.1711168 -0.16894835 -0.10675736
000070 cf 48 8d bf 9f 6e 86 bf 73 98 00 bf 79 20 bd bf
       -1.1037844 -1.0502509 -0.5023262 -1.4775535

conv2_bn.running_var f4 [32]
000000 03 f2 99 40 ff d6 b6 40 6b 4f 0e 41 8e c4 75 41
       4.8107924 5.7137446 8.894389 15.360487
000010 39 1b 95 40 7f d0 9c 40 94 08 b5 41 76 14 1c 41
       4.659573 4.900451 22.629189 9.754995
000020 40 bf c7 40 3f fd 93 40 34 44 0f 41 f9 83 8e 41
       6.242096 4.624664 8.954151 17.81444
000030 fb 86 7a 40 20 78 79 3e 39 42 94 40 cc 98 3f 41
       3.9144886 0.2436223 4.633084 11.974804
000040 1c ef 5e 41 fc 2d ae 40 75 0c 42 41 6c d5 24 41
       13.933376 5.4431133 12.128041 10.302105
000050 40 fd 8b 41 fa 0d 64 40 bb f6 a9 41 09 cc 47 40
       17.498657 3.563353 21.245474 3.1218283
000060 7f 01 ec 40 af 43 3b 41 81 0e cc 40 cb 22 1c 40
       7.3751826 11.704024 6.3767705 2.4396236
000070 05 76 a9 41 1a 03 6a 41 9b 9b d2 40 4e 61 55 40
       21.182627 14.625757 6.581495 3.334064

conv3.weight f4 [32, 32, 4, 4]
000000 5d e2 af bd a3 c6 a5 3e e1 6b 60 bd e7 e9 91 be
       -0.08588097 0.3237811 -0.05479038 -0.28498766
000010 61 ed 9e be 40 2b 86 bd b0 b1 07 3e 99 96 a9 3d
       -0.3104048 -0.06551218 0.13251376 0.08280677
000020 ec ca de be c6 f8 9d 3d 42 de c0 bd ff 25 e1 be
       -0.43514192 0.077134654 -0.09417392 -0.439743
000030 70 f4 ac bc c9 d0 88 bd b3 dc 5a 3d 8a c0 82 3d
       -0.02111265 -0.066804476 0.05343313 0.0638438
000040 49 5c ca bc 8a 9b 9e 3e 85 99 3e 3e 92 67 51 be
       -0.024702208 0.30978042 0.1861325 -0.20449665
000050 b2 32 7e be 35 5f cc be ee 1b 12 3e 9a a7 78 bc
       -0.24824026 -0.39916387 0.14268467 -0.015176678
000060 25 41 bf be 20 af a2 3c 77 34 6a bd e0 6c 37 be
       -0.3735439 0.019858897 -0.05717894 -0.17912626
000070 04 45 31 be d5 11 f6 3e dc a7 d1 bb 38 95 1f be
       -0.17311484 0.4806048 -0.006398184 -0.15584266
000080 20 be 9c be 81 4b 65 3e 1a 98 a6 be f5 59 aa bc
       -0.30613804 0.22392084 -0.3253792 -0.020794848
000090 55 77 aa 3c 44 58 e8 be f9 5b 01 3d f1 1c b1 3e
       0.020808855 -0.4537984 0.031581853 0.34592393
0000a0 f0 b7 bd be 80 5e 69 3e 73 3c b2 bd 37 dd 25 be
       -0.37054396 0.22789955 -0.08702936 -0.16197668
0000b0 56 f1 70 3e 6e 01 a6 bd f3 3f 6b be dc a6 b7 bd
       0.23529562 -0.081057414 -0.22973613 -0.08967373
0000c0 48 95 7c 3d 9f 44 c0 be 72 d5 c9 bd 92 a8 7f be
       0.061665803 -0.37552354 -0.098551646 -0.24966648
0000d0 90 d2 43 3e 9f 81 9b be 8c a8 9a be 23 02 12 be
       0.19123292 -0.3037233 -0.30206716 -0.14258628
0000e0 e9 88 25 3f 93 89 8b 3e 3c f9 ca bb 27 98 ff 3d
       0.64662033 0.27253398 -0.006194262 0.12480193
0000f0 80 81 a4 3e f9 a9 01 bf d8 70 ac be 08 fa 88 be
       0.3213005 -0.5064998 -0.33679843 -0.2675326
000100 d4 f7 d4 3e 9c 47 73 be 30 20 79 be 8e 8e 9b bb
       0.41595328 -0.23757786 -0.24328685 -0.0047472185
000110 d2 db f5 be 43 6b a8 3e 7f 52 8c be db 09 36 be
       -0.48019272 0.32894334 -0.2740669 -0.17777197
000120 d3 3a 15 bf 9d 8b 6b bd 70 6a fd 3d db 00 8d 3e
       -0.58292884 -0.057506192 0.12373817 0.27539715
000130 0b a9 10 3e 54 3e e7 3d 05 e1 97 3d eb db b7 bd
       0.14126985 0.11291185 0.07415966 -0.08977493
000140 b9 9d 12 bb 0a bb f1 bc 5c 34 90 3e 27 2e 15 3e
       -0.0022371842 -0.029508132 0.28164947 0.14568387
000150 5e 28 68 3c ee be 2f be f0 db 93 bb f9 27 65 be
       0.014169781 -0.17162678 -0.0045123026 -0.2237853
000160 6b f5 db be 24 ae 18 be b4 38 67 3d f3 9d ce bd
       -0.42960677 -0.1491018 0.05645056 -0.1008872
000170 c0 f9 38 be f7 83 98 be 11 82 9b 3d 17 45 e3 bd
       -0.18064022 -0.2978818 0.075931676 -0.11097162
000180 da 12 18 3e 1a 36 68 be d2 54 60 3c e7 29 f9 bd
       0.14850941 -0.22676888 0.013692098 -0.12166195
000190 6e fd e5 3d aa d7 a7 bc b4 54 d3 bc 23 2d 46 3c
       0.112299785 -0.020488579 -0.025797226 0.012095722
0001a0 a3 c6 12 be af 84 0e be a9 19 9d be fd 2b df bc
       -0.14333586 -0.13917802 -0.3068364 -0.027242655
0001b0 12 5b 1d bc 26 85 e1 3c 0f 72 a2 3e 2e 65 f5 bd
       -0.009604232 0.02752931 0.31727645 -0.11982189
0001c0 01 61 21 bd 15 78 0d 3e f2 2a 5f bd 53 bc 2b 3c
       -0.03939915 0.13815339 -0.054484315 0.010481912
0001d0 91 23 30 be c8 4c e7 3c b9 85 b1 be ef c2 0c 3d
       -0.17201068 0.028234854 -0.34672335 0.03436559
0001e0 63 0a 59 be 61 77 8b 3d 85 98 57 bd 00 d7 bb be
       -0.21195368 0.06809879 -0.05263569 -0.3668747
0001f0 c1 3b 61 3e 97 6d 70 bc 24 dd 56 bd 5f 39 b9 bc
       0.2199545 -0.014674566 -0.05245699 -0.022610364
000200 c3 00 53 bd d6 27 b9 be 21 34 9e bd c4 5a d9 bb
       -0.0515144 -0.36163205 -0.077247865 -0.0066331346
000210 6a 6a ed bc 21 98 fc bd 69 2b 3f be 46 23 c6 3c
       -0.028981406 -0.12333704 -0.18668903 0.024186742
000220 40 69 c0 be 78 8d 55 3a 0a b7 0c 3f 85 96 86 3c
       -0.375803 0.00081463857 0.54966795 0.016429195
000230 40 68 4b 3e 09 b8 3c be ba 0e 8e be d1 81 43 be
       0.19863987 -0.18429579 -0.2774561 -0.1909249
000240 87 fc d5 3e 7d ee ae be 96 44 68 3e 03 39 97 be
       0.41794226 -0.34166327 0.22682413 -0.29535684
000250 51 9f ea bd 32 ff c8 be 41 46 a3 bd c2 4d ab be
       -0.114561684 -0.392572 -0.07972384 -0.33457762
000260 a1 44 09 be f2 50 c0 bd 19 91 8f 3e 32 5f d4 bd
       -0.13405086 -0.09390439 0.28040388 -0.103697196
000270 00 01 e4 3d 3c 35 ef bd ff e1 f6 3b a2 92 33 3e
       0.11133003 -0.116800755 0.007534265 0.17536405
000280 77 43 7e 3e 3e d8 f0 bd 1e f8 02 be 40 39 cf bd
       0.24830423 -0.11759995 -0.12789962 -0.101183414
000290 dc ec 2b bd 2f b8 90 be 69 57 1f bd 3f dd ad bc
       -0.041973934 -0.2826552 -0.03890172 -0.021223662
0002a0 59 b7 a5 3e 44 eb 6b be 84 9e e9 3c d2 b2 aa 3d
       0.32366446 -0.23038965 0.028517969 0.083348885
0002b0 76 45 78 bb c0 0c 83 bc b4 ac bf be d8 b0 aa be
       -0.0037883199 -0.01599729 -0.3743645 -0.33338046
0002c0 6f 15 a1 3e f8 39 ec bc 7f 20 aa bd 5c cc 96 3b
       0.31461665 -0.028836235 -0.083069794 0.0046019983
0002d0 89 8c da 3d 25 3f 15 3e 2d 34 3e be d5 c1 95 be
       0.10671336 0.14574869 -0.18574591 -0.29249445
0002e0 4f a8 81 3d c1 cf 50 be 0c 2c 9f be 57 66 d6 be
       0.063309304 -0.20391752 -0.31088293 -0.41874954
0002f0 28 0c 66 bd a0 7a f1 3d dd 9e 0e bc 9b 99 7d be
       -0.056163937 0.11790967 -0.008704868 -0.24765627
000300 b8 c6 d7 3c ec cf 33 3d e2 0c 7c 3e e9 8e 37 be
       0.026339874 0.04389946 0.2461429 -0.1792561
000310 32 98 0f 3e 31 93 aa bd 68 f8 6b be a2 b6 73 3e
       0.14022902 -0.08328856 -0.23043978 0.23800138
000320 e6 64 83 bc a9 ba 45 3d 55 98 dc 3d ac 18 3a 3e
       -0.016039323 0.048273716 0.107712425 0.18173474
000330 47 9b e2 bc f1 e5 17 be cb 3b 26 3e 32 77 28 3e
       -0.027661933 -0.1483381 0.16233747 0.1645172
000340 ab 04 d3 3b 6c 94 52 bc 2d 4b 24 bd a8 e3 79 3b
       0.0064397654 -0.012852769 -0.040110756 0.0038130078
000350 04 a6 d6 3b ee 82 8c bc 3c 16 24 3b de 90 f2 3c
       0.0065505523 -0.017152276 0.0025037667 0.029610094
000360 bd ca 72 3c 9d 48 1b bd 00 9f 85 bc 1d 6b 2c bc
       0.014818844 -0.037911046 -0.016311169 -0.010523585
000370 8c 92 13 bd 32 fb 36 3d 65 dc 72 3c da 31 34 bd
       -0.03602843 0.044673152 0.014823054 -0.043992855
000380 85 8e 9c be c4 60 8d 3e a5 07 49 3e 30 9d 30 be
       -0.30577484 0.2761289 0.19631822 -0.17247462
000390 22 60 8f 3d 11 f6 0d 3d 38 66 8f 3e 80 28 29 3e
       0.07000758 0.034658495 0.28007674 0.16519356
0003a0 1b fb 16 be b9 ed 58 bd c7 31 4b bd 61 0a 92 be
       -0.14744227 -0.052961085 -0.04960802 -0.28523543
0003b0 91 fe 9b 3d d8 8c 22 be 62 48 73 bd e5 3c 65 3e
       0.07616914 -0.1587404 -0.0593952 0.2238651
0003c0 a0 ca e9 3c 2e cb 4e 3d 94 d4 0b 3e 76 ab fd 3d
       0.028539002 0.050486736 0.13655311 0.12386219
0003d0 1e 2c cb bc 34 e1 27 3e f9 bc fe bd 03 dc 74 be
       -0.02480131 0.16394502 -0.124383874 -0.23912053
0003e0 9a cd 1f 3e bb 35 47 be 40 c2 a0 be 4f 28 af be
       0.15605775 -0.1945409 -0.313982 -0.3421044
0003f0 d3 8d da bc 81 43 cc bc 08 a3 4f 3c db 85 3a be
       -0.026678955 -0.024934532 0.012673147 -0.18215124

conv3.bias f4 [32]
000000 a1 8b 07 3d b8 7e c6 ba 6f d3 ed 3c ff c0 b8 bc
       0.033092145 -0.0015143966 0.029031483 -0.022552965
000010 30 f7 16 bd 28 19 2a bd 44 64 87 bb 0a 66 02 3d
       -0.03685683 -0.041527897 -0.0041318256 0.031835593
000020 8a f7 01 bc 10 19 4c bc ce 74 e0 3c 81 93 de 3c
       -0.007932553 -0.012457147 0.027399447 0.027169945
000030 98 a0 8d bc e3 d7 df ba f8 b7 1e bd ba 96 dd ba
       -0.017288491 -0.0017077889 -0.038749665 -0.0016905882
000040 e9 af 9d 3c 0b 8a 46 3c 37 95 af 3b b4 e9 47 bc
       0.01924892 0.012117873 0.005358364 -0.012201715
000050 e4 78 ed bb 80 4b 06 3d 38 f7 b5 3c 85 aa a2 bb
       -0.0072470773 0.032786846 0.02221261 -0.004964175
000060 0c d9 dd 3b 2e cd ec 3c e5 c9 32 3a 08 24 17 bc
       0.006770259 0.028906431 0.0006820246 -0.009224899
000070 35 f3 10 bb 33 06 ed bb 0d 50 91 3c 1f 7c 2c 3d
       -0.002211762 -0.007233405 0.017738366 0.04211056

conv3_bn.weight f4 [32]
000000 3d 5b 42 3f 75 eb 82 3f db 79 f8 3e c6 e2 04 3f
       0.7592047 1.0228106 0.48530468 0.5190853
000010 45 f0 0a 3f 33 c3 06 bf eb f6 33 3f 7b 39 21 3f
       0.5427287 -0.526416 0.7029864 0.62978333
000020 ef be 04 3f 29 5b 7b 3f a2 41 38 3f 79 b9 5b 3f
       0.5185384 0.98185974 0.7197515 0.85829884
000030 37 2e cb 3e ac d9 1c 3f a6 55 35 3f 5b c0 96 3f
       0.39683697 0.6126964 0.70833814 1.1777452
000040 f9 a9 6f 3f e0 7c 0e 3f 5d 2c ff 3e c4 92 ff 3e
       0.9361873 0.55659294 0.49838534 0.4991666
000050 06 b8 14 3f 0e 52 12 3f 4b ad a7 3f 03 97 fd 3e
       0.580933 0.57156456 1.309976 0.49529275
000060 d5 10 0e 3f 1a 4a 2f 3f ae ee 33 3f 89 e9 10 3f
       0.55494434 0.68472445 0.7028607 0.56606346
000070 65 03 04 3f 9d 46 13 3f 5d db 08 3f 91 44 95 3f
       0.5156768 0.5752962 0.5345972 1.166155

conv3_bn.bias f4 [32]
000000 81 cc 7b be 43 f5 46 3c 0d 1d a7 be 9a ff 98 be
       -0.24589731 0.012143436 -0.3263935 -0.2988251
000010 09 99 67 be 22 d8 69 3e 3a 2c b0 3d 1a b7 1b 3d
       -0.22616972 0.22836354 0.086021855 0.038016416
000020 8b 66 27 bc 5b 6a 2c be 6b fa 3d be 0a e9 22 be
       -0.010217319 -0.16837446 -0.18552558 -0.1590921
000030 83 ec 74 be 68 51 1c be 37 9c 7f be 47 d5 68 bd
       -0.23918347 -0.15265429 -0.24961935 -0.056844022
000040 6a 7d 88 bd bd 08 72 be a6 99 13 be 39 31 c6 bd
       -0.06664546 -0.23636146 -0.14414081 -0.09677357
000050 0e 91 2a bd 12 5f 82 be a9 7e e6 bc 1e 40 5d bd
       -0.04164224 -0.25463158 -0.028136568 -0.054016225
000060 9b f6 7e be 0c 4a 77 3d ff 1c 63 be 9f 3a a6 be
       -0.2489876 0.06037335 -0.2217903 -0.324666
000070 a5 e3 66 be 03 b2 89 be 34 c9 bc be 4a 98 08 3a
       -0.22547777 -0.26893625 -0.36872256 0.0005210681

conv3_bn.running_mean f4 [32]
000000 2d bc 84 c0 5b f8 01 bf 41 14 1e 3d 75 6f 49 c0
       -4.1479707 -0.50769585 0.038593534 -3.1474278
000010 35 19 6e c0 a8 60 46 40 0a 58 ef 3f ad db dc be
       -3.7202885 3.0996494 1.8698742 -0.4313635
000020 81 0f 1d c0 e8 b2 02 c0 8f 16 e3 3b d1 1c 6d 40
       -2.4540713 -2.0421696 0.0069301794 3.7048838
000030 4a 66 0d 3f f4 cd 37 c0 34 2e df be 01 a3 21 bf
       0.55234206 -2.8719454 -0.43589938 -0.6313935
000040 cb 0e b7 3f 52 02 ff bf 5d b5 de c0 ef 9c 42 40
       1.430139 -1.9922583 -6.959639 3.0408285
000050 aa 80 19 40 35 68 6b bf 60 07 62 bf d0 eb 3a c0
       2.398478 -0.9195588 -0.88292503 -2.9206429
000060 9f ad 11 c0 35 8e 5c c0 31 e9 ca 3d 93 ce 15 c0
       -2.276222 -3.4461796 0.09907759 -2.3407333
000070 83 dc 15 c0 bb df 6b bf c0 8c ad bf 57 fe c2 3e
       -2.341584 -0.9213826 -1.3558578 0.3808467

conv3_bn.running_var f4 [32]
000000 ab 72 b3 3f a2 a0 18 40 d3 4d 01 40 f5 dc 09 40
       1.4019369 2.3848042 2.020375 2.1541111
000010 f3 14 99 3f da ca 24 40 14 dc 06 40 1a 03 de 3f
       1.1959518 2.574881 2.1071825 1.7344697
000020 67 31 90 3f 4f 51 19 40 e3 d8 77 40 4c 98 2e 40
       1.1265076 2.3955877 3.8726127 2.7280455
000030 0d d6 8c 3f 3f ac f0 3f b5 9c fc 3f b6 5a 5f 40
       1.1002823 1.8802565 1.9735323 3.4899116
000040 5a 32 46 40 09 e6 80 3f 7d 61 bc 3f d6 a1 f8 3f
       3.0968232 1.0070201 1.4717251 1.9424388
000050 9d 72 c0 3f f7 f4 f6 3f d0 41 99 40 5e 74 93 3f
       1.5034977 1.9293507 4.7892838 1.1519887
000060 c6 0e 1b 40 f8 ad ca 3f 91 83 b0 3f cf e5 07 40
       2.4227767 1.5834341 1.3790151 2.1234014
000070 7a 22 f4 3f 47 c1 09 40 34 10 f3 3f 93 ff 4e 40
       1.9073021 2.1524217 1.898932 3.234349

linear1.weight f4 [32, 6272]
000000 e9 d7 b8 bd b8 8b c4 bd aa 1f 2e be 4e a0 a3 bd
       -0.090255566 -0.09596962 -0.17004266 -0.0798956
000010 ad 71 95 3d f6 e6 c4 bc 80 87 e2 ba cd c5 54 3d
       0.072970726 -0.024035912 -0.0017282814 0.05194645
000020 54 7d 72 bc 51 05 e8 3d 90 99 af bd 9a cc 1b 3d
       -0.014800388 0.11329139 -0.085742116 0.03803692
000030 51 67 93 be c5 d9 ea 3d bb d1 ab 3c 14 0c 2b bd
       -0.28789762 0.114673175 0.02097403 -0.041759565
000040 73 e6 12 be 8f 0f b3 bb 5d ed ae bb f4 f4 25 bc
       -0.14345722 -0.005464501 -0.0053383545 -0.010129202
000050 cc e9 0c 3e 34 fb 51 bb 51 6a 40 3e 2a 97 c8 bd
       0.13761061 -0.0032040598 0.18790556 -0.09794457
000060 1b 4d 0f bc bd 0a 00 be f6 c4 cf 3c bc 22 e1 bb
       -0.008746411 -0.12504096 0.025362473 -0.0068705957
000070 5a 66 1c 3d 10 63 ca 3d e9 2a 11 be 7a 7e 68 be
       0.038183548 0.09882176 -0.14176525 -0.22704497
000080 2a 6a 8e be 42 4f 53 3d 56 18 6a bb bf 12 46 3e
       -0.27815372 0.051589258 -0.0035720072 0.19343089
000090 7f 33 b6 3d 54 56 a6 3b af e0 15 3d c1 d3 b4 bd
       0.08896541 0.005076209 0.036591228 -0.08829451
0000a0 08 0a 36 3e d3 57 ae bc 91 42 91 bd 7d ea 1f 3e
       0.17777264 -0.021282112 -0.07092775 0.15616794
0000b0 48 a5 ce be 2a f1 bf 3d a4 9a db bd 0c 1d 0c bd
       -0.40360475 0.0937217 -0.10722855 -0.03420739
0000c0 a4 cb ba 38 65 de 02 3f cf f5 16 be c9 42 b5 be
       8.907102e-05 0.511206 -0.14742206 -0.35402516
0000d0 b5 10 2a be a6 fb 6e 3c 41 38 04 3e bb e2 1b 3e
       -0.16607936 0.014586365 0.12912084 0.1522321
0000e0 02 aa 96 bd bb b6 83 bd 2f 89 9a be 2e ba 93 bd
       -0.07356645 -0.064313374 -0.30182788 -0.07213245
0000f0 1f 8d 5d be 22 64 5b 3c c3 db 1d 3e f5 d1 90 3d
       -0.21635865 0.013390573 0.15415864 0.07071296
000100 89 31 7d be 21 f5 ef be c8 71 f5 3d 2a 29 00 be
       -0.24725927 -0.46866706 0.11984593 -0.12515703
000110 4a c9 cf 3d 56 7a fa bd 86 e3 e7 bd 2c 26 97 be
       0.10145815 -0.12230365 -0.113226935 -0.2952131
000120 86 93 37 3c d1 45 fa 3d a8 65 59 bd ea ee 26 be
       0.011204606 0.12220348 -0.053075463 -0.16302076
000130 da 56 56 be 29 5f 2c 3e 5e 61 0c bd 96 f6 16 3e
       -0.20931569 0.16833176 -0.034272544 0.14742503
000140 88 77 18 3e 28 47 06 be 7f 69 43 bd 71 53 d6 bd
       0.14889348 -0.13113081 -0.04770803 -0.10465134
000150 33 2c 5a be e2 fa a0 bd b4 c7 c6 3e 35 a6 c0 ba
       -0.21305923 -0.07860352 0.38824236 -0.0014697971
000160 32 e0 52 be 7a 97 0c be b3 f0 1b be 92 a7 c8 3d
       -0.20593336 -0.13729659 -0.15228538 0.097975865
000170 32 24 0c 3e 26 3f d8 bd 6c 4f 9e 3c 5b ea a0 bd
       0.13685682 -0.105589196 0.01932498 -0.078572
000180 4a 57 88 bc 40 43 27 bc 96 5b 00 3e d3 45 00 be
       -0.016643185 -0.010208905 0.12534937 -0.12526636
000190 85 58 cc bd 27 47 39 3d ce 75 1b 3e 95 b3 04 3e
       -0.09977821 0.04523387 0.15181658 0.1295913
0001a0 18 1a 1e be e7 03 85 be e8 6a b6 3e d0 b3 80 bd
       -0.15439641 -0.2597954 0.35628438 -0.062842965
0001b0 21 4f 0e 3d a4 94 b7 3d 24 fa 2c bd 36 16 44 3d
       0.034743432 0.08963898 -0.04223074 0.047872745
0001c0 2e 0b 01 be 29 6e b3 be 97 50 8c 3d 1d d8 e8 3c
       -0.12601921 -0.35044983 0.06851309 0.028423363
0001d0 5b c6 e6 be 5c 1f 32 bd 2f 98 4e 3b e9 c5 97 bd
       -0.45073208 -0.043486938 0.0031523814 -0.07410795
0001e0 4b 8c b4 3c 24 5b 75 3e 22 f4 5f 3a 0e ad 25 bd
       0.022039553 0.23960549 0.00085431535 -0.04044824
0001f0 d5 fc ed 3c 8a 0c ae bc c3 48 59 be 54 89 9d bd
       0.029051224 -0.021246213 -0.21219163 -0.07692209
000200 e8 34 ce 3e ab 32 5b be a9 a5 09 bd 61 8a 2d bc
       0.4027474 -0.21406047 -0.03360525 -0.010592074
000210 8d 63 81 bd de a0 2e bb 16 be e5 bb 55 83 a9 bd
       -0.06317816 -0.0026646177 -0.0070111854 -0.08277003
000220 39 0a e2 bd 56 af bf 3c 78 5b c9 bc f2 5e 17 3d
       -0.11037106 0.023399036 -0.024579749 0.03695578
000230 02 b0 d1 bd 0b 9b a5 be 88 a7 d2 3d 5a 37 ad 3c
       -0.10238649 -0.3234485 0.1028586 0.021144558
000240 9a cf 72 3c fa 21 16 3c bc 47 3d 3c a3 93 aa bd
       0.014820004 0.009163374 0.011552747 -0.08328941
000250 c1 a5 fa 3c 4f 56 97 3d 7a bc 88 bc e9 aa 06 bd
       0.030596616 0.07389509 -0.016691435 -0.032877836
000260 70 ac 77 3d 42 12 33 3e b7 da 64 be 6b 92 ec bd
       0.060467184 0.17487434 -0.22349058 -0.115513645
000270 89 51 52 3d 0b 73 04 bd 53 e0 88 3d ea e7 5d bd
       0.05134729 -0.032336276 0.066834114 -0.05417625
000280 91 37 5b bd 27 cd f7 bb 72 aa c6 3a d1 60 e5 bd
       -0.05351979 -0.007562298 0.0015156998 -0.11200107
000290 38 8d 54 3d cd 75 97 bb a0 7a 47 bb 12 d4 dc 3d
       0.05189249 -0.0046221972 -0.003043808 0.10782637
0002a0 78 4a 0c 3d 85 f9 1b 3e b6 d2 77 bc 15 61 6c bc
       0.034250706 0.15231903 -0.015125921 -0.014427443
0002b0 95 f9 35 3c ad c4 22 3c 66 0b 95 bc 0f 74 83 3c
       0.011106868 0.0099345865 -0.018193912 0.016046552
0002c0 e5 f8 ff 3b 7f 1b ed bc 9a a4 bc 3c fd 67 ea 3d
       0.007811653 -0.028943775 0.023027707 0.114456154
0002d0 be 21 83 bd 8b 59 57 3c f2 d6 a4 bc af 31 c2 bd
       -0.0640292 0.013143907 -0.020122025 -0.09482133
0002e0 aa cc a5 3d b7 a0 11 bc 5c 4a 38 bb 5c e7 05 3c
       0.08095677 -0.008888415 -0.0028120494 0.008172836
0002f0 99 57 56 3c 82 83 27 3c 9f d9 3a bd 77 2c ed bd
       0.013082408 0.010224225 -0.045617696 -0.115807466
000300 b8 46 84 bd 4a a2 4a bd 7a 58 08 3d 83 b6 56 3c
       -0.06458801 -0.049471177 0.033287503 0.013105038
000310 c9 f2 05 3d e6 a3 b5 3d 50 f2 d6 bd 07 ca c1 bd
       0.03270224 0.08869152 -0.10495436 -0.09462362
000320 76 22 64 3d e6 00 37 bc 76 42 58 3e f9 3c 0b 3e
       0.055696927 -0.011169648 0.21119103 0.13597478
000330 04 0a bd bb f8 e0 69 b8 c1 64 85 3d f0 d2 06 be
       -0.005769016 -5.5761047e-05 0.06513358 -0.13166404
000340 45 2b 4e 3e 7c 7b 9a be 5f b1 1e 3e 81 e2 99 3d
       0.20133694 -0.30172336 0.15497349 0.07513905
000350 7b 4b 38 be a6 0c cd bd 77 36 9e be 01 8b 00 3e
       -0.17997544 -0.10012178 -0.30900928 0.12553026
000360 95 aa a9 3d 16 5a 83 3d 53 46 0e be 20 7e 5c bd
       0.08284489 0.06413667 -0.13894014 -0.05383122
000370 c2 a3 c5 3c 44 7e 1b 3e b4 4a 95 3e 7d f7 fb 3d
       0.024125937 0.15184885 0.29158556 0.12303064
000380 67 af 57 3e 17 09 48 be a9 79 08 be 70 3c a1 bd
       0.21063004 -0.19534718 -0.1332766 -0.07872856
000390 d2 65 79 3e 1c 43 ea bc 5c 63 6a 3e 7d 9e 0f be
       0.24355248 -0.028596453 0.22889465 -0.14025302
0003a0 62 13 9d be 9f b8 6c be ce 4f 47 3e ae 8c 62 3e
       -0.3067885 -0.23117302 0.19464037 0.22123978
0003b0 22 09 a5 bd bb c5 88 bb 78 e6 13 bc e2 83 bf bd
       -0.080583826 -0.004173962 -0.009027116 -0.093513265
0003c0 4b 6d 0a 3e e6 7a 65 3d 5d 8a 82 bc 33 a4 c4 3d
       0.13518254 0.05602541 -0.015935117 0.09601631
0003d0 64 65 0f 3d e9 04 09 3c b4 8c 88 be de 96 b4 3d
       0.035008803 0.008362987 -0.26669848 0.08817838
0003e0 76 70 86 bd 37 a8 60 bd e3 1d 05 3e 52 4c bb 3d
       -0.06564419 -0.054847922 0.12999682 0.09145416
0003f0 fe 11 1b be af 51 5f bc 06 d7 1d 3e fb 89 ed bd
       -0.15143582 -0.013630315 0.15414056 -0.11598583

linear1.bias f4 [32]
000000 7e b5 0a bc 7c d7 57 3a 25 53 09 3c fc 8d 1f bb
       -0.008466123 0.0008233709 0.00838164 -0.0024346104
000010 34 fd 3c bc 96 c4 89 3a 90 89 a1 ba bf 88 ce bb
       -0.011534978 0.0010510858 -0.0012324322 -0.0063029225
000020 1a 4c 3b bc c7 bc e4 38 df d1 f3 bb 13 9c a7 3b
       -0.011431718 0.0001090705 -0.00744079 0.005115041
000030 ae 81 77 3b 41 30 1b bb 10 5f ce bb 6a 3b c3 3b
       0.0037766504 -0.0023679885 -0.0062979534 0.0059580104
000040 f7 23 30 bc 79 d5 4d 3c 2f ef 13 bc 79 31 b5 3b
       -0.010750762 0.012563103 -0.009029194 0.0055295792
000050 85 4f c9 bb d5 1f da 39 c4 a0 ce 3b f4 ab 28 bc
       -0.0061435127 0.00041603917 0.006305786 -0.010294903
000060 87 e2 19 bc 82 7d 02 3c 86 88 99 bb c9 53 5d 3b
       -0.009392387 0.007964494 -0.0046854643 0.0033771864
000070 a7 ff 66 ba e4 5b 3a bc 4d 03 ee 3b 6d 74 dc bb
       -0.0008811899 -0.0113744475 0.007263577 -0.006727746

linear1_bn.weight f4 [32]
000000 a0 b4 0e 3e 63 6c 4e 3e f9 b2 40 3d 80 7b aa 3d
       0.1393609 0.20158534 0.04704568 0.08324337
000010 7f 58 49 3d 64 1e b2 3d 0f 4e 2a 3d 90 c9 82 3d
       0.049156662 0.08697203 0.04157835 0.06386101
000020 0b be 77 3e 8c 94 69 3e 1c bc 3c 3d 8b ad 83 3d
       0.2419359 0.22810572 0.046077833 0.06429585
000030 42 f6 80 3e e4 f7 8d 3d eb 8d bd 3d 13 c0 35 3d
       0.2518788 0.06932047 0.09255584 0.04437263
000040 91 44 20 3d ac 10 ee 3d 68 f5 1c 3d 3d 73 2c 3e
       0.03912789 0.11624274 0.038319975 0.16840835
000050 ba d2 4c 3d 36 47 02 3d 87 98 86 3e dd 4b 86 3e
       0.050005652 0.031806193 0.26288244 0.26229754
000060 83 c9 3b 3e 33 8c c9 3d 81 41 e3 3d 97 5f d6 3d
       0.1833859 0.09841194 0.11096478 0.10467451
000070 b2 bf 1c 3d b2 09 56 3d 89 fb 92 3d 77 0c e4 3d
       0.038268752 0.05225534 0.07176883 0.1113519

linear1_bn.bias f4 [32]
000000 8e c3 9b bd 16 52 c4 bd 18 c3 11 3d af d2 59 3b
       -0.076056585 -0.09585969 0.035586447 0.003323715
000010 0a a2 c5 3c fc 17 44 bd cc 29 0c 3d ca 01 18 bc
       0.024125118 -0.047874436 0.034219548 -0.00927777
000020 f6 3c d7 bd da 46 d6 bd 4f 59 b4 3c 16 17 9c 3b
       -0.10509674 -0.104627326 0.022015242 0.0047634942
000030 d4 ae c3 bd 06 f1 6d 3d 34 71 35 bd 34 68 0b 3d
       -0.0955483 0.058091186 -0.044297412 0.034034923
000040 28 4c 20 3d 60 a1 27 bd 65 dd 87 3c 65 77 5e bd
       0.03913513 -0.040925384 0.016585061 -0.054313082
000050 75 3c 0e 3d 27 2f fb 3a 86 66 ca bd f2 6e 72 be
       0.034725625 0.0019163833 -0.09882836 -0.23675135
000060 29 a9 31 be f7 1e 1e bd 1e 11 4a bd 9f f0 c7 bc
       -0.17349686 -0.03860375 -0.04933273 -0.02440673
000070 1a 48 25 3d 40 cf 8d bb 4e 40 05 bd 9b 39 ac bd
       0.040351965 -0.0043276846 -0.03253203 -0.08409425

linear1_bn.running_mean f4 [32]
000000 7f 15 ae 40 e4 00 3b c0 cb b4 0a c1 10 92 3c c1
       5.440124 -2.9219294 -8.669139 -11.78566
000010 06 21 86 c0 f3 1e 51 41 da be 91 40 40 ba 4b c1
       -4.191531 13.070056 4.5545473 -12.732971
000020 9f 91 cd c0 e9 27 49 bf 19 fa ff c0 4d 02 86 bf
       -6.424026 -0.78576523 -7.9992795 -1.0469452
000030 8d 81 5a c1 45 80 e2 40 4a 6d 6d be 24 37 cb c0
       -13.656629 7.078158 -0.23186222 -6.350481
000040 9d 46 f5 3e 6c 29 49 41 73 66 59 3f 51 4d 8e 41
       0.47905436 12.572613 0.8492195 17.787752
000050 ba 2b 41 3f cb 8c 4f c0 00 6d 74 41 b4 10 f5 c0
       0.75457346 -3.2429683 15.276611 -7.658289
000060 3c 7b 03 41 20 fa d7 3f f9 36 d9 c0 61 e1 bc bf
       8.2175865 1.6873207 -6.7879605 -1.475628
000070 e5 1e d7 40 4f 14 04 c1 1e 20 2b 41 e0 d4 ce 40
       6.7225213 -8.254958 10.695341 6.4634857

linear1_bn.running_var f4 [32]
000000 da ea 02 43 d0 65 41 43 c5 c6 98 42 7f 8f f7 42
       130.91739 193.3977 76.38822 123.780266
000010 a9 5a 23 42 23 49 c8 42 c1 e4 04 42 c6 38 91 42
       40.838535 100.142845 33.223392 72.610886
000020 4b 7c bc 43 c7 8a a6 43 40 07 9f 42 d1 d6 f5 42
       376.97104 333.0842 79.51416 122.91956
000030 45 4d c6 43 89 a1 f9 42 5f 2e c4 42 0f 13 2c 42
       396.60367 124.8155 98.09057 43.018612
000040 07 9a 1e 42 8d 8c 42 43 51 c9 1a 42 c8 9c 84 43
       39.650417 194.54903 38.696598 265.22485
000050 8c d8 b7 42 f7 05 e7 41 90 b9 6c 43 16 92 86 43
       91.92294 28.877913 236.72485 269.1413
000060 28 7d 62 43 b4 96 ff 42 45 37 ad 43 0c 48 16 43
       226.48889 127.79434 346.4318 150.28143
000070 7a 78 04 42 7a 43 88 42 d5 0c 81 42 c4 3a ca 42
       33.117653 68.13179 64.52506 101.11478
