saved_models/gear_unconstrained_2.pt (torch_old, 954435 bytes, 28 tensors)

conv1.weight f4 [32, 3, 4, 4]
-0.0091535 -0.13702807 0.049347553 0.10523011 -0.13130793 0.05580129 0.034327995 0.02293856
-0.060439974 -0.14606114 0.1095399 -0.08847405 -0.043299466 0.1274829 -0.054836 -0.12524475
-0.059999883 0.048082914 0.06877838 -0.010005033 -0.14783986 -0.05520198 0.12671217 -0.13387577
0.012499303 0.09501638 -0.08315013 -0.012688798 -0.025425902 -0.14581999 0.062188577 0.0009022056
0.11469671 -0.0018499395 -0.040699504 -0.104200505 0.069036484 -0.008691405 -0.14733416 -0.15166207
-0.08545875 0.08297362 -0.03998524 -0.059327867 0.04502626 -0.04757219 0.13123812 0.13164377
0.0022865082 0.07521571 0.111488834 0.08147171 -0.0017370969 0.087375045 0.067923196 -0.038610127
0.004272865 0.12280905 0.12191144 0.02114473 -0.06426778 0.14950813 0.14381637 0.08360913
0.10282813 0.10004034 -0.020676518 0.105146654 0.015159498 0.08431349 0.021173645 0.014272773
-0.01262722 0.12789246 0.10835393 -0.053075396 -0.08513078 0.06833226 0.01350669 -0.0662194
-0.114302 -0.07083584 -0.042538125 -0.11222881 0.15012589 0.0542569 0.1480566 -0.10042319
0.1131276 0.01687731 -0.00014062313 0.024316955 -0.08875602 -0.011642912 0.0077398014 -0.06495149
0.095232606 -0.14073057 0.082585335 0.08110269 0.024342516 -0.14534372 -0.14466795 0.08125392
-0.062155444 -0.14460732 0.059903305 -0.13831742 0.1337559 -0.009683248 -0.06799103 -0.13786803
-0.06842912 -0.03785556 0.0111785345 0.13791811 0.09623671 0.05797979 -0.0827311 -0.052302465
0.023357756 0.065936886 0.08837254 0.0139194345 0.11835136 -0.013628075 0.019166367 -0.14321706
-0.021322763 -0.0075623887 -0.109547645 -0.064110726 0.12723121 -0.1355966 0.067441195 -0.13691723
0.026805382 0.03312023 -0.10912877 0.13391548 0.10888281 -0.02451668 -0.12818168 0.035387754
-0.11330819 0.06615429 0.12931782 -0.09956734 -0.041645836 0.13485019 -0.045356024 -0.050830763
0.08342892 -0.043459173 0.11832172 0.061334644 -0.106964886 -0.033911824 0.14423555 0.02376329
-0.09075079 -0.017497534 0.11958444 -0.018392099 0.0851872 0.05882599 -0.14202273 0.14009178
0.14710213 -0.07177703 0.13873161 -0.09979292 -0.07760988 -0.032065235 -0.092743844 -0.023154175
0.11009867 -0.0118780825 -0.119733885 0.027437458 0.027624475 0.038495537 0.08229979 0.03292612
0.09429289 -0.10845478 -0.13831295 -0.12500697 0.03583866 -0.07030108 0.02231129 0.034905948
-0.09624343 -0.123355865 0.08121591 -0.10603663 0.047385298 0.09527184 0.13843842 0.0008569229
-0.0439556 0.013490141 0.081530854 0.08893652 0.00032456982 0.1134464 -0.012900325 0.07862371
-0.060385063 0.018641744 -0.13661711 0.015529152 -0.0012479199 0.14367503 -0.12743619 -0.020554783
0.080838196 -0.023636056 -0.03804636 0.06882601 0.030634604 -0.057827484 0.110807166 -0.10614955
0.05842352 0.0072050574 0.037907936 -0.081737064 -0.03922886 0.122890815 -0.027299322 0.120314956
-0.03978721 -0.0736674 0.086721905 0.026775472 0.120723225 0.07795555 0.09443752 0.019971678
0.1270025 -0.11942252 0.07697708 0.0864437 -0.024727697 -0.08589178 -0.004575557 -0.05807382
0.06574665 -0.013939837 0.10541573 -0.06399572 0.1398621 -0.015382829 0.10809965 0.12611958
00000000: 90f8 15bc 1651 0cbe a920 4a3d e282 d73d
00000010: 9675 06be e58f 643d 839b 0c3d a6e9 bb3c
00000020: e88f 77bd 0d91 15be 7556 e03d e231 b5bd
00000030: c85a 31bd e18a 023e b79b 60bd 2940 00be
00000040: 70c2 75bd 97f2 443d aedb 8c3d 26ec 23bc
00000050: 5563 17be 791b 62bd d6c0 013e bb16 09be
00000060: e0c9 4c3c f397 c23d 9e4a aabd ade4 4fbc
00000070: fb49 d0bc d651 15be 73b9 7e3d fe81 6c3a
00000080: 1ce6 ea3d ab79 f2ba 86b4 26bd 1367 d5bd
00000090: 0063 8d3d 6566 0ebc c4de 16be 4d4d 1bbe
000000a0: ff04 afbd 13ee a93d 90c7 23bd c701 73bd
000000b0: 756d 383d 0fdb 42bd 4963 063e a0cd 063e
000000c0: 3ed9 153b b20a 9a3d 4254 e43d a4da a63d
000000d0: 4daf e3ba b0f1 b23d 511b 8b3d a725 1ebd
000000e0: 6403 8c3b 5083 fb3d b4ac f93d b637 ad3c
000000f0: d39e 83bd a918 193e 9944 133e 433b ab3d
00000100: 8e97 d23d f3e1 cc3d cd61 a9bc 2157 d73d
00000110: 8b5f 783c 8dac ac3d 5a74 ad3c 59d8 693c
00000120: 66e2 4ebc 3ef6 023e aae8 dd3d 9665 59bd
00000130: 0c59 aebd c9f1 8b3d 2a4b 5d3c 099e 87bd
00000140: 2b17 eabd 6212 91bd 753c 2ebd 38d8 e5bd
00000150: 9aba 193e 7c3c 5e3d 269c 173e acaa cdbd
00000160: 71af e73d 4942 8a3c 3c74 13b9 5a34 c73c
00000170: b7c5 b5bd eac1 3ebc 299e fd3b 4905 85bd
00000180: 5009 c33d ad1b 10be 8022 a93d 2b19 a63d
00000190: f569 c73c fcd4 14be d623 14be 7568 a63d
000001a0: b596 7ebd f113 14be 2b5d 753d 15a3 0dbe
000001b0: 4ff7 083e 7ca6 1ebc e23e 8bbd 472d 0dbe
000001c0: 9124 8cbd 6f0e 1bbd 2c26 373c 683a 0d3e
000001d0: c117 c53d 377c 6d3d ec6e a9bd 1c3b 56bd
000001e0: c458 bf3c eb09 873d aafc b43d 570e 643c
000001f0: 3362 f23d 4a48 5fbc c902 9d3c 7ea7 12be
00000200: 13ad aebc eacd f7bb 845a e0bd 7c4c 83bd
00000210: e648 023e d6d9 0abe 9c1e 8a3d 0834 0cbe
00000220: f696 db3c 14a9 073d e87e dfbd 2421 093e
00000230: f3fd de3d 34d7 c8bc 0f42 03be c0f2 103d
00000240: 200e e8bd e77b 873d e46b 043e f6e9 cbbd
00000250: d394 2abd 2b16 0a3e 3dc7 39bd eb33 50bd
00000260: c8dc aa3d 3f02 32bd a852 f23d 093a 7b3d
00000270: 6810 dbbd 20e7 0abd 7cb2 133e 3bab c23c
00000280: 8ddb b9bd fd56 8fbc b0e8 f43d 07ab 96bc
00000290: a076 ae3d 85f3 703d 686e 11be 3874 0f3e
000002a0: f1a1 163e d6ff 92bd a90f 0e3e 3b60 ccbd
000002b0: eef1 9ebd d656 03bd 7cf0 bdbd d3ad bdbc
000002c0: 697b e13d 4a9c 42bc 0a37 f5bd 85c4 e03c
000002d0: b94c e23c 7fad 1d3d cb8c a83d 8add 063d
000002e0: a11c c13d 8a1d debd e9a1 0dbe d401 00be
000002f0: 8fcb 123d 03fa 8fbd 2bc6 b63c 8af9 0e3d
00000300: 471b c5bd 00a2 fcbd 8754 a63d bc29 d9bd
00000310: 1617 423d e21d c33d cdc2 0d3e 1fa3 603a
00000320: ca0a 34bd c105 5d3c a6f9 a63d 5a24 b63d
00000330: 062b aa39 9656 e83d e25b 53bc 7805 a13d
00000340: 5456 77bd 92b6 983c 5be5 0bbe fc6d 7e3c
00000350: 3e91 a3ba 8c1f 133e a27e 02be 8162 a8bc
00000360: 7f8e a53d 67a0 c1bc 80d6 1bbd a7f4 8c3d
00000370: 6cf5 fa3c 83dc 6cbd deee e23d ef64 d9bd
00000380: 804d 6f3d 6718 ec3b 5a45 1b3d c365 a7bd
00000390: 71ae 20bd 2eae fb3d d4a2 dfbc b067 f63d
000003a0: eaf7 22bd efde 96bd 419b b13d 3c58 db3c
000003b0: bd3d f73d 29a7 9f3d 7568 c13d a59b a33c
000003c0: f20c 023e cb93 f4bd 29a6 9d3d 6509 b13d
000003d0: bd91 cabc 08e8 afbd 8eee 95bb d0de 6dbd
000003e0: 2ea6 863d ea63 64bc 34e4 d73d 3010 83bd
000003f0: 0338 0f3e 4308 7cbc 5963 dd3d 7e25 013e

conv1.bias f4 [32]
0.054932214 -0.13871601 0.13500132 0.06555079 -0.023124577 0.12729158 0.030219043 0.047635127
-0.06610998 -0.07376617 -0.074001625 -0.049363393 0.060529947 0.053687677 -0.09957175 -0.12195877
0.056037586 -0.074773885 -0.07796207 0.10381607 0.032622088 -0.10858309 -0.070504926 -0.013810784
-0.086204864 0.070973456 -0.08192387 -0.09114484 -0.13509174 -0.033692256 0.08894655 0.10638003
00000000: 9a00 613d 920b 0ebe c93d 0a3e 7e3f 863d
00000010: c16f bdbc b958 023e ed8d f73c 0d1d 433d
00000020: ab64 87bd b812 97bd 2a8e 97bd 4531 4abd
00000030: 40ee 773d 9ce7 5b3d 46ec cbbd 85c5 f9bd
00000040: ab87 653d 0d23 99bd 94aa 9fbd 859d d43d
00000050: bd9e 053d d060 debd e364 90bd a046 62bc
00000060: 2d8c b0bd 885a 913d b4c7 a7bd 25aa babd
00000070: 7d55 0abe e400 0abd 9c29 b63d c6dd d93d

conv1_bn.weight f4 [32]
0.69931185 0.63597333 0.10797527 0.058427554 0.3017421 0.6010775 0.28356528 0.46933034
0.13927439 0.29533315 0.23850395 0.9006237 0.6081596 0.60187405 0.2291941 0.41531393
0.92418367 0.48958218 0.72230566 0.45422462 0.74862814 0.7539045 0.49898237 0.8702306
0.21280852 0.45143095 0.20217064 0.8791343 0.85351425 0.091753654 0.5618558 0.71432734
00000000: 1a06 333f 26cf 223f 2322 dd3d bb51 6f3d
00000010: f17d 9a3e 37e0 193f 782f 913e 114c f03e
00000020: f29d 0e3e e835 973e 613a 743e 468f 663f
00000030: 59b0 1b3f 6b14 1a3f dcb1 6a3e 07a4 d43e
00000040: 4d97 6c3f 84aa fa3e 06e9 383f 2190 e83e
00000050: 18a6 3f3f e3ff 403f 9e7a ff3e 6fc7 5e3f
00000060: 7aea 593e f521 e73e d205 4f3e f20e 613f
00000070: e97f 5a3f 57e9 bb3d c8d5 0f3f 28de 363f

conv1_bn.bias f4 [32]
0.014949566 -0.0023926597 0.0032493472 0.005513591 0.006788644 0.0042657834 0.002776762 -0.008550139
-0.00026747622 0.005667571 0.011079188 -0.005378842 0.007973526 0.00025477886 -0.0077863275 0.0030886445
0.0029791603 0.011733544 0.008626152 -0.013557796 0.0062899897 0.0010240605 0.001220783 -0.012491603
-0.004236086 0.0076347534 0.0021757984 -0.01128159 0.004188884 -0.006999734 0.00044385347 -0.0076000155
00000000: 06ef 743c 2bce 1cbb 00f3 543b 5bab b43b
00000010: 4673 de3b fcc7 8b3b 56fa 353b e215 0cbc
00000020: 0d3c 8cb9 08b7 b93b 7c85 353c ff40 b0bb
00000030: 64a3 023c d793 8539 7324 ffbb db6a 4a3b
00000040: 043e 433b 0d3e 403c b454 0d3c 8521 5ebc
00000050: 421c ce3b c539 863a ae02 a03a 95a9 4cbc
00000060: ddce 8abb f42c fa3b d797 0e3b 6bd6 38bc
00000070: e842 893b 065e e5bb 01b5 e839 8d09 f9bb

conv1_bn.running_mean f4 [32]
-0.34121978 0.69975716 -0.09971664 0.17527649 0.42809102 0.9312578 0.29801902 0.0021253244
-0.2328492 -0.20013615 -0.44684693 -0.5502369 -0.20981619 0.9826135 -0.13892458 -0.4488891
0.5899651 0.5264984 0.68492746 -0.09534547 0.6448082 -0.06727513 -0.5313162 -0.23621209
0.24554814 0.22546688 0.23256339 -0.04975268 -0.5913146 -0.46185586 0.023061696 -0.21226044
00000000: 5cb4 aebe 4923 333f 3d38 ccbd ae7b 333e
00000010: bf2e db3e e966 6e3f f395 983e 0749 0b3b
00000020: 0570 6ebe 7ef0 4cbe 1fc9 e4be 53dc 0cbf
00000030: 0eda 56be 8f8c 7b3f 3f42 0ebe cbd4 e5be
00000040: f407 173f 99c8 063f 6857 2f3f 7c44 c3bd
00000050: 2612 253f 8bc7 89bd 5704 08bf 95e1 71be
00000060: f970 7b3e cae0 663e 1925 6e3e 77c9 4bbd
00000070: 6560 17bf 5f78 ecbe e2eb bc3c cd5a 59be

conv1_bn.running_var f4 [32]
0.008314406 0.039016575 0.0068201483 0.0025130468 0.013334118 0.03076221 0.004995985 0.0017392822
0.0051144236 0.0037516425 0.008914958 0.016832177 0.004996052 0.042446386 0.002646664 0.009861514
0.01612616 0.020571884 0.03046457 0.0044958056 0.01989158 0.0054068207 0.01238636 0.0039880006
0.008081401 0.0035374796 0.0052984376 0.0046187183 0.010630784 0.011221212 0.0027832182 0.0062966794
00000000: 2539 083c d8cf 1f3d 8d7b df3b eeb1 243b
00000010: 5877 5a3c 0801 fc3c 5cb5 a33b a0f8 e33a
00000020: e596 a73b 1ede 753b 0b10 123c a2e3 893c
00000030: ecb5 a33b 43dc 2d3d a773 2d3b 3092 213c
00000040: 021b 843c 5e86 a83c d590 f93c 8d51 933b
00000050: abf3 a23c b32b b13b 29f0 4a3c c6ad 823b
00000060: da67 043c 0fd5 673b 849e ad3b 9e58 973b
00000070: bd2c 2e3c 2dd9 373c a766 363b 6054 ce3b

conv2.weight f4 [32, 32, 4, 4]
0.02531188 0.027283171 0.027512312 -0.023459384 -0.016521191 0.044730462 -0.002779105 0.05395098
0.020175891 -0.029866528 -0.009582805 0.018260317 0.025979027 -0.046222992 0.03586256 -0.031902045
-0.020412836 -0.01378909 0.00914633 -0.025596423 0.016758773 -0.026000738 -0.0061572003 -0.0020784012
0.031576138 -0.020360041 0.032130066 0.04396963 0.036912695 -0.03488009 0.038249303 0.01598824
0.021144241 0.018693319 0.018420016 -0.034548994 -0.030536938 0.02517721 0.0029582041 0.0022840616
0.038422614 -0.002001922 -0.019288788 -0.04188916 -0.031806447 0.015611031 0.027500762 0.0051870006
-0.013939021 0.014643832 -0.013481006 -0.018391866 0.04436376 0.05313847 0.051409755 -0.03913481
0.053755593 0.03511104 0.0067583784 0.03104008 -0.016833259 0.02813585 -0.031954594 0.029065665
-0.0016236106 0.021227326 0.04692831 0.05619355 -0.025388476 -0.0030309192 0.05342276 0.022906078
-0.0060874117 0.0509433 0.0165468 0.045379393 -0.0010175114 0.050459854 0.038010936 -0.019270567
0.013034747 -0.010257591 0.012264802 0.012361526 0.035085175 0.027871495 -0.033438504 0.014281572
0.05342064 0.046770375 -0.010662853 0.020091975 0.04608586 0.0014355658 0.010414388 0.0036561762
0.040109128 0.036145676 0.02857105 0.023425516 -0.013108811 -0.009404548 -0.02653636 0.0505814
0.049333613 0.019715678 0.050552446 -0.021002728 0.05646031 -0.019070314 0.026243009 -0.011321301
-0.04097138 -0.027301613 0.046461247 0.050755672 -0.027490448 -0.010664619 0.02382039 0.017475156
-0.021961128 0.049818367 0.0033161356 0.010457667 -0.03903529 0.013616449 -0.02771044 -0.013363485
-0.035708163 0.021911737 0.008610632 -0.030926822 -0.023654217 0.010379756 0.013970106 -0.0098974835
-0.0412034 0.012407369 -0.026404247 -0.028159214 -0.007844302 -0.033710107 -0.011620021 -0.019140486
-0.004470708 -0.007287646 0.036839165 0.022702862 0.013619788 -0.01505751 0.045568947 -0.023041662
-0.012269044 -0.017422773 0.039916806 -0.006148935 0.028083712 -0.0046554212 -0.020572579 0.040323745
0.048797518 0.0037470504 -0.008302141 -0.036364235 0.036207996 -0.025935648 0.0087445555 0.020404393
-0.03122724 -0.036935333 0.041093323 -0.014894203 -0.0006742783 -0.03734959 0.018225573 0.021056801
0.0044058235 -0.0033886058 -0.018878752 0.026485905 -0.004558385 -0.010828661 0.010294293 0.0093733575
-0.028187722 -0.024176087 -0.0015533281 0.018042559 -0.008128149 -0.0121324565 0.0047236183 0.016861886
0.026469445 0.01863325 -0.013467832 -0.022911334 -0.040961757 0.014915184 0.024658846 -0.0315801
0.016549595 0.02027955 0.015798947 -0.018220443 -0.041348066 0.012357992 0.030173505 -0.0065951524
0.049851317 0.018815344 0.023331797 0.010785922 0.02267368 0.03263674 -0.024436623 0.02029921
0.014887768 0.031352207 -0.037933968 0.0018567794 0.046406396 -0.026264567 0.015818214 0.0013188953
-0.0039341096 -0.021010906 -0.04353606 0.008920382 -0.0328715 0.0008379549 -0.041195877 -0.04905247
0.008481793 -0.033065654 -0.045961637 -0.042814754 -0.041027177 0.0005900709 -0.044654045 0.012093407
-0.04982303 0.023020856 0.00012086492 -0.041438013 -0.019005723 0.0057658334 -0.0057279696 0.009447736
0.0043217954 0.017715089 -0.014206973 0.0041790516 -0.027072353 0.0043418035 -0.025628757 0.0043153726
00000000: dc5a cf3c f580 df3c 8061 e13c e52d c0bc
00000010: 7357 87bc 4a37 373d a521 36bb b4fb 5c3d
00000020: e947 a53c a6aa f4bc 3301 1dbc a996 953c
00000030: f8d1 d43c 5254 3dbd 9fe4 123d b8ab 02bd
00000040: d238 a7bc a3eb 61bc 7dda 153c 97af d1bc
00000050: b249 893c 80ff d4bc 57c2 c9bb c935 08bb
00000060: fb55 013d 1aca a6bc d19a 033d 8019 343d
00000070: c431 173d 6dde 0ebd 4dab 1c3d c5f9 823c
00000080: b036 ad3c bb22 993c 93e5 963c 3f83 0dbd
00000090: 9a28 fabc 7040 ce3c 6ede 413b 32b0 153b
000000a0: 0861 1d3d ae32 03bb 8503 9ebc f893 2bbd
000000b0: 7a47 02bd 69c5 7f3c 4749 e13c b7f7 a93b
000000c0: 7e60 64bc afec 6f3c 70df 5cbc 8aaa 96bc
000000d0: c6b6 353d b9a7 593d 0993 523d d34b 20bd
000000e0: d32e 5c3d 98d0 0f3d 6375 dd3b c447 fe3c
000000f0: e7e5 89bc 277d e63c d2e2 02bd 1e1b ee3c
00000100: 55cf d4ba eee4 ad3c e637 403d 352b 663d
00000110: 7efb cfbc 63a2 46bb d3d1 5a3d 87a5 bb3c
00000120: e978 c7bb eca9 503d 288d 873c bedf 393d
00000130: 045e 85ba feae 4e3d 5bb1 1b3d 4fdd 9dbc
00000140: b18f 553c 740f 28bc 4ff2 483c ff87 4a3c
00000150: 79b5 0f3d c352 e43c d0f6 08bd 41fd 693c
00000160: 9acf 5a3d 4b92 3f3d 3fb3 2ebc ed97 a43c
00000170: 87c4 3c3d 9829 bc3a 1ca1 2a3c 759c 6f3b
00000180: 7849 243d 7d0d 143d d60d ea3c dee6 bf3c
00000190: 57c6 56bc 8915 1abc c862 d9bc 712e 4f3d
000001a0: 0b12 4a3d c682 a13c 1510 4f3d ea0d acbc
000001b0: ed42 673d 5939 9cbc 94fb d63c fa7c 39bc
000001c0: 9bd1 27bd a2a7 dfbc 264e 3e3d 2ee5 4f3d
000001d0: a633 e1bc a7ba 2ebc fb22 c33c 0f28 8f3c
000001e0: d3e7 b3bc 580e 4c3d 8653 593b a256 2b3c
000001f0: 78e3 1fbd 8717 5f3c 0101 e3bc 85f2 5abc
00000200: b942 12bd 3e80 b33c 9c13 0d3c 3f5a fdbc
00000210: 7dc6 c1bc da0f 2a3c dfe2 643c 0e29 22bc
00000220: e5c4 28bd 4748 4b3c b84d d8bc 27ae e6bc
00000230: 6385 00bc 9c13 0abd e761 3ebc 82cc 9cbc
00000240: 047f 92bb 35cd eebb aae4 163d 5afb b93c
00000250: 8825 5f3c c6b3 76bc 81a6 3a3d dec1 bcbc
00000260: 1a04 49bc 34ba 8ebc ce7f 233d 017d c9bb
00000270: d00f e63c 818c 98bb d387 a8bc 832a 253d
00000280: e8df 473d 1391 753b b405 08bc aaf2 14bd
00000290: d64e 143d ff76 d4bc 5345 0f3c 1d27 a73c
000002a0: 45d0 ffbc 8149 17bd 7951 283d d106 74bc
000002b0: 0dc2 30ba e2fb 18bd cc4d 953c 507f ac3c
000002c0: ba5e 903b 5f13 5ebb 9da7 9abc f8f8 d83c
000002d0: 815e 95bb b26a 31bc 65a9 283c b692 193c
000002e0: f0e9 e6bc ee0c c6bc 0b99 cbba fdcd 933c
000002f0: ee2b 05bc 36c7 46bc 95c8 9a3b f021 8a3c
00000300: 73d6 d83c c2a4 983c 2ea8 5cbc 8db0 bbbc
00000310: 84c7 27bd d15e 743c 5901 ca3c 235a 01bd
00000320: 0493 873c 4d21 a63c cb6c 813c 0a43 95bc
00000330: 975c 29bd 2d79 4a3c 6d2e f73c 261c d8bb
00000340: e530 4c3d a322 9a3c 5322 bf3c 70b7 303c
00000350: 27be b93c 1aae 053d 502f c8bc 874a a63c
00000360: d3eb 733c 2c6b 003d a660 1bbd 2e5f f33a
00000370: a214 3e3d ca28 d7bc 3395 813c c8de ac3a
00000380: b4e9 80bb 101f acbc de52 32bd cb26 123c
00000390: 44a4 06bd 34aa 5b3a 02bd 28bd 3eeb 48bd
000003a0: 38f7 0a3c da6f 07bd 4542 3cbd 865e 2fbd
000003b0: 1d0c 28bd fdae 1a3a 29e7 36bd 6d23 463c
000003c0: 3c13 4cbd 3c96 bc3c dc78 fd38 e8ba 29bd
000003d0: e4b1 9bbc 51ef bc3b b1b1 bbbb adca 1a3c
000003e0: d99d 8d3b 3c1f 913c 5dc4 68bc 6df0 883b
000003f0: d7c6 ddbc b045 8e3b 66f3 d1bc f867 8d3b

conv2.bias f4 [32]
-0.008425588 0.009954321 0.0069106403 -0.030243449 -0.043608308 0.02074757 -0.008777333 -0.0146267805
0.024247052 -0.026757982 -0.0356858 -0.0025828604 0.029156184 -0.039083112 -0.0019797161 0.017081384
-0.0079536745 0.024643367 0.039091006 -0.0374563 0.017824654 -0.044107337 0.0014076672 -0.03667549
-0.021645363 0.017786674 -0.014931085 -0.021667682 0.02500754 -0.009725084 -0.04156329 0.036868714
00000000: 7a0b 0abc 7317 233c a772 e23b 1cc1 f7bc
00000010: a09e 32bd cff6 a93c cece 0fbc 2aa5 6fbc
00000020: c1a1 c63c 8e33 dbbc 462b 12bd 3545 29bb
00000030: f3d8 ee3c 9d15 20bd 20be 01bb 42ee 8b3c
00000040: 2150 02bc e3e0 c93c e41d 203d c76b 19bd
00000050: 0205 923c e5a9 34bd 7981 b83a 0a39 16bd
00000060: 9e51 b1bc 5cb5 913c 82a1 74bc 6c80 b1bc
00000070: 9ddc cc3c f555 1fbc 453e 2abd a603 173d

conv2_bn.weight f4 [32]
0.29500505 0.46603775 0.71146756 0.89044785 0.26097575 0.0119340075 0.6795083 0.81523633
0.29646862 0.21431151 0.9602947 0.6604112 0.7766375 0.8761461 0.71446496 0.61196274
0.05907448 0.37111622 0.6981796 0.92745256 0.08778018 0.29046002 0.96174365 0.83317345
0.3975399 0.2102002 0.16327697 0.6736073 0.68874323 0.79930586 0.07665875 0.35052797
00000000: e70a 973e 809c ee3e bd22 363f 64f4 633f
00000010: 9d9e 853e db86 433c 42f4 2d3f 54b3 503f
00000020: bcca 973e 7a74 5b3e e0d5 753f b510 293f
00000030: b7d1 463f 1c4b 603f 2de7 363f 97a9 1c3f
00000040: 15f8 713d f202 be3e e6bb 323f 886d 6d3f
00000050: 18c6 b33d 2db7 943e d534 763f db4a 553f
00000060: 5a8a cb3e b93e 573e 1432 273e 8771 2c3f
00000070: 7a51 303f 4f9f 4c3f 43ff 9c3d 6778 b33e

conv2_bn.bias f4 [32]
0.01912049 -0.012002978 0.007184468 -0.0006956528 0.006825423 -0.015270928 -0.0039543468 0.0022714995
-0.00022289439 -0.0052841743 -0.0032130817 0.0055829384 -0.004877088 0.011046221 0.022617424 -0.0001299675
0.018230675 -0.015050246 -0.00072196126 0.028125685 0.004208769 -0.024142202 0.010530714 -0.0001731131
-0.0038174968 0.011066273 -0.0021613606 -0.0017657967 0.003092639 0.004498809 0.0038803613 0.015773444
00000000: 93a2 9c3c 23a8 44bc b06b eb3b 785c 36ba
00000010: cca7 df3b ea32 7abc 7793 81bb 70dd 143b
00000020: c2b8 69b9 de26 adbb 9192 52bb 15f1 b63b
00000030: fbcf 9fbb 35fb 343c 2d48 b93c e347 08b9
00000040: 7f58 953c 4f95 76bc 0042 3dba d667 e63c
00000050: b7e9 893b dec5 c5bc 0489 2c3c b285 35b9
00000060: f82e 7abb 504f 353c 9da5 0dbb 4e72 e7ba
00000070: dfad 4a3b bf6a 933b a94d 7e3b 4f37 813c

conv2_bn.running_mean f4 [32]
0.24342911 0.47206107 0.09575716 0.17073712 0.10919156 -0.23545256 -0.11505762 -0.03633316
0.29433668 -0.11428282 -0.23567279 0.11708886 -0.07556321 0.19442429 0.11912838 -0.18944708
-0.11284197 -0.21737915 0.19875953 -0.25142133 0.26924884 -0.11077228 0.0013067012 0.19775847
-0.19230056 0.029714594 -0.36951205 0.23352477 0.2011098 0.07075286 -0.17244504 -0.118465744
00000000: 7b45 793e fdb1 f13e 541c c43d b6d5 2e3e
00000010: d39f df3d 7a1a 71be 54a3 ebbd 14d2 14bd
00000020: 4cb3 963e 1c0d eabd 3554 71be 49cc ef3d
00000030: e2c0 9abd 2917 473e 95f9 f33d 6afe 41be
00000040: b119 e7bd a498 5ebe 9e87 4b3e 4cba 80be
00000050: fcda 893e 94dc e2bd 9e45 ab3a 3281 4a3e
00000060: 70ea 44be 056c f33c af30 bdbe 1e21 6f3e
00000070: baef 4d3e e0e6 903d 6f95 30be 2b9e f2bd

conv2_bn.running_var f4 [32]
0.37119147 0.12963665 0.20286965 0.37617496 0.4600137 0.11155099 0.09383043 0.080969974
0.4441502 0.094879955 0.20001528 0.7684005 0.106139615 0.1479043 0.24461156 0.19274646
0.049158048 0.54980916 0.07359591 0.30887583 0.34923384 0.17234154 0.14838013 0.5197531
0.19789386 0.1716463 0.13508084 0.47681355 0.4815903 0.24231313 0.048191186 0.06250619
00000000: cf0c be3e 78bf 043e 10bd 4f3e 019a c03e
00000010: ea86 eb3e d874 e43d 2b2a c03d 96d3 a53d
00000020: a867 e33e 6c50 c23d ced0 4c3e e5b5 443f
00000030: ba5f d93d 3a74 173e 747b 7a3e 545f 453e
00000040: f359 493d 4bc0 0c3f 74b9 963d f924 9e3e
00000050: c7ce b23e 4d7a 303e f6f0 173e 8a0e 053f
00000060: b0a4 4a3e 0cc4 2f3e a252 0a3e e820 f43e
00000070: 0193 f63e ef20 783e 1f64 453d 3f03 803d

conv3.weight f4 [32, 32, 4, 4]
-0.032334525 -0.038818013 -0.03946153 -0.042457283 -0.03137428 -0.019424029 -0.048689052 0.012567593
0.05250031 0.035154846 -0.029490527 0.011383318 -0.030310217 0.025384601 0.019446682 0.041290276
0.039272573 -0.017635092 -0.0022221396 0.014274362 -0.034545615 -0.04248454 -0.017927343 0.03982527
-0.0104342485 0.018150605 -0.043657962 0.031049175 -0.0033676617 0.03455814 0.014124198 -0.042340606
-0.04939859 0.008877338 0.035044003 -0.009089064 -0.019454213 0.025170652 -0.029050335 0.028001407
-0.032862596 0.016977366 -0.011079118 -0.04184717 -0.031915355 0.039352335 -0.047540545 -0.016169159
-0.0012893311 0.023737915 0.015792692 -0.03150651 -0.0067590154 -0.00041198576 0.040191613 0.022877244
0.038443126 0.03353457 0.004887158 -0.019956645 0.03705439 -0.04274827 -0.035082176 0.015050919
0.026848216 0.037791714 0.01686629 -0.05293778 -0.02135258 0.028506145 -0.03455799 -0.026045179
0.06567609 0.017618721 0.035436258 0.023796998 0.011773583 0.04589969 0.012810631 0.043758
0.009559455 0.049116094 0.03648535 -0.019361885 -0.03190477 -0.0298184 0.0289421 0.00023121512
-0.016216349 0.0014961272 -0.011185638 -0.031714503 0.02454866 0.034593422 0.0103633925 0.045011394
-0.012418741 -0.030021433 0.02000759 -0.025077833 0.018184826 0.00071948714 -0.03492269 -0.012343546
-0.038413245 0.001692672 0.011874745 -0.00045881 0.034446295 0.004162282 -0.010601149 0.019632602
0.015349896 -0.025917822 0.028492356 0.013214027 0.043539416 0.04064921 -0.020300582 -0.028658785
-0.04451157 -0.028893761 0.0337343 0.04082419 -0.014681827 -0.012487743 -0.013065756 -0.053089336
-0.0031487898 0.046436545 -0.045596503 0.03800592 -0.025879975 0.0355325 -0.00969311 -0.010847107
0.00536546 -0.016191404 0.0017047203 -0.0025999912 -0.020403964 0.03335332 -0.044199098 0.034555357
0.008374296 0.023394868 0.010841009 0.01471959 -0.0031805183 -0.032364313 -0.006390599 -0.034375563
0.027592748 0.01365744 -0.024928236 -0.015274623 -0.022535726 -0.028148463 -0.02149602 -0.019000188
0.006725648 -0.0047911834 0.021199856 -0.028227067 0.028565561 0.017472016 -0.0029104915 -0.01334584
0.018601248 -0.019568514 0.018314091 -0.032782443 0.0064331186 0.025737483 0.007884745 -0.019023554
-0.005842538 0.044739358 0.021083329 0.03843125 0.034429662 -0.0061642476 -0.039043948 -0.0068728765
0.014026139 0.011592607 0.04585299 -0.0189781 -0.026843704 0.03563838 0.01407171 0.027468856
-0.054426577 -0.03940604 -0.038063735 -0.009852366 -0.017942725 -0.02771543 -0.013188406 -0.05543946
0.029956974 0.0065340544 -0.020458484 -0.011446551 0.029578974 0.03415399 -0.031326227 0.0038708376
-0.011025801 0.0031678213 -0.023057781 -0.021040007 0.0005402947 0.0403861 -0.007241381 -0.014127001
0.027617391 -0.013748875 0.055437393 0.027814934 0.031944904 -0.0225083 -0.031118253 0.0050025987
-0.0143328495 0.0032608206 -0.0025064552 -0.03043403 0.039549943 -0.05144664 -0.031354524 -0.015036115
0.019824138 0.01891863 0.02350527 0.048376832 0.0059421565 0.011992739 0.028688366 -0.020301096
-0.0012614322 0.021617493 -0.012719621 -0.003503439 0.003594434 -0.015690284 -0.033089574 0.024793552
0.03756078 0.029602438 0.018807655 0.042433362 -0.03210584 0.03179817 0.010660784 -0.018318828
00000000: 3571 04bd a3ff 1ebd 6aa2 21bd b0e7 2dbd
00000010: 5182 00bd 241f 9fbc 2c6e 47bd 4ee8 4d3c
00000020: 910a 573d 87fe 0f3d 1e96 f1bc 1981 3a3c
00000030: 224d f8bc 5ef3 cf3c a64e 9f3c fe1f 293d
00000040: 47dc 203d 7877 90bc 51a1 11bb 03df 693c
00000050: b47f 0dbd 4504 2ebd 5ddc 92bc d31f 233d
00000060: 69f4 2abc 94b0 943c b1d2 32bd d75a fe3c
00000070: fdb3 5cbb d68c 0d3d 2e69 673c 586d 2dbd
00000080: 2d56 4abd 4172 113c 4d8a 0f3d 4cea 14bc
00000090: 715e 9fbc af32 ce3c f8fa edbc 3563 e53c
000000a0: ee9a 06bd 1e14 8b3c 3085 35bc f067 2bbd
000000b0: adb9 02bd ea2f 213d e0b9 42bd 2f75 84bc
000000c0: c6fe a8ba 0476 c23c ad5f 813c f80c 01bd
000000d0: bb7a ddbb cbff d7b9 f69f 243d 0f69 bb3c
000000e0: 8a76 1d3d 8c5b 093d 7424 a03b 1e7c a3bc
000000f0: 58c6 173d cf18 2fbd 54b2 0fbd 2198 763c
00000100: caf0 db3c 7ccb 1a3d 2c2b 8a3c 49d5 58bd
00000110: 9beb aebc b885 e93c ae8c 0dbd b35c d5bc
00000120: 3081 863d 2355 903c 9c25 113d ecf1 c23c
00000130: fce5 403c 5001 3c3d aee3 513c 973b 333d
00000140: 439f 1c3c f52d 493d aa71 153d d19c 9ebc
00000150: 93ae 02bd b845 f4bc fc17 ed3c 5672 7239
00000160: 26d8 84bc b319 c43a f743 37bc 11e7 01bd
00000170: 451a c93c d5b1 0d3d 38cb 293c de5d 383d
00000180: fa77 4bbc 82ef f5bc f5e6 a33c 0770 cdbc
00000190: 58f8 943c f79b 3c3a 180b 0fbd 963c 4abc
000001a0: 3557 1dbd a6dc dd3a 4a8e 423c 708c f0b9
000001b0: 8f17 0d3d c163 883b 71b0 2dbc 8dd4 a03c
000001c0: 217e 7b3c 9d51 d4bc cd68 e93c a57f 583c
000001d0: 6356 323d c97f 263d 684d a6bc d4c5 eabc
000001e0: c451 36bd 9cb2 ecbc fa2c 0a3d 4437 273d
000001f0: 0c8c 70bc 6499 4cbc c111 56bc 3474 59bd
00000200: ed5b 4ebb 3f34 3e3d 66c3 3abd 18ac 1b3d
00000210: 3e02 d4bc 878a 113d dacf 1ebc 10b8 31bc
00000220: bed0 af3b d6a3 84bc ec70 df3a 9d64 2abb
00000230: 3726 a7bc 7e9d 083d 1d0a 35bd eb89 0d3d
00000240: 5834 093c 98a6 bf3c 7d9e 313c 6f2a 713c
00000250: 3e70 50bb 7190 04bd 3b68 d1bb 64cd 0cbd
00000260: 300a e23c 75c3 5f3c 4d36 ccbc 6a42 7abc
00000270: d89c b8bc 9b97 e6bc 6c18 b0bc 48a6 9bbc
00000280: d362 dc3b 5cff 9cbb 52ab ad3c 733c e7bc
00000290: 5302 ea3c 7921 8f3c f2bd 3ebb 83a8 5abc
000002a0: a561 983c 264e a0bc 6f07 963c e246 06bd
000002b0: e9cc d23b 6ad7 d23c 042f 013c 49d7 9bbc
000002c0: c372 bfbb 9e40 373d f2b6 ac3c 166a 1d3d
000002d0: 1e06 0d3d 75fd c9bb 8cec 1fbd de35 e1bb
000002e0: e4cd 653c ebee 3d3c 58d0 3b3d f677 9bbc
000002f0: 54e7 dbbc 8df9 113d 088d 663c 5e06 e13c
00000300: 67ee 5ebd 3a68 21bd b8e8 1bbd d16b 21bc
00000310: 9ffc 92bc 780b e3bc 2f14 58bc 7d14 63bd
00000320: 5468 f53c 9f1b d63b 8d98 a7bc 518a 3bbc
00000330: 9b4f f23c 0ee5 0b3d ee4f 00bd e1ad 7d3b
00000340: 90a5 34bc 399b 4f3b ace3 bcbc 185c acbc
00000350: 90a2 0d3a e56b 253d 1b49 edbb f074 67bc
00000360: de3d e23c f642 61bc 5212 633d 25dc e33c
00000370: a9d8 023d 5463 b8bc b5eb febc d7ec a33b
00000380: 54d4 6abc 7eb3 553b 5743 24bb c950 f9bc
00000390: 1fff 213d b6b9 52bd 9a6d 00bd 0a5a 76bc
000003a0: 3b66 a23c 3efb 9a3c 208e c03c c926 463d
000003b0: 6cb6 c23b 317d 443c dd03 eb3c 7c4e a6bc
000003c0: a456 a5ba 2b17 b13c f565 50bc f499 65bb
000003d0: 9890 6b3b e988 80bc ef88 07bd d91b cb3c
000003e0: 55d9 193d d080 f23c 8312 9a3c 9bce 2d3d
000003f0: 6a81 03bd cc3e 023d 92aa 2e3c 5e11 96bc

conv3.bias f4 [32]
-0.043916326 0.04410576 0.039990358 -0.038040493 0.029786466 -0.025421713 0.040235166 0.034095004
-0.03529823 0.00042755724 0.0039837165 -0.026076408 0.003475658 0.022779787 0.03698326 0.035993017
0.018695876 0.020027412 0.0064686164 0.03957858 0.02121534 0.041200012 -0.008134252 0.042244904
0.014672438 0.023753421 0.034953088 -0.0052201594 0.020610558 -0.043879896 0.030307187 0.016307736
00000000: 9be1 33bd 3ea8 343d eecc 233d 59d0 1bbd
00000010: bf02 f43c 3241 d0bc a1cd 243d 34a7 0b3d
00000020: e094 10bd c329 e039 d689 823b 319e d5bc
00000030: ddc7 633b ad9c ba3c c27b 173d 6a6d 133d
00000040: 1828 993c 8710 a43c b0f6 d33b 261d 223d
00000050: cbcb ad3c 58c1 283d 8745 05bc fe08 2d3d
00000060: aa64 703c 8996 c23c f82a 0f3d df0d abbb
00000070: 79d7 a83c 68bb 33bd c746 f83c cd97 853c

conv3_bn.weight f4 [32]
0.1939506 0.8532257 0.45273283 0.08497539 0.75228107 0.5856652 0.24828617 0.39555874
0.49097893 0.19270812 0.6416822 0.41208798 0.31655487 0.7937681 0.33484092 0.23354776
0.15128297 0.3976737 0.5642919 0.21718681 0.58816075 0.115570165 0.34891275 0.36079353
0.95706826 0.5936516 0.79828817 0.44667682 0.79801875 0.37406477 0.4621483 0.555725
00000000: fc9a 463e 006d 5a3f 99cc e73e 9407 ae3d
00000010: 7e95 403f 28ee 153f bb3e 7e3e ad86 ca3e
00000020: 9761 fb3e 4755 453e 4945 243f 32fd d23e
00000030: 7b13 a23e 6334 4b3f 4570 ab3e 2527 6f3e
00000040: ece9 1a3e e39b cb3e 6f75 103f 3866 5e3e
00000050: b491 163f 0db0 ec3d b1a4 b23e eeb9 b83e
00000060: 6d02 753f 8df9 173f 9d5c 4c3f d3b2 e43e
00000070: f54a 4c3f 6b85 bf3e b49e ec3e fe43 0e3f

conv3_bn.bias f4 [32]
0.009479984 -0.021974394 0.0023360807 0.018165315 0.0010183958 -0.012727361 0.008099241 -0.00068371673
0.014480197 0.0064111166 0.010993239 0.035854924 0.014609048 0.012409146 0.004201814 0.0289041
0.015044802 -0.011037451 -0.01452664 0.0033225887 0.0066251564 0.022940489 0.026350968 -0.0035003328
0.010845288 -0.0038065913 -0.0018392701 0.009595317 -0.008291965 -0.0054539284 0.013115098 0.0009142742
00000000: ef51 1b3c a503 b4bc ee18 193b 6dcf 943c
00000010: b17b 853a 6c86 50bc aeb2 043c 743b 33ba
00000020: 593e 6d3c 5814 d23b fc1c 343c 9ddc 123d
00000030: ca5a 6f3c bb4f 4b3c 5faf 893b 4bc8 ec3c
00000040: 797e 763c 6dd6 34bc 2501 6ebc cabf 593b
00000050: d717 d93b b1ed bb3c fcdd d73c d765 65bb
00000060: 6fb0 313c 0178 79bb aa13 f1ba ad35 1d3c
00000070: 06db 07bc deb6 b2bb b5e0 563c e7ab 6f3a

conv3_bn.running_mean f4 [32]
0.048161596 0.36058554 0.18334877 0.3604215 0.062417924 0.07168986 0.009502516 0.084964566
0.12071188 0.07268075 0.4413677 -0.31851855 0.13624673 0.27487275 0.33425424 0.1259402
0.10766093 0.26705936 0.059783813 0.19294375 0.27499673 -0.13541588 -0.3493159 -0.15238091
-0.45893136 0.33601838 0.33358577 0.3401896 0.1931537 0.24659854 0.20612918 0.32314375
00000000: 1845 453d ab9e b83e c8bf 3b3e 2b89 b83e
00000010: f0a9 7f3d 22d2 923d 71b0 1b3c e701 ae3d
00000020: ca37 f73d a5d9 943d f2fa e13e dd14 a3be
00000030: 4384 0b3e 1fbc 8c3e 5f23 ab3e 78f6 003e
00000040: 557d dc3d 01bc 883e dfdf 743d 0c93 453e
00000050: 5fcc 8c3e 76aa 0abe 89d9 b2be be09 1cbe
00000060: 0df9 eabe 9a0a ac3e c1cb aa3e 552d ae3e
00000070: 15ca 453e 5484 7c3e 8713 533e 1973 a53e

conv3_bn.running_var f4 [32]
0.09724754 0.6800735 0.30602643 0.051554523 0.21218191 0.33064726 0.37145695 0.11439325
0.12894067 0.053994056 0.3049155 0.1340926 0.055607103 0.3764794 0.39714104 0.053047273
0.12317143 0.10277544 0.1797528 0.07577339 0.36697525 0.039138317 0.13683702 0.07091392
0.34259886 0.2170511 0.52990913 0.23183921 0.3432259 0.32083288 0.25436598 0.4416878
00000000: b829 c73d 4c19 2e3f 7faf 9c3e d62a 533d
00000010: 3746 593e 994a a93e 9b2f be3e 0247 ea3d
00000020: 0609 043e df28 5d3d e21d 9c3e 924f 093e
00000030: 46c4 633d e8c1 c03e 1256 cb3e 1948 593d
00000040: 4d41 fc3d ee7b d23d 1e11 383e 142f 9b3d
00000050: 2ee4 bb3e 804f 203d 011f 0c3e 513b 913d
00000060: 1e69 af3e a542 5e3e 20a8 073f 4267 6d3e
00000070: 4ebb af3e 3544 a43e 423c 823e e724 e23e

linear1.weight f4 [32, 6272]
-0.010112696 0.015802875 0.009340764 -0.0017313486 0.006815557 0.01237412 3.9864706e-05 0.0024638195
0.0054932386 -0.0037582144 -0.004247754 -0.011015223 -0.00013516696 0.0060836608 0.0012435536 0.024399204
0.008364414 0.0036289108 0.0014388497 -0.00898132 -0.0021291757 0.00803377 -0.005816199 0.0011640273
-0.009713967 0.012054489 -0.011873888 0.005850082 -0.001819294 0.006529233 0.013956333 -0.004986694
0.00051775965 -0.021130214 -0.008709167 0.0037830828 -0.0038233688 0.007975727 0.011815993 0.006402531
-0.0046094535 0.009008987 -0.0014921959 0.005285126 0.008253314 0.0034146395 -0.0036680487 0.010966406
-0.00032961363 -0.0066744178 0.007935702 0.0020883516 0.013503911 0.0033537955 0.007556106 -0.00082425226
0.005541484 0.01688942 0.012108856 -0.020543842 -0.011783984 0.013363055 -0.0102906665 -0.0072925794
0.014889942 -0.0005369715 0.0008571498 0.007769527 0.00080462545 -0.0003296607 0.0014833618 0.0032166492
0.0024790172 0.011812848 -0.0021847452 0.0010328165 -0.0152167 -0.0011980082 -0.005310319 -0.0028871396
-0.025104623 0.00047866514 0.020961115 -0.0009355981 -0.0018307312 0.01245381 -0.0017956465 -0.0045864284
-0.009058274 -0.015667636 0.006347254 0.015055927 0.012349116 0.019472815 -0.0067630825 0.026085846
-0.0002409808 0.013360595 -0.0102165565 0.00062295457 -0.0022480602 0.005519097 -0.006751534 -0.0032489062
-0.015407891 -0.010725939 0.0075726607 0.021854935 -0.0003137272 -0.0014884406 0.008468755 -0.015320195
-0.005996989 0.017222524 0.004862414 0.007573639 -0.008836983 0.015686229 -0.042266052 -0.008302914
-0.0065933806 0.008518816 0.0010538539 0.018402528 -0.003497152 -0.004885231 -0.0121228555 -0.0075729084
-0.013664343 0.00018637795 0.005002345 0.045132097 0.010689519 0.0008472516 -0.010489519 0.011839191
-0.0054913615 0.006470773 0.011569814 -0.0048941085 0.010328245 0.000264051 0.00969896 -0.015906347
-0.0039381743 0.021900514 0.017338904 0.00901234 0.011277919 0.007343425 -0.0021027643 -0.00560724
0.010366046 -0.002452227 0.014635263 0.0033908554 -0.004997906 0.011418233 0.0056227846 -0.0115619
0.009910731 -0.00086293416 0.00091924524 0.011071041 -0.0042572194 0.013018764 -0.0065243086 -0.011474778
-0.020082599 -0.025477353 0.0007524363 0.041711982 0.0018154702 -0.0048681223 -0.0011635454 0.008445751
0.014038762 -0.01300304 -0.00082247955 -0.003787561 -0.0097132055 -0.012994626 -0.0018598702 -0.0071138693
-0.021555616 0.013196092 -0.005764185 0.007201279 0.0035721785 -3.7940903e-05 0.0011712171 -0.011429792
-0.0026909234 0.0068654907 0.011735396 -0.005701342 0.0045424793 0.0016332688 0.0049668667 -0.0022063649
-0.0111302575 0.009690438 0.0058526513 -0.010101893 -0.0026262326 0.009265049 -0.008875746 -0.0030062816
-0.0063955365 0.0070224046 0.008399897 0.006523127 0.00075785635 -0.0029540604 -0.013769917 0.0028431534
-0.008517105 -0.0046753488 0.0017413008 -0.005351579 0.007005658 -0.016456367 0.003839081 0.0180108
-0.009824495 -0.0055418815 0.0049710483 -0.0050656316 -0.006399614 -0.00849596 0.018673083 0.005719284
0.00918436 -0.0020043415 -0.014851737 -0.0058544306 -0.0036468825 0.0027271057 0.00077396526 0.01468475
0.022252476 0.0026734984 0.012324137 -0.021862466 0.0073305345 -0.0067566237 -0.012050239 -0.00025576423
-0.01299681 0.012707304 -0.010300688 -0.0155319655 0.0004820033 -0.010920715 -0.0133938845 0.0016783121
00000000: b9af 25bc 0875 813c 010a 193c 6bee e2ba
00000010: 0955 df3b d2bc 4a3c 6734 2738 0878 213b
00000020: a000 b43b 604c 76bb be30 8bbb 3279 34bc
00000030: 9bbb 0db9 7259 c73b bcfe a23a d7e0 c73c
00000040: e50a 093c 05d3 6d3b c997 bc3a 6326 13bc
00000050: a489 0bbb 13a0 033c d095 bebb 4692 983a
00000060: 5527 1fbc 3180 453c b28a 42bc 0bb2 bf3b
00000070: 6075 eeba 2df3 d53b 1aa9 643c 6c67 a3bb
00000080: 43ba 073a 4519 adbc e5b0 0ebc 99ed 773b
00000090: 7c91 7abb a0ac 023c de97 413c 53cc d13b
000000a0: e60a 97bb 6e9a 133c c995 c3ba da2e ad3b
000000b0: e838 073c 25c8 5f3b a563 70bb 71ac 333c
000000c0: fecf acb9 13b5 dabb bf04 023c badc 083b
000000d0: 823f 5d3c 5acb 5b3b 3699 f73b a212 58ba
000000e0: 5695 b53b ae5b 8a3c 3964 463c 8f4b a8bc
000000f0: 9c11 41bc b7f0 5a3c 2f9a 28bc 97f6 eebb
00000100: f1f4 733c 8cc3 0cba 59b2 603a 8497 fe3b
00000110: 80ed 523a 4fd6 acb9 5d6d c23a 6bce 523b
00000120: 0277 223b ad8a 413c f12d 0fbb 925f 873a
00000130: 774f 79bc 7c06 9dba 2f02 aebb 2a36 3dbb
00000140: 36a8 cdbc 59f5 fa39 a5b6 ab3c ed42 75ba
00000150: 25f5 efba 110b 4c3c e65b ebba c049 96bb
00000160: 2869 14bc 6a59 80bc a0fc cf3b 23ad 763c
00000170: f253 4a3c 7485 9f3c d99c ddbb fcb1 d53c
00000180: caaf 7cb9 66e6 5a3c 5863 27bc c64d 233a
00000190: 3154 13bb 8bd9 b43b f93b ddbb 9aeb 54bb
000001a0: 6171 7cbc d9bb 2fbc 1524 f83b 1f09 b33c
000001b0: c17b a4b9 c717 c3ba 88c0 0a3c 8e01 7bbc
000001c0: 6482 c4bb 4016 8d3c e354 9f3b 4a2c f83b
000001d0: fec8 10bc 6880 803c 2b1f 2dbd f208 08bc
000001e0: 490d d8bb 8192 0b3c 7821 8a3a e6c0 963c
000001f0: 7930 65bb 4a14 a0bb f19e 46bc 2926 f8bb
00000200: 69e0 5fbc 736e 4339 b6ea a33b 6fdc 383d
00000210: 1823 2f3c 181a 5e3a 3bdc 2bbc 2bf9 413c
00000220: e1f0 b3bb c708 d43b 518f 3d3c c25e a0bb
00000230: cd37 293c 5370 8a39 63e8 1e3c 074e 82bc
00000240: cd0b 81bb b568 b33c 510a 8e3c 7ea8 133c
00000250: 05c7 383c 1da1 f03b 88ce 09bb f0bc b7bb
00000260: 59d6 293c 8bb5 20bb bec8 6f3c 1d39 5e3b
00000270: 79c5 a3bb 8a13 3b3c 563f b83b 206e 3dbc
00000280: 9e60 223c 8836 62ba 81f9 703a 5063 353c
00000290: 2580 8bbb a74c 553c dec9 d5bb b500 3cbc
000002a0: 4384 a4bc e2b5 d0bc 253f 453a 2fda 2a3d
000002b0: 12f5 ed3a c584 9fbb 1b82 98ba 0c60 0a3c
000002c0: d602 663c b40a 55bc ab9b 57ba bb38 78bb
000002d0: 2324 1fbc 69e7 54bc e3c6 f3ba 761b e9bb
000002e0: 6795 b0bc 6c34 583c 7de1 bcbb b5f8 eb3b
000002f0: 361b 6a3b bc22 1fb8 8683 993a 0644 3bbc
00000300: 345a 30bb e9f7 e03b d245 403c 53d2 babb
00000310: 14d9 943b 6813 d63a 19c1 a23b a998 10bb
00000320: af5b 36bc a5c4 1e3c 99c7 bf3b 6982 25bc
00000330: df1c 2cbb 6fcc 173c 946b 11bc 0905 45bb
00000340: a691 d1bb 331c e63b b99f 093c f5bf d53b
00000350: e1aa 463a e998 41bb 389b 61bc 3354 3a3b
00000360: 548b 0bbc ab33 99bb 5c3c e43a 4c5c afbb
00000370: b88f e53b 81cf 86bc 1799 7b3b 638b 933c
00000380: ebf6 20bc ac98 b5bb 2de4 a23b 99fd a5bb
00000390: dab3 d1bb a432 0bbc 4bf8 983c d568 bb3b
000003a0: ff79 163c 455b 03bb b354 73bc 86d6 bfbb
000003b0: 8900 6fbb 3eb9 323b eee3 4a3a 4e98 703c
000003c0: d34a b63c dc35 2f3b 2deb 493c ea18 b3bc
000003d0: fb34 f03b ab66 ddbb 5e6e 45bc 1818 86b9
000003e0: 92f0 54bc 4c32 503c 38c4 28bc c979 7ebc
000003f0: 63b5 fc39 ccec 32bc 0672 5bbc cffa db3a

linear1.bias f4 [32]
-0.01108149 -0.004868385 0.00096762367 0.0033900964 0.012344534 -0.011123285 -0.009876521 0.00026061476
0.007987256 -0.00086987426 -0.00971287 -0.010927427 0.005814077 -0.0049624112 -0.0111986445 -0.0043783644
0.008426775 -0.0025898265 0.0029379246 -0.0029293064 0.00054586516 0.005125635 0.0047977245 -0.003667734
-0.0007995091 -0.0050254217 0.0033900978 -0.008628429 -0.007289368 -0.0022601637 -0.0016724431 0.005384197
00000000: 238f 35bc f986 9fbb 20a8 7d3a 612c 5e3b
00000010: ba40 4a3c 703e 36bc 22d1 21bc 1fa3 8839
00000020: fbdc 023c 4608 64ba bb22 1fbc f308 33bc
00000030: 0384 be3b b99b a2bb 857a 37bc 6278 8fbb
00000040: 7510 0a3c 14ba 29bb 328a 403b 9bf9 3fbb
00000050: 6418 0f3a f1f4 a73b 3b36 9d3b 5e5e 70bb
00000060: 2696 51ba 4bac a4bb 672c 5e3b 415e 0dbc
00000070: a7db eebb 411f 14bb e135 dbba eb6d b03b

linear1_bn.weight f4 [32]
0.27659997 0.99284774 0.14507993 0.86818343 0.7239213 0.08430538 0.2856436 0.82143915
0.7801083 0.18927096 0.26089922 0.21471167 0.8102115 0.50072014 0.68819374 0.80177253
0.72558457 0.3742097 0.52732456 0.2218801 0.6614854 0.024947075 0.7794962 0.051930517
0.32351178 0.90900564 0.18569934 0.46356127 0.5013136 0.5394815 0.8638952 0.72783023
00000000: 839e 8d3e 452b 7e3f d58f 143e 4541 5e3f
00000010: e852 393f 4da8 ac3d e13f 923e d649 523f
00000020: 2db5 473f 3fd0 413e 9594 853e 60dd 5b3e
00000030: 056a 4f3f 322f 003f 772d 303f f740 4d3f
00000040: e9bf 393f 6a98 bf3e befe 063f 8934 633e
00000050: 1b57 293f cf5d cc3c 108d 473f 18b5 543d
00000060: 56a3 a53e 98b4 683f f827 3e3e e757 ed3e
00000070: 1756 003f 761b 0a3f 3c28 5d3f 1553 3a3f

linear1_bn.bias f4 [32]
-0.069889866 0.041621342 0.034505125 0.049143787 0.037746202 0.06710856 0.04928425 -0.0032262106
0.0268562 -0.017683804 0.027822392 -0.026231416 -0.0015264901 0.020176496 0.054235578 0.040775884
0.03093703 0.03590662 0.04817855 0.008413368 0.03897339 0.09532051 0.041057665 0.09472701
-0.059188325 0.017548548 -0.0011745942 0.017834626 0.03662453 0.03722104 0.04789804 0.0015761185
00000000: 6b22 8fbd 247b 2a3d 3f55 0d3d ff4a 493d
00000010: c39b 1a3d 3670 893d 48de 493d d56e 53bb
00000020: 8901 dc3c a0dd 90bc c9eb e33c 44e3 d6bc
00000030: 8214 c8ba 2e49 a53c 2026 5e3d 9d04 273d
00000040: a86f fd3c d212 133d df56 453d 39d8 093c
00000050: 90a2 1f3d 6637 c33d 152c 283d 3c00 c23d
00000060: 756f 72bd f9c1 8f3c d7f4 99ba ec19 923c
00000070: 9a03 163d 1775 183d bc30 443d c395 ce3a

linear1_bn.running_mean f4 [32]
-1.4675289 -3.0551727 0.96772474 -0.6140314 2.6285598 -1.7948122 -1.3763154 1.754627
0.6740442 -1.6439766 1.2789265 0.16485375 1.0664647 1.7268364 2.3457227 1.3584672
1.2637964 1.6580278 -2.1229424 2.2907944 2.470035 -0.23239338 1.5140153 -1.8232459
3.0508177 -2.2590733 1.3448944 2.1955626 2.9301305 -1.4385097 -3.2952302 2.2081988
00000000: fdd7 bbbf f387 43c0 cfbc 773f 2931 1dbf
00000010: 533a 2840 68bc e5bf 1a2b b0bf 9e97 e03f
00000020: 298e 2c3f d36d d2bf ddb3 a33f 6ccf 283e
00000030: ea81 883f fa08 dd3f 5220 1640 41e2 ad3f
00000040: 15c4 a13f 413a d43f 4ade 07c0 609c 1240
00000050: 0e15 1e40 88f8 6dbe 41cb c13f 1f60 e9bf
00000060: 9940 4340 a894 10c0 8025 ac3f 1984 0c40
00000070: 4287 3b40 1621 b8bf 0de5 52c0 2153 0d40

linear1_bn.running_var f4 [32]
1.9641203 2.3159394 1.0222883 1.8042151 5.182342 2.637326 1.5668851 3.0607421
1.5834421 1.0403678 1.8535577 1.9740238 1.8447756 1.954622 5.4568577 4.4139204
0.9619744 2.1972756 2.4583347 0.87475985 3.9308536 4.04953 3.5521946 3.1509311
2.473764 1.4238092 1.6544107 2.6801393 3.86207 0.82910025 4.0820723 3.4979994
00000000: 4b68 fb3f 5a38 1440 58da 823f 85f0 e63f
00000010: bfd5 a540 f3c9 2840 b18f c83f 33e3 4340
00000020: 3bae ca3f c62a 853f 6141 ed3f d0ac fc3f
00000030: 9b21 ec3f 0e31 fa3f 949e ae40 d63e 8d40
00000040: f443 763f 2aa0 0c40 5b55 1d40 43f0 5f3f
00000050: 1b93 7b40 c095 8140 2857 6340 dba8 4940
00000060: 2652 1e40 613f b63f bbc3 d33f 6787 2b40
00000070: 282c 7740 ea3f 543f 56a0 8240 39df 5f40

linear2.weight f4 [39, 39]
-0.091119 -0.030147053 -0.1127859 0.07771149 0.10936442 -0.047452934 0.1020832 0.012333667
-0.008673578 -0.07161089 0.07606377 0.06327779 -0.10522316 -0.08935271 0.0042115483 0.12777607
-0.03482924 0.11741826 0.02549079 0.1476695 0.14600278 0.094195776 0.114709504 0.13779715
0.07737626 -0.14932589 -0.13490228 0.14687334 -0.093249045 0.033506323 -0.061498687 0.014235048
0.19312613 0.1162076 -0.058877524 0.004507447 0.13972025 0.08323115 0.01099628 0.008712301
0.14374821 -0.07892373 0.11747136 0.104633085 -0.052412495 0.07091237 -0.10325513 -0.08657152
-0.07020412 0.03676394 0.047688805 -0.08907466 0.14147256 0.070160896 0.14600843 0.09543356
-0.10203259 0.14042427 0.15236129 0.09869299 0.06769102 -0.069877766 0.047295377 -0.047395833
-0.06604877 0.09707228 -0.017478436 -0.06711883 -0.021952031 0.07502634 0.00824434 0.02227574
0.0011736114 0.011595084 0.18632333 0.18385153 0.051061302 -0.031992886 -0.09428943 0.14493088
0.11499477 -0.0066289455 -0.05248189 -0.10064847 -0.12552162 0.10556314 -0.0028705967 -0.054670528
0.10917236 -0.05161845 0.017136458 -0.046006538 -0.05334765 -0.09348102 0.07246275 0.16015577
0.1458754 0.14040561 0.16580366 0.106415555 0.02507004 -0.08070951 -0.097194836 -0.12961334
-0.12241379 0.022236884 0.15227807 0.14386632 0.116341144 0.01047433 0.03891273 -0.07201428
0.037351914 0.02741484 0.1612232 0.1286023 0.17844948 0.058998987 -0.11816658 0.059288707
-0.0019163304 -0.0044688946 -0.058531903 0.10832034 -0.14338194 0.11993084 -0.09625368 -0.115380414
-0.10561302 0.067534 0.109398775 0.02287082 -0.11582392 -0.014542259 0.043547682 0.11954891
-0.026676381 -0.1333926 0.062103484 0.11418684 0.016470568 0.06998723 -0.13705373 0.040040463
-0.027643725 0.04903778 0.033545677 -0.12003417 -0.025423758 0.06549822 0.13964404 0.088922165
0.0783051 0.14475198 -0.0037829245 0.21374857 -0.09097705 0.047233574 0.10538897 -0.13662647
0.022057215 0.07186237 0.03662942 -0.15092944 -0.005347642 0.026300587 0.10904045 0.037282646
0.14752837 -0.10923662 0.02732939 0.075691156 -0.051077493 -0.023575775 0.13942626 -0.008259152
-0.035104327 -0.0055615925 0.10213264 0.117228426 0.06022455 -0.16785793 -0.11505403 -0.14514436
-0.09003852 -0.16589962 0.060728356 0.1344623 -0.03657326 -0.11661699 0.07815494 -0.11519903
-0.15143302 0.02918536 -0.08224278 -0.0034513795 0.048574097 -0.121508434 0.14178638 -0.14435062
0.07312639 0.15075922 0.05165256 -0.09120198 -0.10299721 -0.11357824 -0.012606004 0.12693855
0.14943057 0.14710334 0.06597813 0.1271154 -0.06179803 -0.03530966 0.031927485 -0.085691504
-0.066553436 0.13808592 -0.069352716 -0.07091203 0.082643434 -0.10836541 0.15148844 0.09854488
0.02834006 0.021833362 -0.02341442 0.10952775 -0.05483151 0.0042985985 -0.038049944 -0.07534684
-0.11106348 0.017689468 -0.07161978 0.086552866 -0.019252619 0.10913675 0.014663134 -0.051900957
-0.031074585 0.049445562 0.1724502 -0.074796274 0.16287312 -0.023373626 0.0010579575 0.07554505
0.108083524 -0.099465616 0.12548706 0.106716365 -0.027809938 -0.100645885 0.16019402 0.022674026
00000000: 999c babd f4f6 f6bc 4bfc e6bd 3427 9f3d
00000010: 74fa df3d 025e 42bd ff10 d13d 2613 4a3c
00000020: 9f1b 0ebc bba8 92bd 52c7 9b3d c997 813d
00000030: 3d7f d7bd 8efe b6bd 0701 8a3b bbd7 023e
00000040: 1ba9 0ebd fc78 f03d 10d2 d03c ac36 173e
00000050: c181 153e b7e9 c03d d1ec ea3d b21a 0d3e
00000060: 7277 9e3d e3e8 18be d323 0abe f765 163e
00000070: 5bf9 bebd ed3d 093d 0ce6 7bbd 1e3a 693c
00000080: dbc2 453e 40fe ed3d 8f29 71bd 35b3 933b
00000090: d312 0f3e 1875 aa3d be29 343c 0abe 0e3c
000000a0: bb32 133e c4a2 a1bd d394 f03d df49 d63d
000000b0: 7cae 56bd 813a 913d 6d77 d3bd 694c b1bd
000000c0: 2dc7 8fbd c995 163d 5655 433d c66c b6bd
000000d0: 2fde 103e 84b0 8f3d 3c83 153e ac72 c33d
000000e0: 76f6 d0bd 61cb 0f3e 9904 1c3e 8d1f ca3d
000000f0: 97a1 8a3d 131c 8fbd ccb8 413d 2222 42bd
00000100: 9444 87bd d5cd c63d f02e 8fbc 9975 89bd
00000110: bfd4 b3bc 69a7 993d 4513 073c 9d7b b63c
00000120: ddd3 993a 4ff9 3d3c 8bcb 3e3e 9343 3c3e
00000130: a825 513d f90a 03bd d11a c1bd c368 143e
00000140: 6182 eb3d a037 d9bb 40f7 56bd c920 cebd
00000150: bd88 00be 7d31 d83d 9f20 3cbb 34ee 5fbd
00000160: c295 df3d de6d 53bd c261 8c3c 5a71 3cbd
00000170: 1183 5abd fa72 bfbd 5a67 943d e0ff 233e
00000180: 5c60 153e 7dc6 0f3e 6fc8 293e 66f0 d93d
00000190: af5f cd3c 074b a5bd 160e c7bd 5cb9 04be
000001a0: 15b4 fabd 202a b63c c8ee 1b3e b151 133e
000001b0: 4444 ee3d 869c 2b3c f462 1f3d 397c 93bd
000001c0: 52fe 183d 1695 e03c b217 253e 52b0 033e
000001d0: 76bb 363e eca8 713d 5201 f2bd b7d8 723d
000001e0: 612d fbba ce6f 92bb 26bf 6fbd 0ed7 dd3d
000001f0: b7d2 12be 4d9e f53d a620 c5bd 914c ecbd
00000200: a44b d8bd 444f 8a3d 770c e03d 965b bb3c
00000210: 1735 edbd a842 6ebc 0e5f 323d 0fd6 f43d
00000220: 6d88 dabc 1298 08be 3960 7e3d cada e93d
00000230: 49ed 863c 7755 8f3d d057 0cbe 7801 243d
00000240: 1875 e2bc d7db 483d 3167 093d 7ad4 f5bd
00000250: 7c45 d0bc ee23 863d d9fe 0e3e d31c b63d
00000260: 6d5e a03d dd39 143e f1ea 77bb e8e0 5a3e
00000270: 2d52 babd fe77 413d 2cd6 d73d cfe7 0bbe
00000280: 55b1 b43c 942c 933d bb08 163d 3f8d 1abe
00000290: 463b afbb 5474 d73c 9950 df3d b0b5 183d
000002a0: ad11 173e 73b7 dfbd e3e1 df3c f703 9b3d
000002b0: a236 51bd fc21 c1bc c2c5 0e3e 6551 07bc
000002c0: 8ec9 0fbd 053e b6bb eb2a d13d 7515 f03d
000002d0: 05ae 763d f3e2 2bbe 73a1 ebbd b9a0 14be
000002e0: 1e66 b8bd 97e1 29be 4cbe 783d 7cb0 093e
000002f0: d8cd 15bd e3d4 eebd b20f a03d 78ed ebbd
00000300: 4211 1bbe 2316 ef3c e76e a8bd 8a30 62bb
00000310: a2f5 463d 6ad9 f8bd 7330 113e a6d0 13be
00000320: 4ac3 953d a060 1a3e a291 533d 1bc8 babd
00000330: 34f0 d2bd b59b e8bd 6a89 4ebc 2efc 013e
00000340: 5404 193e 42a2 163e 8b1f 873d 8a2a 023e
00000350: ee1f 7dbd dda0 10bd 65c6 023d 077f afbd
00000360: 2b4d 88bd 6566 0d3e cc08 8ebd 543a 91bd
00000370: f640 a93d afee ddbd c91f 1b3e e6d1 c93d
00000380: 6a29 e83c e1db b23c 99cf bfbc 1650 e03d
00000390: 0197 60bd 42db 8c3b 42da 1bbd 724f 9abd
000003a0: 4075 e3bd 81e9 903c 64ad 92bd a142 b13d
000003b0: abb7 9dbc 1783 df3d a43d 703c 1996 54bd
000003c0: 2190 febc 6e87 4a3d c996 303e ca2e 99bd
000003d0: 36c8 263e 0c7a bfbc 2aab 8a3a 5db7 9a3d
000003e0: e55a dd3d a1b4 cbbd ae7f 003e 1c8e da3d
000003f0: abd1 e3bc 6e1f cebd e709 243e e1be b93c

linear2.bias f4 [39]
-0.015397557 0.13271067 0.120455146 0.098209284 0.01292521 0.15404785 -0.03564912 0.201925
0.18339483 -0.039432526 0.07733984 0.13565515 0.0012460364 -0.08564039 -0.0059030033 0.06419898
-0.092071526 0.20158814 0.06483005 -0.10254141 0.085301645 0.14031287 0.020543382 -0.015628327
0.03424631 -0.1645342 0.025223503 -0.048164193 -0.22027019 -0.10667468 -0.09862863 -0.08130068
-0.09855766 -0.027917685 -0.091858596 0.07215124 0.14620708 0.20129982 0.09451541
00000000: 0946 7cbc 4ee5 073e 30b1 f63d f321 c93d
00000010: 43c4 533c b8be 1d3e d004 12bd 6dc5 4e3e
00000020: dbcb 3b3e 0084 21bd 5a64 9e3d 2fe9 0a3e
00000030: 0b52 a33a 3b64 afbd fb6d c1bb c17a 833d
00000040: ff8f bcbd 1f6d 4e3e 9ec5 843d 3b01 d2bd
00000050: a1b2 ae3d 2dae 0f3e 984a a83c fa06 80bc
00000060: dc45 0c3d a77b 28be 85a1 ce3c d147 45bd
00000070: 828e 61be 4178 dabd cffd c9bd f980 a6bd
00000080: 99d8 c9bd a1b3 e4bc 5c20 bcbd 08c4 933d
00000090: 4fb7 153e 8a21 4e3e 4c91 c13d
