saved_models/gear_unconstrained_1.pt (torch_old, 954435 bytes, 28 tensors)

conv1.weight f4 [32, 3, 4, 4]
0	0x3e12c9fd	0.14334865
1	0x3e791eb5	0.2432812
2	0xbe527d4d	-0.20555611
3	0xbed1aa7b	-0.4095038
4	0x3ee272c5	0.44228187
5	0x3dda9981	0.1067381
6	0x3e895754	0.2682444
7	0xbe07f44b	-0.13276784
8	0x3dc748fd	0.09730718
9	0xbe68781b	-0.22702067
10	0xbcf8d554	-0.03037516
11	0xbedd6eae	-0.43248504
12	0xbe864d72	-0.2623096
13	0xbe7c5662	-0.24642327
14	0xbef1f42f	-0.4725661
15	0x3e7a3849	0.24435534
16	0xbe22f910	-0.15915322
17	0x3e5dcdac	0.21660489
18	0x3e3d0f03	0.18462758
19	0xbea10276	-0.3144719
20	0x3f1087a1	0.56456953
21	0x3d424dd6	0.04743751
22	0x3e1237aa	0.14279047
23	0x3ec962a9	0.39333084
24	0xbca14c5b	-0.01968973
25	0xbe1a065c	-0.15041488
26	0x3b045f3d	0.0020198368
27	0xbee5df62	-0.4489699
28	0x3e16dc91	0.14732577
29	0x3e9a4403	0.30130014
30	0xbedb2bf9	-0.42806986
31	0xbcd38325	-0.02581937
32	0xbf0811da	-0.5315224
33	0xbe23da72	-0.16001299
34	0x3e1fb9a6	0.15598163
35	0x3ec89f06	0.39183825
36	0x3cefe37d	0.02928328
37	0x3e2e0186	0.16992769
38	0xbd847330	-0.06467283
39	0x3f1f7047	0.62280697
40	0xbe338128	-0.17529738
41	0xbec18a72	-0.37800938
42	0xbd403be8	-0.04693213
43	0x3dd79de9	0.10528166
44	0x3e76aa4e	0.24088404
45	0xbd222e90	-0.039595187
46	0xbef16432	-0.47146755
47	0x3e426186	0.18982515
48	0x3e87f2c8	0.26552415
49	0x3e911eda	0.2834385
50	0x3de71dc3	0.112849735
51	0xbdac9451	-0.084267266
52	0x3ed19052	0.4093042
53	0x3e8e41a4	0.27784455
54	0xbdbae4f4	-0.091257006
55	0xbe6ee349	-0.2332889
56	0xbe3cd407	-0.18440257
57	0xbeac1000	-0.33605957
58	0x3e61f07d	0.22064395
59	0x3eaf6e5d	0.34263888
60	0xbe29b92f	-0.16574548
61	0x3ea4b3bf	0.32168385
62	0xbdf7930e	-0.12088595
63	0xbe61f0fd	-0.22064586
64	0x3de9b43a	0.114113286
65	0xbe2582a7	-0.16163121
66	0x3da17f75	0.078856386
67	0xbe9e3815	-0.30902162
68	0x3e871889	0.26385906
69	0x3ec05310	0.37563372
70	0xbe673b30	-0.22581172
71	0xbf1a2607	-0.60214275
72	0xbebd9e47	-0.3703482
73	0xbe8645e7	-0.26225206
74	0x3e7d8103	0.24756245
75	0x3da97b6e	0.082754955
76	0xbdaadacb	-0.08342513
77	0x3eee8a08	0.46589684
78	0xbeb0dcda	-0.34543496
79	0xbe172442	-0.14759925
80	0x3e8318a8	0.2560475
81	0xbe3f22a6	-0.18665561
82	0x3ea292e1	0.31752685
83	0xbeaec3e1	-0.3413382
84	0x3bd81d9e	0.0065953275
85	0xbb9f4ab9	-0.0048612026
86	0xbdf293cc	-0.11844596
87	0xbd45a0e2	-0.048249133
88	0xbec911ff	-0.39271542
89	0xbbb81601	-0.0056178574
90	0xbda2edec	-0.07955536
91	0x3f25ff1f	0.6484241
92	0xbdcfe641	-0.10151339
93	0x3e9dcf6c	0.30822313
94	0xbdc67bb3	-0.096915625
95	0xbde2594c	-0.11052188
96	0xbd408bff	-0.04700851
97	0x3e562078	0.20910823
98	0x3edd5efe	0.43236536
99	0x3dde32b6	0.10849516
100	0xbe22f70e	-0.15914556
101	0x3e041cc0	0.12901592
102	0x3e211121	0.1572919
103	0xbedacdf5	-0.42735258
104	0xbec49423	-0.3839427
105	0xbe866528	-0.2624905
106	0x3ec9ec68	0.39438176
107	0xbe47cb41	-0.19511129
108	0xbed190d5	-0.4093081
109	0x3dde315e	0.1084926
110	0x3d124fa5	0.035720486
111	0xbe235fe8	-0.15954554
112	0x3e666036	0.22497639
113	0xbca6efb8	-0.020377979
114	0xbdf766b1	-0.12080134
115	0xbeceed7f	-0.4041557
116	0xbe990f98	-0.2989471
117	0x3d2e1be1	0.042507056
118	0x3e8fbb1d	0.28072444
119	0xbeff5d4e	-0.49875873
120	0xbef2b121	-0.47400764
121	0xbeb200e6	-0.3476631
122	0x3ef61777	0.48064777
123	0x3d6f44b7	0.05841514
124	0xbe48365b	-0.19551985
125	0xbc33b482	-0.010968329
126	0x3d0759cd	0.033044625
127	0x3eab1a15	0.33418337
128	0x3e3b3c79	0.18284787
129	0x3ddaba07	0.10680013
130	0xbdd001c5	-0.101565875
131	0xbf11a01f	-0.5688495
132	0x3e768259	0.24073161
133	0x3eb71ba4	0.35763276
134	0xbd927235	-0.071506895
135	0x3e27e42b	0.16395633
136	0xbee3c65b	-0.4448727
137	0xbe7e5de3	-0.24840502
138	0x3ebaf71f	0.36516663
139	0x3db4ee8b	0.08834561
140	0xbef6267e	-0.48076242
141	0xbe8a9968	-0.27070165
142	0x3eb171c8	0.3465712
143	0x3d393c2a	0.045223393
144	0x3dc2f5ab	0.09519514
145	0x3e5a59c4	0.21323305
146	0x3df1dff3	0.11810293
147	0xbe36c15d	-0.178472
148	0x3e9ff98d	0.3124508
149	0xbe5211be	-0.2051458
150	0x3eb63461	0.35586837
151	0xbe20f6b1	-0.15719105
152	0xbdb746ef	-0.089490764
153	0x3e6376f7	0.2221335
154	0x3f1af041	0.6052285
155	0x3eecb55a	0.4623211
156	0x3e557b06	0.20847711
157	0xbdde7608	-0.108623564
158	0x3ed559ad	0.4166998
159	0x3ee096e4	0.4386512
160	0xbd930c28	-0.07180053
161	0x3da94b97	0.08266371
162	0xbd924db4	-0.07143727
163	0xbe88ee58	-0.26744342
164	0x3d2b61b5	0.041841228
165	0xbe107471	-0.14106919
166	0x3dee9c90	0.11650956
167	0xbe9937d5	-0.2992541
168	0xbe5e7a24	-0.2172628
169	0x3d51a716	0.051184736
170	0x3e3b4e3b	0.18291561
171	0x3e924578	0.28568625
172	0x3e3b3c38	0.1828469
173	0xbed76ab6	-0.420736
174	0x3da52ce3	0.08065202
175	0x3ecf4f78	0.40490317
176	0x3e95042c	0.29104745
177	0x3e6e67db	0.23281805
178	0x3ea15564	0.3151046
179	0x3d175b9f	0.03695261
180	0x3e9f6de0	0.31138515
181	0xbd9d05ac	-0.076670974
182	0x3ecefe0b	0.40428194
183	0xbde1af7a	-0.110197976
184	0xbe833489	-0.2562602
185	0xbdb0765c	-0.08616325
186	0x3e6845b9	0.22682847
187	0x3d260a58	0.04053721
188	0xbdd4c152	-0.103884354
189	0x3d479ff6	0.048736535
190	0xbe8d1b26	-0.27559775
191	0x3e9ea8ad	0.30988064
192	0x3d3467e9	0.04404441
193	0xbdf91237	-0.12161677
194	0x3a9295fe	0.0011183617
195	0xbe7bfddd	-0.2460856
196	0x3dd8e309	0.105901785
197	0xbec2210e	-0.37915844
198	0x3d006d6b	0.03135435
199	0xbe0f909c	-0.14020008
200	0xbe7ce9b9	-0.24698533
201	0xbe8f144d	-0.27945176
202	0x3ca0f921	0.019650044
203	0x3e3d9992	0.18515614
204	0xbe8b562b	-0.27214178
205	0x3e48a9c4	0.1959601
206	0xbf217df7	-0.6308283
207	0xbeb49315	-0.35268465
208	0xbe7ce156	-0.24695334
209	0xbc825e30	-0.015914053
210	0x3e714e3d	0.23565002
211	0x3e74b321	0.23896457
212	0xbd503da2	-0.050840028
213	0xbed5ce99	-0.41759184
214	0x3e98572b	0.29754004
215	0x3e96fdd7	0.2949054
216	0xbf018e89	-0.50608116
217	0xbe40f88d	-0.18844815
218	0x3b7e7475	0.0038826738
219	0x3e96f156	0.29481
220	0xbecf1abe	-0.4045009
221	0x3e577c54	0.21043521
222	0xbe895f98	-0.26830745
223	0xbdff0dd8	-0.12453812
224	0x3df23588	0.118266165
225	0x3d80c4fb	0.06287571
226	0xbb9b2f5c	-0.0047358703
227	0xbdbd3429	-0.092384644
228	0x3f02a655	0.5103505
229	0xbdc06e2d	-0.09396014
230	0x3d30ce09	0.04316524
231	0xbe99257e	-0.29911417
232	0x3e225bff	0.15855406
233	0x3cc01d28	0.023451403
234	0xbe916163	-0.28394613
235	0x3dfe8bbe	0.124289975
236	0xbe3aba75	-0.1823519
237	0x3f0cefb9	0.5505329
238	0xbe908f9e	-0.2823457
239	0xbeb5d2d3	-0.3551241
240	0xbe9178ca	-0.28412467
241	0xbe330b50	-0.17484784
242	0x3e31a050	0.1734631
243	0x3d8f07be	0.069838986
244	0xbe42e910	-0.19034219
245	0x3d5ebcb5	0.054379184
246	0xbe88354b	-0.2660316
247	0x3f057301	0.5212861
248	0x3ccc2941	0.024922015
249	0xbe953099	-0.2913864
250	0x3e8537bf	0.26019093
251	0x3ed7e2e1	0.42165282
252	0x3dc45420	0.09586358
253	0xbe8b974d	-0.2726387
254	0xbdd7bc40	-0.10533953
255	0xbecd89db	-0.40144238

conv1.bias f4 [32]
0	0xbcfbd977	-0.030743344
1	0x3da4e7a0	0.080519915
2	0x3deed027	0.11660796
3	0x3ddee66d	0.10883794
4	0x39dde9d0	0.0004232661
5	0xba8ac98f	-0.0010588634
6	0xbd398a65	-0.045298
7	0x3e1040d5	0.14087231
8	0x3e0e2b84	0.13883787
9	0xbdd8cf91	-0.10586465
10	0x3c44ce20	0.012012035
11	0x3e0b84d6	0.13624892
12	0x3cadae99	0.021201419
13	0xbdd32296	-0.10309331
14	0x3dfb804f	0.12280332
15	0x3cd4272f	0.02589759
16	0x3d7f11d9	0.06227288
17	0xbd49a44b	-0.049228948
18	0x3d525f55	0.051360447
19	0x3d253ab4	0.040339187
20	0x3cab6987	0.020924343
21	0xbc28106e	-0.010257823
22	0x3e061b58	0.13096368
23	0x3d807b1a	0.0627348
24	0xbd2d6425	-0.042331833
25	0x3cf647e4	0.030063577
26	0x3db78726	0.089613244
27	0xbd419422	-0.04726041
28	0xb894a8f9	-7.0886636e-05
29	0xbc97b300	-0.018517971
30	0xbdc6ffd8	-0.09716767
31	0x3da920b3	0.0825819

conv1_bn.weight f4 [32]
0	0x3f36aca9	0.7135721
1	0x3f0cad3d	0.5495184
2	0x3f7c278a	0.9849783
3	0x3f0a1237	0.53934044
4	0x3f534adb	0.82536095
5	0x3f3c862c	0.7364223
6	0x3f38ffc4	0.7226527
7	0x3f6dbc71	0.92865664
8	0x3f429580	0.7600937
9	0x3f472b49	0.7780042
10	0x3eefed85	0.468609
11	0x3f3739af	0.71572393
12	0x3ecbe12d	0.39820233
13	0x3f0ab29c	0.54178786
14	0x3f13261c	0.57480025
15	0x3f0900b3	0.5351669
16	0x3f69ef66	0.9138092
17	0x3f156bb1	0.5836745
18	0x3f1b57c3	0.6068079
19	0x3f694efb	0.9113614
20	0x3f49be64	0.7880614
21	0x3f752e93	0.9577419
22	0x3efa6766	0.48907012
23	0x3f522c46	0.82098806
24	0x3f773ebe	0.9658011
25	0x3efe9379	0.49721888
26	0x3f2ae0a9	0.66749054
27	0x3f0ce688	0.5503926
28	0x3f11e8ef	0.56996053
29	0x3f4e9f2e	0.8071164
30	0x3f32a1c1	0.69778067
31	0x3f16f3d9	0.5896583

conv1_bn.bias f4 [32]
0	0xbdfeacf8	-0.12435335
1	0xbef00bf4	-0.4688412
2	0xbd8a5f02	-0.067564026
3	0xbdf1153e	-0.1177163
4	0x3ae24f9c	0.0017266157
5	0xbdd7970a	-0.10526855
6	0xbd5d257a	-0.05399082
7	0xbdc98bc5	-0.09841112
8	0xbe65e874	-0.22451955
9	0xbca0a852	-0.019611511
10	0xbec71efc	-0.38890827
11	0x3dbbec4e	0.09175931
12	0xbe91640d	-0.28396645
13	0x3d275f99	0.040862653
14	0xbd32ec26	-0.04368224
15	0xbe339808	-0.17538464
16	0xbe8dac2d	-0.27670422
17	0x3dfe1f19	0.12408275
18	0xbea03ed6	-0.3129794
19	0xbd85cd9b	-0.06533357
20	0xbe5772f7	-0.2103995
21	0xbe0724a3	-0.1319757
22	0xbea93bf9	-0.33053568
23	0xbd901f60	-0.07037234
24	0xbd88f413	-0.066871785
25	0xbebd530d	-0.36977425
26	0xbe1b02a0	-0.1513772
27	0xbdde9607	-0.10868459
28	0xbe0862f9	-0.13319005
29	0xbe779515	-0.24177964
30	0xbe894774	-0.26812327
31	0xbf01caad	-0.50699884

conv1_bn.running_mean f4 [32]
0	0xbe5b594e	-0.21420786
1	0x3db497c0	0.088180065
2	0xbf5f9e66	-0.8735107
3	0x401d439c	2.4572515
4	0xbfd56752	-1.6672156
5	0x3e23bc35	0.15989764
6	0xbe8f8444	-0.28030598
7	0x3ec5aa9b	0.38606724
8	0x3f022dd2	0.50851166
9	0xbfa318ff	-1.2742003
10	0x3f04f7e2	0.5194074
11	0xbfe6f198	-1.8042479
12	0x3e0a68c2	0.13516524
13	0xbf986736	-1.1906497
14	0x3fe878b5	1.8161837
15	0x3f93321d	1.1499668
16	0xbffb0594	-1.9611077
17	0xc0025761	-2.0365832
18	0xbcfa53ff	-0.03055763
19	0xbf5aeb1f	-0.85515016
20	0xbd7083fe	-0.058719628
21	0xbf15de74	-0.5854256
22	0x3e0b3c78	0.13597286
23	0x3f87695e	1.057903
24	0xbefb2358	-0.49050403
25	0xbe56fdbb	-0.20995228
26	0x3f3cdd77	0.7377543
27	0xbe6c62eb	-0.23084609
28	0xbf1ed93c	-0.62050223
29	0x3d82f3fb	0.06394192
30	0x3f0b65df	0.5445232
31	0x3dccad83	0.09994032

conv1_bn.running_var f4 [32]
0	0x3d295448	0.041340142
1	0x3d19b628	0.037527233
2	0x3dcbbe04	0.09948352
3	0x3ea003b4	0.31252825
4	0x3e2d5678	0.16927516
5	0x3da4202e	0.0801395
6	0x3d630ef3	0.05543418
7	0x3d48a190	0.048982203
8	0x3d8bbae1	0.06822754
9	0x3df4f897	0.11961477
10	0x3d2ca802	0.042152412
11	0x3e799acc	0.24375457
12	0x3d150f97	0.03639182
13	0x3dae9de7	0.08526211
14	0x3e319afb	0.17344277
15	0x3dd91568	0.10599786
16	0x3e967288	0.29384255
17	0x3e55e06f	0.20886396
18	0x3d3fe379	0.046847794
19	0x3daf8604	0.08570483
20	0x3d811756	0.06303279
21	0x3d8b9369	0.06815226
22	0x3d26f10f	0.040757235
23	0x3e08d826	0.13363704
24	0x3d91c8b2	0.07118358
25	0x3d225513	0.039631914
26	0x3d933c07	0.07189184
27	0x3d58537e	0.052814
28	0x3d63bb7d	0.055598725
29	0x3d820cb4	0.06350079
30	0x3dafad41	0.085779674
31	0x3d5b6306	0.053561233

conv2.weight f4 [32, 32, 4, 4]
0	0xbdb741b1	-0.089480765
1	0xbdf61b6c	-0.12016949
2	0x3e1a92d8	0.15095079
3	0xbde5d761	-0.11222721
4	0xbe31d56a	-0.17366567
5	0xbd8e17bc	-0.06938121
6	0xbcb45c45	-0.022016654
7	0x3eafe8b9	0.3435724
8	0x3ea60368	0.32424474
9	0xbebc7635	-0.36808935
10	0x3de3fc24	0.111320764
11	0x3ee0a76c	0.43877733
12	0xbe7da95e	-0.2477164
13	0xbe93a964	-0.28840172
14	0x3e67c938	0.22635353
15	0x3e285698	0.16439283
16	0x3e448553	0.19191484
17	0x3e8d75a8	0.27628827
18	0x3e7f763e	0.2494745
19	0x3e5a83e6	0.21339378
20	0xbe8d92e4	-0.2765113
21	0xbe765c60	-0.24058676
22	0xbe063514	-0.13106185
23	0xbeee6eac	-0.4656881
24	0x3ac5ba0f	0.0015085357
25	0xbe164def	-0.14678167
26	0xbedaa7d6	-0.42706174
27	0x3d7c3f3e	0.06158375
28	0x3e16b2ad	0.14716597
29	0xbd837cdc	-0.064202994
30	0x3e89a71f	0.26885316
31	0xbd031605	-0.03200342
32	0x3d36de81	0.04464579
33	0xbe24613b	-0.16052715
34	0x3d9139b2	0.07091083
35	0x3e38e6ef	0.18056844
36	0xbe92c728	-0.2866757
37	0xbbfb7fe5	-0.0076751583
38	0xbdd0e92b	-0.10200723
39	0xbf03b4cd	-0.51447755
40	0x3e3f5234	0.18683702
41	0x3d446c3b	0.04795478
42	0xbea15b37	-0.31514904
43	0xbd7cf811	-0.061760012
44	0x3d90213b	0.07037588
45	0xbaaf0bb0	-0.0013354924
46	0x39ee2b91	0.00045427357
47	0xbca6e2b4	-0.020371772
48	0x3df6248f	0.12018692
49	0x3e2d702b	0.1693732
50	0x3e71d599	0.23616637
51	0x3dac57e1	0.08415199
52	0x3e2cc76b	0.16872947
53	0x3dde4292	0.10852541
54	0x3e17043b	0.14747708
55	0x3b8ff540	0.0043932498
56	0x3e977a30	0.2958541
57	0x3d68d04f	0.056839284
58	0xbe02487f	-0.12722968
59	0x3dc876f2	0.09788312
60	0x3df1b303	0.11801722
61	0x3e44c79a	0.19216767
62	0x3e675c9b	0.2259392
63	0x3dc9c864	0.098526746
64	0x3ea5f86c	0.32416093
65	0x3ea0a683	0.31377038
66	0x3d77f492	0.060535975
67	0x3ee69e44	0.45042622
68	0xbe83506d	-0.25647298
69	0xbe21d4db	-0.15803854
70	0xbe27658f	-0.16347335
71	0xbde5038c	-0.11182317
72	0xbeb31961	-0.349803
73	0xbd8ca750	-0.0686785
74	0x3c56f91e	0.013120918
75	0xbca63a67	-0.02029152
76	0xbe9f4a3c	-0.31111324
77	0x3cc46e51	0.023978384
78	0xbccbad93	-0.02486304
79	0xbe086b46	-0.13322172
80	0x3d9420ed	0.072328426
81	0xbd2b2320	-0.041781545
82	0x3e9ec036	0.3100602
83	0x3e281d95	0.16417535
84	0xbea97251	-0.3309503
85	0xbeb5a2cb	-0.35475764
86	0x3ca27bad	0.019834364
87	0xbde5e72b	-0.112257324
88	0xbd3d3ce7	-0.04620066
89	0x3e850cea	0.25986415
90	0x3e670d17	0.22563587
91	0x3d209d2a	0.039212383
92	0x3e18ebc2	0.14933684
93	0x3e23d250	0.15998197
94	0x3e012f4c	0.12615699
95	0x3e266ba0	0.16251993
96	0xbdf788b8	-0.12086624
97	0x3dc10fe0	0.09426856
98	0x3dfbe1c4	0.12298921
99	0xbdeed415	-0.11661545
100	0x3e02bc5b	0.12767164
101	0xbe71809f	-0.23584221
102	0x3e5aba26	0.21360072
103	0xbd24b8a5	-0.040215153
104	0xbe9df5a0	-0.3085146
105	0xbe25cfa5	-0.16192491
106	0x3e3d47ac	0.18484372
107	0x3e430099	0.19043197
108	0xbf1ee67d	-0.6207045
109	0xbb52ba2e	-0.0032154429
110	0xbea5d78e	-0.32391018
111	0xbe3a8f4e	-0.18218729
112	0xbdd2601d	-0.102722384
113	0x3d8e9f0e	0.06963931
114	0x3e8afab1	0.27144387
115	0xbf2c6395	-0.6733945
116	0x3c38f8c3	0.011289778
117	0x3e930e06	0.28721637
118	0xbe4509e5	-0.19242056
119	0x3e675ffc	0.22595209
120	0x3d89ab76	0.06722157
121	0x3d9d53ad	0.076819755
122	0x3e1c30d6	0.15253004
123	0x3dc2dc86	0.09514718
124	0x3e9ef32c	0.310449
125	0x3f098834	0.53723454
126	0xbebd4d64	-0.36973107
127	0x3d389c27	0.045070793
128	0x3ed56ac8	0.4168303
129	0xbe13f20c	-0.14447802
130	0xbea1a5e1	-0.31571868
131	0x3cbbf3c8	0.022943392
132	0x3e197e7f	0.1498966
133	0x3dc04cee	0.09389673
134	0xbe1b1613	-0.1514514
135	0xbdcf11dc	-0.10110828
136	0x3e064a69	0.13114323
137	0x3e7aca64	0.24491268
138	0xbe1b20ff	-0.15149306
139	0xbe38d084	-0.18048292
140	0xbe36783f	-0.17819308
141	0xbdfba7d7	-0.12287872
142	0xbe64ccf7	-0.22343813
143	0xbe301b9a	-0.17198029
144	0xbdb8518b	-0.08999928
145	0xbdbac366	-0.091193005
146	0xbbc2ee09	-0.005948786
147	0x3e260a7b	0.16214935
148	0xbe1cc2ab	-0.15308635
149	0x3e21dec8	0.1580764
150	0x3ea7c528	0.32767606
151	0x3cfe6d67	0.031058026
152	0x3e2a1192	0.16608265
153	0xbca74000	-0.02041626
154	0x3e0ab457	0.13545357
155	0xbbbb4fe4	-0.005716311
156	0x3e165dab	0.14684169
157	0x3e12f12c	0.14349812
158	0xbe135ddc	-0.14391273
159	0x3e0f6935	0.14004977
160	0xbd9b5f17	-0.07586496
161	0x3edeea93	0.4353834
162	0x3b967364	0.0045913924
163	0x3dc5737a	0.09641166
164	0x3df81713	0.12113776
165	0xbe4840e1	-0.19556
166	0xbdf0fb2f	-0.117666595
167	0xbd3aea84	-0.045633808
168	0x3ed75f5a	0.42064935
169	0xbd6cf90b	-0.057854693
170	0xbd060305	-0.032717723
171	0x3cb4e85f	0.02208346
172	0xbdd5e435	-0.10443918
173	0xbe61509b	-0.22003405
174	0xbdf9816b	-0.12182888
175	0x3e67c279	0.22632779
176	0x3c8734bd	0.01650464
177	0x3e0e3218	0.13886297
178	0x3e3443fe	0.17604062
179	0x3e1d9fc1	0.15392973
180	0xbe913427	-0.28360102
181	0x3de5e9c8	0.11226231
182	0x3cb7c49c	0.022432618
183	0xbd885f3a	-0.06658788
184	0xbebfa841	-0.37433055
185	0xbe884f7f	-0.2662315
186	0xbd9803e4	-0.07422617
187	0xbb6b2c22	-0.003588446
188	0xbe8c0257	-0.27345535
189	0xbe44f365	-0.19233473
190	0xbda1d081	-0.07901097
191	0xbdca0d72	-0.09865846
192	0xbe13d62d	-0.1443717
193	0x3e63254c	0.22182196
194	0x3e8c3ad4	0.27388632
195	0x3e48e4ed	0.19618578
196	0x3e240f03	0.16021352
197	0x39069740	0.00012835581
198	0xbe49150a	-0.19636932
199	0xbe4ff218	-0.20307195
200	0x3e3eda63	0.18637995
201	0xbe0918e3	-0.133884
202	0xbc7113a3	-0.014714154
203	0xbda61795	-0.08109967
204	0x3ee4f9cd	0.44721833
205	0x3e929717	0.28630897
206	0x3c9ad2d3	0.018899357
207	0x3d89a670	0.067211986
208	0xbe88528a	-0.26625472
209	0x3cf0b27a	0.02938198
210	0xbc9d859c	-0.019228749
211	0x39ae9ba8	0.0003330384
212	0x3da3bdd2	0.0799519
213	0x3b85464e	0.004067219
214	0xbe48e707	-0.1961938
215	0xbba18be8	-0.004930008
216	0x3e328495	0.17433389
217	0xbe87b5d3	-0.26505908
218	0xbe574d36	-0.21025547
219	0x3e900888	0.2813151
220	0xbe39f3e1	-0.18159439
221	0xbd7303d7	-0.059329834
222	0x3db3e8d4	0.08784643
223	0xbde4dbab	-0.11174711
224	0xbe8b699b	-0.27229008
225	0x3e2c4d3e	0.1682634
226	0x3ea4c901	0.32184604
227	0xbd2cd116	-0.042191587
228	0x3dcddd3f	0.10051965
229	0xbe411be6	-0.18858299
230	0xbe27bd51	-0.16380812
231	0x3d773009	0.060348544
232	0x3ea6a649	0.3254874
233	0x3da7f8f2	0.082017794
234	0xbe1325f4	-0.14369947
235	0x3ec12241	0.37721446
236	0x3eadda48	0.33955598
237	0xbe106347	-0.14100371
238	0xbe119848	-0.14218247
239	0xbd3f3aba	-0.046686865
240	0x3e323247	0.17401992
241	0x3e3720dd	0.1788363
242	0xbe8628eb	-0.26203093
243	0xbd720578	-0.059087247
244	0x3e1435b2	0.14473608
245	0xbd6525c3	-0.055944216
246	0x3eb81d87	0.35960028
247	0x3dbbc285	0.09167961
248	0xbdc74b07	-0.09731107
249	0x3e82c579	0.25541285
250	0xbdcf5b5a	-0.10124846
251	0x3cbd9bd6	0.023145597
252	0x3d37b5cb	0.044851106
253	0xbe819d2f	-0.25315234
254	0xbdc8d6fa	-0.098066285
255	0x3e1ec712	0.15505627

conv2.bias f4 [32]
0	0x3d143242	0.036180742
1	0xbc92b171	-0.017906876
2	0xbcb29d48	-0.021803513
3	0xbd19237c	-0.037387356
4	0x3d0449f2	0.032297082
5	0xbd1d4b08	-0.038401634
6	0x3b7d2b9a	0.0038630725
7	0xbaf4d03c	-0.0018677781
8	0xbcf0f9fe	-0.02941608
9	0x3d27e565	0.040990252
10	0xbcbe0c2d	-0.023199165
11	0x3d0b4f95	0.034011442
12	0x3d0466aa	0.03232447
13	0xbd24d5e6	-0.040243052
14	0x3cbf21a9	0.02333148
15	0xbbf90196	-0.007599066
16	0xbd02fa78	-0.031977147
17	0xbd0ea7ed	-0.034828115
18	0xbb4b9436	-0.0031063682
19	0xbc620c82	-0.013796927
20	0xbd115b5a	-0.03548751
21	0x3c93f48d	0.018060947
22	0x3d1765cb	0.03696231
23	0xbc577835	-0.013151218
24	0x3d1feeab	0.03904597
25	0xbd17c92b	-0.037057083
26	0xbd2e1948	-0.04250458
27	0xbce38af4	-0.027776219
28	0x3c9a2052	0.01881424
29	0xbc0d5d46	-0.008628195
30	0x3d0ccca1	0.034374837
31	0x3b9b823f	0.004745751

conv2_bn.weight f4 [32]
0	0x3eef8486	0.46780795
1	0x3f01e992	0.50747025
2	0x3f2b3dcf	0.6689119
3	0x3f25f267	0.64823
4	0x3f15a961	0.58461577
5	0x3f972ab0	1.1809902
6	0x3f4b61cd	0.7944611
7	0x3f4c0160	0.796896
8	0x3f84db00	1.0379333
9	0x3ef6d198	0.48206782
10	0x3f19d8fe	0.6009673
11	0x3f1bf5d2	0.6092197
12	0x3ef5be29	0.47996643
13	0x3f064fa1	0.52465254
14	0x3f5e2ac9	0.86784035
15	0x3f284fed	0.6574696
16	0x3eed262a	0.4631818
17	0x3f25c489	0.64753014
18	0x3ee0bea5	0.4389545
19	0x3f10ed2c	0.56611896
20	0x3f117b06	0.56828344
21	0x3f18de92	0.59714615
22	0x3f629080	0.8850174
23	0x3f1a10d5	0.60181934
24	0x3f28d8a0	0.65955544
25	0x3c493719	0.012281203
26	0x3f22198a	0.6332022
27	0x3f7433ce	0.9539155
28	0x3f0a986e	0.5413884
29	0x3f2f2c07	0.68426555
30	0x3f7705a5	0.9649299
31	0x3f00f029	0.50366455

conv2_bn.bias f4 [32]
0	0xbe5789a2	-0.21048597
1	0xbe3daa42	-0.1852198
2	0xbe803910	-0.25043535
3	0xbe4c0761	-0.1992469
4	0xbe070b8b	-0.13187997
5	0xbdaa601d	-0.083191134
6	0xbe77dd36	-0.24205479
7	0xbd013949	-0.031548772
8	0x3d577d95	0.05261
9	0x3d9ef09e	0.07760738
10	0xbe24a35c	-0.16077942
11	0xbe5ab2a5	-0.2135721
12	0xbdd9cd84	-0.10634902
13	0xbea79b74	-0.3273579
14	0x3d981b5e	0.07427095
15	0x3c4f9327	0.012669361
16	0xbdeeb20d	-0.11655054
17	0xbe8444be	-0.25833696
18	0xbe4c8036	-0.19970784
19	0xbd5b13d4	-0.053485706
20	0xbe61e5d9	-0.22060336
21	0xbea6cfc6	-0.32580394
22	0x3d98fc16	0.074699566
23	0xbd815871	-0.06315697
24	0xbe09a7d6	-0.1344293
25	0xbd52f465	-0.051502604
26	0xbe65cfe0	-0.2244258
27	0xbd62a90a	-0.05533699
28	0xbe84a556	-0.2590739
29	0xbd5eda73	-0.05440755
30	0xbd094882	-0.033516414
31	0x3d0ef66c	0.034902975

conv2_bn.running_mean f4 [32]
0	0xbee50074	-0.44726908
1	0xbfa6718d	-1.3003403
2	0x3edebaa4	0.4350177
3	0xbfa9b700	-1.3258972
4	0xbff62b38	-1.9231939
5	0xc014b564	-2.3235712
6	0xc073276a	-3.7992806
7	0x405a2f8f	3.4091527
8	0xbfc94670	-1.5724621
9	0xbe9cf995	-0.30659166
10	0x408886b2	4.2664423
11	0xc004f5f5	-2.077512
12	0x3f13a80f	0.5767831
13	0x40046bc1	2.0690768
14	0x3e47decf	0.19518588
15	0xbfd47249	-1.6597377
16	0x3f1b1dcb	0.60592335
17	0xc04c9e76	-3.1971717
18	0x3e863fa4	0.2622043
19	0x3fdd0762	1.7267878
20	0xbf1f91f4	-0.6233208
21	0xbf94785c	-1.1599231
22	0xbfa4125b	-1.2818102
23	0xbfdfe061	-1.749035
24	0xbedfaeae	-0.43687958
25	0xbe118834	-0.14212114
26	0xbfcfa561	-1.6222345
27	0xbfd6ef34	-1.6791749
28	0xbe7d044d	-0.24708672
29	0xbf19d014	-0.6008313
30	0xbf867c32	-1.0506651
31	0xc05ae495	-3.4202015

conv2_bn.running_var f4 [32]
0	0x40ad19b4	5.4093876
1	0x409d4317	4.9144397
2	0x40eb70de	7.3575277
3	0x410d0918	8.81472
4	0x4099dc89	4.808171
5	0x418d12d2	17.63419
6	0x4162167c	14.130489
7	0x41374ebe	11.456724
8	0x416f4beb	14.956035
9	0x408e1c4c	4.440954
10	0x410d32f6	8.824942
11	0x40fd07f0	7.907219
12	0x40e1b06e	7.052787
13	0x40b5e399	5.684033
14	0x411d7801	9.841798
15	0x40c15dc1	6.0426946
16	0x405f4b0e	3.488956
17	0x40fcf93d	7.9054246
18	0x405b8274	3.4298372
19	0x40b061f3	5.5119567
20	0x40eb8a4d	7.3606324
21	0x40b207c7	5.5634494
22	0x414fa393	12.977435
23	0x40ddd5e4	6.9323597
24	0x40e1bb87	7.0541415
25	0x3e16b03b	0.14715664
26	0x40f473c9	7.639134
27	0x4142837b	12.1571
28	0x40adb032	5.427758
29	0x40e20884	7.0635395
30	0x414c6d8c	12.776745
31	0x40a989b4	5.2980595

conv3.weight f4 [32, 32, 4, 4]
0	0x3ca7b4e5	0.020472
1	0x3e59d895	0.21274026
2	0xbec9e50f	-0.3943257
3	0xbeca4d15	-0.39511934
4	0xbc17c00e	-0.009262098
5	0xbd6e78d4	-0.0582207
6	0xbb553e07	-0.0032538192
7	0x3e4af5ee	0.19820377
8	0x3cb7129f	0.022347746
9	0xbdfc26bd	-0.12312076
10	0xbdec99f6	-0.11552803
11	0x3d320c44	0.04346873
12	0xbed9a5eb	-0.42509398
13	0xbea929a8	-0.33039594
14	0x3e75c361	0.24000312
15	0xbe3d1e53	-0.18468599
16	0xbcb4c5ee	-0.022067036
17	0x3e313820	0.17306566
18	0xbde13b51	-0.10997642
19	0x3c6c2a9e	0.014414458
20	0xbe23f263	-0.16010432
21	0x3e928779	0.28618982
22	0xbd46353f	-0.048390623
23	0xbe35307f	-0.17694281
24	0xbe52973f	-0.20565508
25	0x3d86e20f	0.06586086
26	0x3eb7afaf	0.35876223
27	0x3f08b038	0.5339389
28	0x3e2dd71a	0.16976586
29	0xbdd70b32	-0.10500182
30	0x3d14fbef	0.036373075
31	0xbe32ffc8	-0.17480385
32	0x3e0af66f	0.1357057
33	0xbe6c62ff	-0.23084639
34	0xbd18d771	-0.037314836
35	0x3eb2acfb	0.348976
36	0x3d0a156a	0.03371183
37	0x3e8220b8	0.25415587
38	0x3dcc0c36	0.099632666
39	0xbc94ee3f	-0.01818001
40	0xbb9f8f15	-0.0048693516
41	0x3d8a3c90	0.06749833
42	0xbf1a98df	-0.6038951
43	0xbe1658b4	-0.14682275
44	0xbdcb669b	-0.0993168
45	0xbd200b48	-0.03907326
46	0x3e5e8b93	0.21732931
47	0xbea655e2	-0.32487398
48	0x3e5be8d3	0.21475534
49	0x3e11ad18	0.14226186
50	0x3cb7ce7a	0.022437323
51	0x3ddb1697	0.10697668
52	0x3e03a64e	0.12856409
53	0xbe02bfa4	-0.12768418
54	0xbe3470f0	-0.17621207
55	0x3e650be6	0.2236782
56	0x3de83654	0.11338487
57	0xbdd4e844	-0.10395864
58	0x3e2e2cff	0.17009352
59	0x3f16c1eb	0.58889645
60	0xbeac4856	-0.33648938
61	0xbec8ec2f	-0.39242694
62	0xbddad78d	-0.10685644
63	0xbdb17217	-0.08664339
64	0xbe281240	-0.16413212
65	0x3d7e7b47	0.062129285
66	0x3e26e411	0.16297938
67	0x3e118807	0.14212047
68	0xbc4b7b44	-0.0124195255
69	0xbde14f01	-0.11001397
70	0x3e0d48dd	0.13797326
71	0xbd50bec3	-0.050963175
72	0xbebd4fb1	-0.36974862
73	0x3de05646	0.10953955
74	0x3d2d838b	0.042361777
75	0x3e8cdcbe	0.27512163
76	0xbd9b2996	-0.07576291
77	0xbcdcdda1	-0.02696115
78	0xbdeeacee	-0.116540775
79	0x3e7af15e	0.24506137
80	0xbe04100a	-0.12896743
81	0xbdb1887c	-0.086686105
82	0x3c8913e3	0.016733116
83	0xbe9515db	-0.29118237
84	0xbe89823e	-0.2685718
85	0xbe5d787a	-0.2162799
86	0xbd6bb9dd	-0.0575503
87	0x3e78d83b	0.24301235
88	0xbe04befc	-0.1296348
89	0xbdfcfdf3	-0.123531245
90	0x3e0d0dfe	0.13774869
91	0xbde1e770	-0.11030471
92	0xbe3d7503	-0.18501668
93	0x3e108c32	0.1411598
94	0x3d69616f	0.056977686
95	0xbe5dbd84	-0.21654326
96	0xbedb06b3	-0.4277855
97	0xbe2526d8	-0.16128099
98	0x3e416206	0.18885049
99	0x3de61db0	0.11236131
100	0x3dd8cc6d	0.10585866
101	0x3d5b7ab5	0.05358382
102	0x3e343759	0.17599238
103	0xbe86df4e	-0.26342243
104	0xbe3ee009	-0.1864015
105	0xbbed55b2	-0.0072428817
106	0x3e669b8a	0.22520271
107	0x3db4101e	0.087921366
108	0xbe943d33	-0.2895294
109	0xbeb6e394	-0.35720503
110	0x3e70bb3b	0.23508923
111	0x3e1d9514	0.153889
112	0xbcd154ea	-0.025553185
113	0xbdee4b43	-0.11635449
114	0x3e0db304	0.1383782
115	0x3d485e49	0.048918042
116	0x3ee8b1ab	0.4544805
117	0x3e80c582	0.25150687
118	0xbecff00e	-0.40612835
119	0xbe6503f6	-0.22364792
120	0x3e071b41	0.1319399
121	0xbed129c2	-0.4085217
122	0xbeed4903	-0.46344766
123	0xbe0f2f95	-0.13982995
124	0x3e8d0439	0.27542284
125	0xbe674429	-0.22584595
126	0xbf00528a	-0.50125945
127	0xbdb5a5d4	-0.0886952
128	0x3d8d3724	0.06895283
129	0xbd209335	-0.039202888
130	0xbdb88eb7	-0.09011596
131	0x3ddfee33	0.10934105
132	0x3ee3311b	0.44373402
133	0xbeb8310c	-0.3597492
134	0xbb40a831	-0.0029397125
135	0x3db346e5	0.087537564
136	0x3ea1c6de	0.31597036
137	0xbef34dbc	-0.47520244
138	0xbee7435c	-0.4516858
139	0xbed08f43	-0.407343
140	0x3d336b3d	0.043803442
141	0xbe0d2ee2	-0.13787416
142	0xbe58bf8b	-0.21166818
143	0xbe4707f9	-0.19436635
144	0xbe322069	-0.17395176
145	0xbe5dcda3	-0.21660475
146	0xbd88ec8f	-0.06685745
147	0xbd9f83c8	-0.07788807
148	0x3e7300e9	0.23730816
149	0x3de61990	0.112353444
150	0x3e6f1c76	0.233507
151	0xbf08cc98	-0.53437185
152	0xbe8c1821	-0.2736216
153	0x3c8bb5a9	0.017054396
154	0x3d832df7	0.064052515
155	0x3eca7a05	0.3954622
156	0x3d7c6b31	0.061625663
157	0xbebd50d8	-0.3697574
158	0x3e8698d8	0.26288486
159	0xbe653603	-0.22383885
160	0xbb8daba9	-0.004323442
161	0xbcf83a81	-0.030301334
162	0xbe7a5b50	-0.24448895
163	0x3d85b4a5	0.06528596
164	0xbe5034ea	-0.20332685
165	0xbe251b45	-0.16123684
166	0x3e0bccf8	0.13652408
167	0xbe623ce1	-0.22093536
168	0xbe95b46f	-0.29239222
169	0x3d1182cd	0.035525132
170	0xbe6509cf	-0.22367023
171	0xbeb59de7	-0.35472032
172	0x3e379a2d	0.17929907
173	0xbf05bb00	-0.52238464
174	0xbef71722	-0.48259836
175	0xbba5298b	-0.0050403527
176	0x3ea77e57	0.32713577
177	0x3e80764f	0.25090262
178	0x3e776180	0.24158287
179	0x3d850787	0.06495576
180	0x3e48b274	0.19599324
181	0xbd0d26ae	-0.034460716
182	0x3e6d094c	0.23148078
183	0x3e2d46d0	0.16921544
184	0xbe53edad	-0.20696135
185	0x3e0dfc00	0.13865662
186	0xbdadf1a7	-0.08493357
187	0x3e8ffc5e	0.28122228
188	0xbf1153bc	-0.56768394
189	0xbe717ddd	-0.2358317
190	0x3ea73d73	0.3266407
191	0x3d94c5bc	0.07264277
192	0xbd5109bf	-0.051034685
193	0xbe5b3875	-0.21408255
194	0xbda8e5ff	-0.08246993
195	0xbe8e1360	-0.27749157
196	0xbe2bc15b	-0.16772978
197	0x3e7ada80	0.24497414
198	0xbe068456	-0.1313642
199	0xbce3c186	-0.02780224
200	0xbef71a35	-0.48262182
201	0xbe6a6c1f	-0.22892807
202	0xbde900f7	-0.11377137
203	0x3c5cc303	0.013474229
204	0xbec03572	-0.37540776
205	0xbf043941	-0.5164986
206	0xbe619faa	-0.22033563
207	0x3da1ff22	0.07909991
208	0x3eb9246d	0.36160603
209	0xbc8bb294	-0.017052926
210	0xbe927db8	-0.2861154
211	0xbcbd3fbc	-0.02310168
212	0xbe798c40	-0.24369907
213	0xbc014cf3	-0.007891881
214	0xbeb0bd5c	-0.3451947
215	0x3c552795	0.013009925
216	0x3dab7880	0.08372593
217	0xbeaa3a16	-0.3324744
218	0xbe0f2b6d	-0.1398141
219	0xbd763381	-0.06010771
220	0xbf15390d	-0.5829018
221	0xbdbc2abf	-0.09187841
222	0xbe8ccac4	-0.27498448
223	0x3c9a1446	0.018808495
224	0x3bf0f0e2	0.007352934
225	0xbdd59f8a	-0.1043082
226	0x3d87e337	0.06635135
227	0x3f119782	0.5687181
228	0xbd5cfa2e	-0.053949527
229	0x3ea29fcb	0.31762537
230	0xbe5d0997	-0.2158569
231	0xbe05f0b3	-0.130801
232	0xbe4b2db5	-0.19841655
233	0xbe704a1e	-0.23465773
234	0xbecdf584	-0.40226376
235	0xbe60dcb7	-0.21959196
236	0x3ed4f4f4	0.41593134
237	0xbe16e8ed	-0.14737292
238	0x3dec16ef	0.11527812
239	0x3eaa78c3	0.3329526
240	0xbf1d5c5c	-0.61469054
241	0x3ea6a06d	0.3254427
242	0x3e657685	0.22408493
243	0x3da53d96	0.08068387
244	0x3ed83335	0.42226568
245	0x3e20e95e	0.15714023
246	0xbdbbd7d6	-0.09172027
247	0xbe10b471	-0.14131333
248	0xbeada6df	-0.33916375
249	0xbde51428	-0.11185485
250	0xbee19bd6	-0.44064206
251	0x3ddfeb8e	0.109336
252	0xbf0879af	-0.53310674
253	0xbe200f09	-0.15630735
254	0xbe8a6d67	-0.27036592
255	0xbe5f8320	-0.21827364

conv3.bias f4 [32]
0	0xbc40e0fc	-0.01177239
1	0xbd228557	-0.039677944
2	0xbc4cb4d9	-0.012494289
3	0x3d25b2d5	0.04045375
4	0xbd2ddf5e	-0.042449348
5	0xbc0a69aa	-0.008448044
6	0x3c737be4	0.014861081
7	0x3ca3cf7d	0.019996399
8	0x3bb84b6a	0.0056242244
9	0x3d1d8173	0.03845353
10	0x3d0e1cff	0.03469562
11	0x3ceba01a	0.028762866
12	0x3bee1560	0.0072657317
13	0xbb450de5	-0.0030068096
14	0xbac8bbbd	-0.001531474
15	0xbd1913b1	-0.037372295
16	0x3d0fe6d2	0.035132237
17	0xbd01aa31	-0.031656448
18	0xbc00da54	-0.0078645535
19	0xbc953c92	-0.018217359
20	0xbd0420a5	-0.032257695
21	0x3d03fcb7	0.03222343
22	0x3d14ed29	0.036358986
23	0x3cf3f2ac	0.0297788
24	0xbc43941b	-0.011937167
25	0xbc2f50a5	-0.0107003795
26	0xbd294600	-0.041326523
27	0xbd17355a	-0.036916114
28	0xbc9620fc	-0.018326275
29	0x39860a8c	0.0002556633
30	0xbcd21456	-0.025644463
31	0x3d313830	0.043266475

conv3_bn.weight f4 [32]
0	0x3f788815	0.97082645
1	0x3f38e1a3	0.72219294
2	0x3ed44dc4	0.4146558
3	0x3ee827e7	0.45342943
4	0x3f072ab2	0.5279952
5	0x3f803880	1.0017242
6	0x3efeaa19	0.4973915
7	0x3fb79b0a	1.4344189
8	0x3f030582	0.5118028
9	0x3f93a81f	1.1535681
10	0x3f0c95d1	0.549161
11	0x3f0dbdca	0.5536772
12	0x3f05315f	0.5202846
13	0x3f1e7ea0	0.61911964
14	0x3f55cdea	0.83517325
15	0x3f917c6e	1.1366098
16	0x3f1331c0	0.5749779
17	0x3f6ccbf2	0.92498696
18	0x3f8adeae	1.0849206
19	0x3f2bde79	0.6713634
20	0x3f8c5d02	1.0965884
21	0x3f59b2e5	0.85038596
22	0x3f3b5203	0.73172015
23	0x3ef3e724	0.47637284
24	0x3f88b51f	1.0680274
25	0x3f511204	0.81668115
26	0x3eeaddbe	0.458723
27	0x3ec66b1a	0.38753587
28	0x3f20fb32	0.62883294
29	0x3f585153	0.8449909
30	0x3f8c8051	1.0976659
31	0x3f089893	0.5335781

conv3_bn.bias f4 [32]
0	0xbdd3ea35	-0.10347406
1	0xbcaf30be	-0.021385547
2	0xbe2c97dd	-0.16854806
3	0xbdc39b63	-0.09551122
4	0xbdec3a9e	-0.11534618
5	0xba5de03f	-0.0008463896
6	0x3c59ad26	0.013285911
7	0xbd55dcdc	-0.05221258
8	0xbcbf6511	-0.023363622
9	0xbe0f2128	-0.13977492
10	0xbe83df7d	-0.25756446
11	0xbde0f0c5	-0.10983423
12	0xbe32dd49	-0.17467226
13	0xbda74a6a	-0.0816849
14	0xbb249bfb	-0.0025117386
15	0x3d173cb5	0.03692313
16	0xbded89f5	-0.11598579
17	0x3d1ece76	0.038771115
18	0xbd918bd1	-0.07106746
19	0xbe1d0c6e	-0.15336773
20	0x3c6d6764	0.014489982
21	0xbcf90b98	-0.030401036
22	0xbde6d13c	-0.11270377
23	0xbdeabe8e	-0.11462127
24	0xbd9e8f0a	-0.07742126
25	0x3d854e31	0.065090545
26	0xbe863498	-0.26212
27	0xbe120f69	-0.14263691
28	0xbe66722a	-0.22504488
29	0xbcf236cc	-0.029567145
30	0x3cd4fbf3	0.025999045
31	0x3d60636a	0.05478231

conv3_bn.running_mean f4 [32]
0	0xc0884987	-4.2589755
1	0x3ffff030	1.9995174
2	0x3f0c663c	0.548435
3	0x3fd5f591	1.6715566
4	0xbfe7af03	-1.8100284
5	0xbfe3599b	-1.776172
6	0xbfb644d9	-1.4239761
7	0xc05db1f9	-3.4639876
8	0xc07a82c4	-3.9142313
9	0xc022352c	-2.5344954
10	0xbed2f28b	-0.4120067
11	0xbf92821e	-1.1445959
12	0xc097b3ad	-4.740683
13	0xbf118fd3	-0.56860083
14	0xbf89614b	-1.0732816
15	0xbfad5b11	-1.3543416
16	0xc0060388	-2.0939655
17	0xbfe6363e	-1.7985303
18	0xbfe7cab4	-1.8108735
19	0xbf2a5b24	-0.6654532
20	0xbf5d4e79	-0.86447865
21	0xc00bcbf7	-2.184324
22	0xc05a9c69	-3.4157965
23	0xbf7ca4f7	-0.98689216
24	0xc0128b2c	-2.2897444
25	0xc0419d52	-3.025227
26	0xbfad8bfe	-1.3558347
27	0xc01c2124	-2.4395227
28	0x408d3237	4.4123797
29	0xc05ab8bf	-3.417526
30	0xc007f20d	-2.1241486
31	0xbf75ad80	-0.95967865

conv3_bn.running_var f4 [32]
0	0x40d2a4ac	6.5826015
1	0x40eb181e	7.346694
2	0x40984c60	4.759323
3	0x4040adb9	3.0106032
4	0x412467b5	10.275319
5	0x41031f54	8.195148
6	0x405efd73	3.4842193
7	0x412a373b	10.638484
8	0x407986d5	3.8988545
9	0x40ecbbf3	7.397943
10	0x40aaf9b9	5.3429837
11	0x406406f3	3.5629241
12	0x4039b55e	2.9016948
13	0x409632fd	4.693724
14	0x408be715	4.3719583
15	0x4129d0b8	10.613457
16	0x40aacb61	5.3373265
17	0x40c53581	6.1627812
18	0x40b84545	5.7584558
19	0x40b18213	5.547128
20	0x4116f101	9.433839
21	0x40c399d9	6.11253
22	0x40aef90f	5.4679027
23	0x40b917b0	5.7841415
24	0x40eb9fd5	7.3632607
25	0x40ac6b44	5.388094
26	0x40a4a03d	5.1445603
27	0x4035d6a5	2.8412259
28	0x410d8376	8.844595
29	0x40c229a0	6.067581
30	0x40e61589	7.190129
31	0x407ec462	3.9807363

linear1.weight f4 [32, 6272]
0	0x3e3cddc5	0.18443973
1	0xbd72c605	-0.059270877
2	0x3d84ad61	0.06478382
3	0x3d2887cd	0.041145135
4	0xbea72200	-0.32643127
5	0xbe559e43	-0.20861153
6	0x3d403919	0.046929453
7	0x3dec41b4	0.115359694
8	0xbd49d05e	-0.04927098
9	0xbe0cb1e8	-0.13739741
10	0x3dc58502	0.0964451
11	0x3dca46cd	0.098767854
12	0xbc36e134	-0.011162091
13	0xbe7a150b	-0.2442209
14	0xbe9cb3a5	-0.30605808
15	0xbd2d384e	-0.042290024
16	0xbe53bffe	-0.20678708
17	0xbe619d6d	-0.2203271
18	0xbeb17806	-0.34661883
19	0x3e4cc770	0.19997954
20	0x3ec9d9e3	0.39424047
21	0x3d90f01d	0.07077048
22	0x3be2fe5b	0.006927294
23	0xbc7d3219	-0.015453839
24	0xbe3e5369	-0.18586506
25	0x3dee1a4e	0.11626111
26	0xbe832121	-0.25611213
27	0xbd9cfbb2	-0.076651946
28	0xbe144f7d	-0.14483447
29	0xbe5f04f0	-0.21779227
30	0x3b58c6d0	0.0033077486
31	0xbe23f1be	-0.16010186
32	0xbe286496	-0.1644462
33	0xbcf55eff	-0.029952524
34	0x3e9f0a7d	0.3106269
35	0x3dc9a753	0.09846368
36	0xbda6b5f8	-0.081401765
37	0xbdcffc61	-0.10155559
38	0x3d19ed30	0.037579715
39	0xbdb7843e	-0.0896077
40	0xbda9a5d9	-0.08283586
41	0x3dbb5daf	0.09148728
42	0xbd986106	-0.07440381
43	0xbdadbf42	-0.08483745
44	0xbe8ca09c	-0.27466285
45	0xbc6d8d4e	-0.014499022
46	0x3d5bb5bf	0.053640123
47	0x3eb6483f	0.35601994
48	0x3d163772	0.03667397
49	0xbe0814ec	-0.13289231
50	0xbdecfc8c	-0.11571607
51	0x3e7e9932	0.24863127
52	0x3d85beb7	0.065305166
53	0x3e00ce67	0.12578736
54	0x3df8d062	0.12149121
55	0xbd5fd7fc	-0.054649338
56	0xbd6f01ec	-0.058351442
57	0x3d3b5925	0.04573931
58	0xbe20facc	-0.15720671
59	0x3e383e8e	0.17992613
60	0xbdd78b21	-0.105245836
61	0xbe4865a5	-0.19570024
62	0x3eded73a	0.4352358
63	0xbd3441c4	-0.04400803
64	0x3e578829	0.21048035
65	0xbd63ce37	-0.055616584
66	0xbd36e127	-0.044648316
67	0xbca089ba	-0.019596923
68	0xbe4e30d0	-0.20135808
69	0x3db06f3a	0.08614965
70	0xbd987a1c	-0.074451655
71	0xbd2d64b5	-0.04233237
72	0xbe6d6dc2	-0.231864
73	0x3db17f94	0.08666912
74	0xbe2143a3	-0.15748458
75	0x3db02611	0.086010106
76	0x3e81a9da	0.253249
77	0x3e34679e	0.17617652
78	0xbe82f6f4	-0.25579035
79	0xbed455c6	-0.4147169
80	0x3c8808fb	0.016605845
81	0xbd618c8e	-0.055065684
82	0xbc2d633c	-0.010582741
83	0xbc8ed7bf	-0.01743686
84	0xbc39372d	-0.011304659
85	0x3e2c1437	0.16804586
86	0xbe86b3f1	-0.2630916
87	0x3cd4a3d2	0.025957022
88	0x3e32700a	0.17425552
89	0x3d12cb70	0.035838544
90	0xbca524b2	-0.0201591
91	0xbe9b6f20	-0.3035822
92	0xbe6e8721	-0.23293735
93	0xbda97cd1	-0.0827576
94	0xba510086	-0.0007972795
95	0xbd998c75	-0.07497493
96	0xbd6e3c16	-0.05816277
97	0x3d9f2495	0.07770649
98	0x3e39da63	0.18149714
99	0x3daa521d	0.08316443
100	0xbd8ae125	-0.06781224
101	0xbdb95cde	-0.09050916
102	0xbe942788	-0.2893641
103	0x3dc73240	0.09726381
104	0xbc44f194	-0.012020487
105	0x3db570a5	0.08859376
106	0x3e8a9988	0.2707026
107	0xbdb88c52	-0.09011139
108	0xba968df1	-0.0011486394
109	0x3da5868d	0.08082304
110	0x3c6dcb72	0.014513837
111	0xbb80ff80	-0.003936708
112	0xbc9324a7	-0.017961813
113	0x3e740e34	0.23833543
114	0xbeb22ae4	-0.34798348
115	0xbc64d9cd	-0.013967943
116	0x3e921c31	0.28537133
117	0x3d2bf4ea	0.041981615
118	0xbcd2ea9a	-0.025746632
119	0x3e384ef5	0.1799887
120	0xbe013b19	-0.126202
121	0xbd2f504a	-0.04280118
122	0x3d5474af	0.05186909
123	0xbd227499	-0.039661977
124	0x3a146d6a	0.0005662056
125	0x3d780d40	0.06055951
126	0xbd9d5fa5	-0.07684258
127	0xbdb6805c	-0.08911201
128	0x3d235062	0.03987158
129	0x3d863bcc	0.06554374
130	0x3dfc4be8	0.123191655
131	0xbd5675a0	-0.05235827
132	0xbd216279	-0.03940055
133	0x3c74da79	0.014944666
134	0xbd729e78	-0.05923316
135	0xbda88a23	-0.082294725
136	0x3c93d1b4	0.01804433
137	0x3c52c92a	0.012865344
138	0xbde88a82	-0.11354543
139	0xbda2c26c	-0.07947239
140	0x3da3dde5	0.080013074
141	0xbdfbe2c7	-0.12299114
142	0xbe0ac30e	-0.1355097
143	0x3db92e29	0.090420075
144	0x3d2a2e52	0.04154808
145	0x3c50284a	0.012704918
146	0xbdedd9bb	-0.116137944
147	0xbcccf524	-0.025019236
148	0x3ab46736	0.0013763669
149	0x3e2476e5	0.1606098
150	0x3df652c8	0.12027508
151	0x3bf5ac25	0.007497328
152	0x3d9d82fa	0.076909974
153	0x3d4daaec	0.050211832
154	0x3da4472d	0.08021388
155	0xbd457707	-0.048209216
156	0x3c377df8	0.011199467
157	0x3e0220c3	0.1270781
158	0xbc4a74ff	-0.012356996
159	0x3c909f8b	0.017654201
160	0x3dad0058	0.08447331
161	0x3d2609dc	0.040536746
162	0x3ca2857a	0.019839037
163	0x3d7c5ab6	0.061609946
164	0x3eb2471a	0.3481987
165	0x3d4c7d0b	0.049923938
166	0x3c81a148	0.015823975
167	0x3d605f46	0.05477836
168	0x3da39169	0.07986719
169	0x3d374a26	0.044748448
170	0xbc54eaf7	-0.012995473
171	0xbc55625e	-0.013023941
172	0x3c8c1821	0.01710135
173	0xbc81a282	-0.01582456
174	0xbdaa270f	-0.08308231
175	0xbdb4a8fb	-0.08821293
176	0xbd9108cf	-0.07081758
177	0xbd8cfc04	-0.06884006
178	0x3d866fa8	0.065642655
179	0x3d0e0494	0.034672335
180	0x3c628d08	0.01382757
181	0xbc880390	-0.016603261
182	0x3dc8b5a6	0.09800272
183	0x3e34ba02	0.17649081
184	0x3cf0c40b	0.029390356
185	0xbd5bc90f	-0.05365854
186	0xbdc534ba	-0.096291974
187	0x3ddf7cf4	0.10912505
188	0xbe1b4e5a	-0.15166607
189	0xbdc2b40d	-0.09506998
190	0x3d128542	0.035771616
191	0xbd5acc1a	-0.053417303
192	0x3d8120af	0.06305062
193	0xbd5d11db	-0.053972106
194	0x3c0bb422	0.008526834
195	0xbd957b9a	-0.07298966
196	0x3c3ae51a	0.011407161
197	0x3c106685	0.008813505
198	0x3b111816	0.00221396
199	0x3cbe054e	0.023195889
200	0x3cbabc31	0.022794815
201	0x3e470986	0.19437227
202	0x3c17f7fd	0.009275434
203	0xbd224778	-0.03961894
204	0xbda0c0ae	-0.07849251
205	0xbc9def47	-0.019279135
206	0xb9bbf7eb	-0.00035852133
207	0x3d4af57e	0.049550526
208	0x3d3872b4	0.045031264
209	0x3b111027	0.0022134872
210	0x3ca9b7c4	0.02071751
211	0x3c9a6c2e	0.018850412
212	0x3c825d94	0.015913762
213	0x3da14d36	0.07876055
214	0x3d078b9f	0.033092137
215	0x3cbb160e	0.022837665
216	0xbde98a79	-0.11403365
217	0x3d9d0bd5	0.076682724
218	0x3d4bfcf9	0.0498018
219	0x3d848d58	0.06472272
220	0xbe0065fc	-0.12538904
221	0x3dd03f28	0.10168296
222	0x3db27649	0.08713967
223	0x3c19f744	0.009397332
224	0x3c111b0f	0.008856549
225	0xbc67b51a	-0.014142299
226	0x3c19bc5a	0.009383285
227	0x3e33a9cf	0.17545246
228	0xbe8b8eb8	-0.27257323
229	0x3e7d1ee7	0.2471882
230	0x3d5c99bb	0.053857546
231	0x3d784e48	0.06062153
232	0xbe259a26	-0.16172084
233	0x3ed740fa	0.4204176
234	0xbdc11d76	-0.09429447
235	0x3a247fac	0.0006275128
236	0x3bfa936a	0.0076469677
237	0x3c716842	0.01473433
238	0x3cd57b76	0.026059847
239	0x3dd97d56	0.10619609
240	0x3cfe045c	0.031007938
241	0xbd89d559	-0.06730146
242	0x3dd4c4e0	0.103891134
243	0xbdfb7abe	-0.122792706
244	0x3eca17e6	0.39471358
245	0xbd5d127b	-0.053972702
246	0xbc84810e	-0.01617482
247	0xbe3050b4	-0.17218286
248	0xbc109d64	-0.008826587
249	0x3ca6def7	0.02036999
250	0xbbf41648	-0.007448945
251	0x3c604a94	0.013689656
252	0x3e1df942	0.15427116
253	0x3e5b17cf	0.21395801
254	0x3ea012d1	0.31264356
255	0x3cdb0ebc	0.026740424

linear1.bias f4 [32]
0	0x3c34371e	0.010999469
1	0xbc269716	-0.010167858
2	0x3bc54296	0.0060199006
3	0xbb8be5c5	-0.004269334
4	0xbc42fca1	-0.011901052
5	0x3bdcbbd2	0.006736257
6	0xbc31ac89	-0.010844358
7	0x3bd833fb	0.0065979934
8	0xbb831503	-0.0040003075
9	0x3c359e85	0.011085157
10	0xbb99d32c	-0.004694363
11	0x3a71cf39	0.0009224299
12	0xbbc13ff0	-0.0058975145
13	0x3c370fea	0.011173228
14	0xbc0f492e	-0.008745475
15	0x3c3192da	0.010838235
16	0x3bed560a	0.0072429227
17	0xbc3d1565	-0.011540745
18	0x3be75be3	0.0070605143
19	0x3c089d20	0.008338243
20	0x3be675b3	0.007033074
21	0x3bf35748	0.007426176
22	0x3b9bcaf5	0.004754419
23	0x3c3a9f4f	0.011390521
24	0x3c2a6b41	0.010401548
25	0xbc20508e	-0.009784831
26	0xbbd69b41	-0.0065492694
27	0xbc3786a7	-0.011201537
28	0xbc421f1a	-0.0118482355
29	0xbbd17ba5	-0.0063929134
30	0x3afe8285	0.001941756
31	0xbb9d8665	-0.004807281

linear1_bn.weight f4 [32]
0	0x3dff62a7	0.12469988
1	0x3d22c287	0.039736297
2	0x3d348d91	0.04408032
3	0x3d307772	0.043082662
4	0x3d6bf9a0	0.057611108
5	0x3d1a5b54	0.037684754
6	0x3d10a63b	0.03531478
7	0x3e109d01	0.14122392
8	0x3d951f8a	0.07281406
9	0x3da5542b	0.080726944
10	0x3d1fd607	0.03902247
11	0x3d0305e2	0.031988032
12	0x3ce54347	0.027986182
13	0x3d1d2dd7	0.038373794
14	0x3d2c3c12	0.042049475
15	0x3e1a6990	0.15079331
16	0x3d8f3cfd	0.069940545
17	0x3ddb28fa	0.10701175
18	0x3dfea658	0.12434071
19	0x3db297a1	0.08720327
20	0x3d9ec4ce	0.07752381
21	0x3d2cd43f	0.0421946
22	0x3da3e8be	0.080033764
23	0x3d01cc2f	0.031688865
24	0x3e2b85fc	0.1675033
25	0x3d2e890c	0.042611167
26	0x3d969564	0.07352713
27	0x3dce36fa	0.1006908
28	0x3d8405bb	0.064464055
29	0x3d1a5bf0	0.037685335
30	0x3dbf2d3c	0.093348
31	0x3d054aed	0.032542158

linear1_bn.bias f4 [32]
0	0xbd302052	-0.042999573
1	0x3cfb8d22	0.030706946
2	0x3d004570	0.03131622
3	0xbbca5cc6	-0.0061756102
4	0xbc84a7cd	-0.016193295
5	0x3cbfc8d1	0.023411186
6	0x3c89dfaf	0.016830293
7	0xbda4b9e2	-0.08043267
8	0xbcce4c22	-0.025182787
9	0xbd201c20	-0.039089322
10	0x3c9a42e3	0.018830722
11	0x3ccc78a0	0.024959862
12	0x3c7fb941	0.015608133
13	0x3d23eddf	0.040021773
14	0x3cc4691c	0.023975901
15	0xbd860933	-0.06544723
16	0xbc9b2f47	-0.018943442
17	0xbd1ad11b	-0.037797075
18	0xbda29f38	-0.07940525
19	0xbd0a511a	-0.03376875
20	0xbd2e16db	-0.042502265
21	0xbb905399	-0.004404497
22	0xbd6a99dd	-0.05727564
23	0x3d2a4e16	0.041578375
24	0xbdc129a1	-0.09431768
25	0x3ce20ef4	0.02759502
26	0xbd01f94c	-0.03173189
27	0xbd07523c	-0.03303741
28	0xbcde7813	-0.027156865
29	0x3d0294f4	0.031880334
30	0xbda291eb	-0.07937988
31	0x3cc76f62	0.024345104

linear1_bn.running_mean f4 [32]
0	0x40d18708	6.5477333
1	0xc0142975	-2.3150303
2	0xc026e065	-2.607446
3	0xc09a1ae1	-4.815781
4	0x3fba0912	1.4534018
5	0xbe884afc	-0.2661971
6	0x4069c198	3.652441
7	0x40ab310c	5.349737
8	0x40cd6843	6.4189773
9	0xc09df7e6	-4.936511
10	0xc14fd56f	-12.989608
11	0x3fce997a	1.6140587
12	0x40947c70	4.64019
13	0xc1043e75	-8.265248
14	0x411e1973	9.881213
15	0xc09d8b44	-4.92325
16	0x40e6ed10	7.2164383
17	0x4115bea9	9.359048
18	0xc029b660	-2.6517563
19	0xc14de6dc	-12.868862
20	0x4136abbd	11.416928
21	0x41350669	11.314065
22	0x41126ac8	9.15107
23	0xc1473f72	-12.45299
24	0x4085a7ff	4.1767573
25	0x3f9264b2	1.143698
26	0xc11b7a12	-9.717302
27	0xc1598e08	-13.597176
28	0xc1070aae	-8.440107
29	0x3f189f10	0.5961771
30	0x3f02494d	0.508931
31	0xc1196bfd	-9.588864

linear1_bn.running_var f4 [32]
0	0x43a338cd	326.44376
1	0x42560185	53.501484
2	0x42b87395	92.225746
3	0x423c7c27	47.121243
4	0x427ce8b8	63.227264
5	0x427d09a1	63.259403
6	0x4215aea4	37.420547
7	0x43814f61	258.62015
8	0x42915444	72.66458
9	0x4332d926	178.84824
10	0x4266d70e	57.710014
11	0x42161948	37.52469
12	0x41f0cc5b	30.099783
13	0x424a8820	50.632935
14	0x425fb6ee	55.928642
15	0x43dc472d	440.55606
16	0x42ab4684	85.637726
17	0x42e461e0	114.19116
18	0x43449d25	196.61385
19	0x42828656	65.262375
20	0x42d40b12	106.02162
21	0x423e7d46	47.622337
22	0x42cb5c2f	101.680046
23	0x422b3bcb	42.80839
24	0x438a68f8	276.82007
25	0x4292d540	73.416504
26	0x42633ded	56.810474
27	0x43725022	242.31302
28	0x42c5ece0	98.96265
29	0x428f9065	71.78202
30	0x4317236b	151.13835
31	0x42698fb3	58.39033

linear2.weight f4 [39, 39]
0	0xbe9fc970	-0.31208372
1	0xbf6d31e7	-0.9265427
2	0xbf3e1610	-0.74252415
3	0xbdfd7e80	-0.123776436
4	0xbf877bc2	-1.0584643
5	0x3e643ca9	0.22288765
6	0xbdbb9dbe	-0.09160946
7	0x3d9e533b	0.07730719
8	0xbe197f38	-0.14989936
9	0xbebe0fdf	-0.37121484
10	0xbf1dc03c	-0.6162145
11	0xbdc8857c	-0.09791085
12	0xbdf7ec62	-0.12105633
13	0xbf0d86bd	-0.5528372
14	0xbe95e590	-0.29276705
15	0xbf20f0f8	-0.6286769
16	0xbe0c9c96	-0.13731608
17	0x3e3a11bd	0.18170829
18	0xbf027634	-0.50961614
19	0xbd7681cd	-0.06018238
20	0xbda7ac36	-0.081871435
21	0x3da44ace	0.0802208
22	0xbe968705	-0.29399887
23	0x3b7c7aca	0.0038525336
24	0x3e49798c	0.19675273
25	0xbb109181	-0.0022059383
26	0xbf14987e	-0.58045185
27	0xbf31b668	-0.69418955
28	0xbe643e62	-0.22289422
29	0xbea4bb76	-0.3217427
30	0xbed4a510	-0.41532183
31	0xbf0cb450	-0.54962635
32	0x3e160e74	0.14653951
33	0xbdf95f78	-0.12176412
34	0x3dc7bca2	0.09752776
35	0xbea16ca1	-0.3152819
36	0xbe0b4663	-0.13601069
37	0x3d1a8602	0.037725456
38	0x3d72f182	0.05931235
39	0x3e0be0b6	0.13659939
40	0x3c8b8ec5	0.017035851
41	0xbdbe210e	-0.092836484
42	0xbcc03855	-0.023464361
43	0xbd96a2d9	-0.073552795
44	0xbd68e494	-0.056858614
45	0xbcabdf0f	-0.020980386
46	0x3d74f30d	0.059802104
47	0xbe0f4e73	-0.1399477
48	0x3cb0514a	0.021523137
49	0x3e8db917	0.27680275
50	0x3d6c7566	0.057729147
51	0xbd31fe55	-0.04345544
52	0xbe8fdb3c	-0.2809695
53	0xbe3f64cf	-0.18690799
54	0xbe082313	-0.1329463
55	0x3ea3538b	0.31899676
56	0x3d638bfb	0.055553418
57	0xbd8c1fac	-0.068419784
58	0x3d06b2e6	0.032885455
59	0x3d250fa3	0.040298115
60	0xbdc7d3f3	-0.09757223
61	0xbe05321a	-0.13007393
62	0xbe6996ed	-0.2281148
63	0x3dc4f6ca	0.09617384
64	0x3dbc7e67	0.09203797
65	0xbcc5de01	-0.024153711
66	0x3e84d9df	0.25947472
67	0x3e0046fc	0.12527078
68	0xbf24a7de	-0.64318645
69	0xbd16fecd	-0.03686409
70	0x3e1ef1fa	0.15521994
71	0xbe016280	-0.12635231
72	0xbceea157	-0.029129667
73	0xbde92f56	-0.11385982
74	0x3eb1e1b0	0.34742498
75	0xbba51db3	-0.005038941
76	0x3e7889a3	0.24271254
77	0xbe27c8cf	-0.16385196
78	0x3ec14574	0.377483
79	0x3d9f57a3	0.07780387
80	0xbfaada7a	-1.3347924
81	0x3d6cd5fe	0.057821266
82	0x3d039933	0.032128524
83	0x3e79b081	0.24383737
84	0xbe4bb674	-0.19893819
85	0xbe522d25	-0.20525034
86	0xbeba52ec	-0.3639139
87	0xbf5d924d	-0.8655136
88	0xbee28299	-0.44240263
89	0xbe97c8cb	-0.2964538
90	0xbe41c153	-0.18921404
91	0xbe96cbd3	-0.2945238
92	0xbf7ca3f1	-0.98687655
93	0xbf6f03eb	-0.93365353
94	0xbec2512f	-0.37952563
95	0xbc83a348	-0.01606907
96	0x3c9cc34b	0.019136092
97	0x3d982893	0.07429614
98	0xbea489b7	-0.32136318
99	0xbc61cddb	-0.01378199
100	0xbe124a05	-0.14286049
101	0xbe2adb02	-0.16685107
102	0x3de92b53	0.113852166
103	0x3c94a0c1	0.01814306
104	0x3d8058f0	0.062669635
105	0xbd5c9c8d	-0.053860236
106	0xbc0b2e6c	-0.008494955
107	0xbea2c086	-0.3178751
108	0x3e4842fd	0.19556804
109	0xbf3cf3af	-0.7380933
110	0x3cc7b51f	0.024378357
111	0xbc83a5a9	-0.016070204
112	0x3e3e87bd	0.18606468
113	0xbe0c74a4	-0.1371637
114	0xbed270bf	-0.41101643
115	0x3e8a4bef	0.27011058
116	0x3e155676	0.14583763
117	0x3e0c0327	0.13673078
118	0xbd6a121a	-0.05714617
119	0x3e2c8163	0.16846232
120	0xbdcc6af6	-0.09981339
121	0xbdfa8a6f	-0.12233435
122	0x3e345e9a	0.17614213
123	0xbe1a3b21	-0.15061618
124	0xbd9ac779	-0.07557578
125	0x3b820785	0.0039681816
126	0x3d0546b4	0.03253813
127	0x3d31a35a	0.043368675
128	0xbdaa4870	-0.083145976
129	0x3d530dab	0.051526707
130	0xbe19b42c	-0.15010136
131	0xbdcd76dc	-0.10032436
132	0xbe054d08	-0.13017666
133	0xbe1b1bff	-0.15147398
134	0x3cfdffbe	0.031005736
135	0x3d6d80b2	0.05798406
136	0xbe20a7cc	-0.1568901
137	0xbe3731dd	-0.17890115
138	0x3af96566	0.0019027411
139	0x3c58cf74	0.013233054
140	0x3dbe669e	0.092969164
141	0x3d9f3982	0.077746406
142	0xbd9b5174	-0.07583895
143	0xbc89c01c	-0.016815238
144	0x3d448db3	0.047986697
145	0x3d77e77e	0.060523503
146	0xbde2aaa2	-0.11067702
147	0x3e29cb23	0.16581397
148	0x3dbbd69d	0.091717936
149	0x3dfbbf6a	0.12292369
150	0x3d71cac0	0.059031248
151	0x3dae5b67	0.08513527
152	0xbe235d97	-0.1595367
153	0x3e663268	0.22480166
154	0x3e205e60	0.15661001
155	0x3decfa29	0.11571152
156	0xbe4a1a19	-0.19736518
157	0xbac67b75	-0.0015142994
158	0xbe0310b1	-0.12799336
159	0xbdc0b02e	-0.094086036
160	0xb9fce024	-0.00048232183
161	0xbcd363fe	-0.025804516
162	0x3d83f325	0.064428605
163	0x3d25c4fe	0.04047107
164	0xbd54acb0	-0.0519225
165	0x3d2a4628	0.041570812
166	0xbe2ac1ae	-0.16675445
167	0x3c939fe2	0.018020574
168	0xbdb78d0c	-0.089624494
169	0xbc9eb414	-0.019372977
170	0xbd214097	-0.03936824
171	0x3b174586	0.002308221
172	0xbd4b2090	-0.0495916
173	0xbcae88a5	-0.021305392
174	0xbcc5f843	-0.024166232
175	0xbd0b78e0	-0.034050822
176	0xbdff97ec	-0.12480149
177	0xbe4ee521	-0.20204593
178	0x3c581e48	0.013190813
179	0xbd6e1949	-0.058129583
180	0x3ddec342	0.10877086
181	0x3dca90ca	0.098908976
182	0xbdb9e471	-0.09076775
183	0xbe195b18	-0.14976156
184	0x3e56e2d9	0.20984973
185	0xbe8b71c4	-0.27235234
186	0xbdc96e47	-0.09835487
187	0x3d90a8c7	0.07063442
188	0x3d21f3a4	0.039538994
189	0xbe0baf18	-0.13641012
190	0xbdbd85d1	-0.09254039
191	0xbe9607e6	-0.293029
192	0x3e7302c3	0.23731522
193	0x3e9d2a5d	0.30696383
194	0xbc904c51	-0.017614515
195	0x3ba0b395	0.0049042203
196	0x3d112240	0.035433054
197	0xbc81a45a	-0.01582544
198	0xbd281dce	-0.04104405
199	0xbd7a2311	-0.0610686
200	0x3c9d9301	0.019235136
201	0xbdeaa708	-0.1145764
202	0xbc522990	-0.012827292
203	0x3df8330c	0.121191114
204	0x3d0a5c48	0.033779413
205	0xba1bec47	-0.0005947989
206	0x3e009d58	0.12560022
207	0xbd9f3885	-0.07774452
208	0xbbfa54f0	-0.00763952
209	0xbccd6e57	-0.025077028
210	0xbd8b89c6	-0.068133876
211	0xbd897bcb	-0.06713065
212	0xbc05f112	-0.008175151
213	0xbce90568	-0.02844496
214	0x3d2c2301	0.04202557
215	0xbba8f75d	-0.005156441
216	0xbc98a4bb	-0.018633237
217	0x3de6e1bf	0.112735264
218	0xbcec073b	-0.028812042
219	0x3d8d6ce8	0.06905538
220	0xbd697a33	-0.057001304
221	0x3cc7474d	0.024325991
222	0x3c00f47f	0.007870792
223	0x3cae271e	0.021258887
224	0xbe0746fd	-0.13210674
225	0x3c987ef2	0.01861522
226	0x3c92dd01	0.017927648
227	0xbdb98baa	-0.09059842
228	0x3d197e9f	0.03747427
229	0x3dde84fc	0.108652085
230	0x3e6ec5d8	0.23317659
231	0xbc8d1c33	-0.01722536
232	0xbd8d84e9	-0.06910116
233	0xbe513ff7	-0.20434557
234	0xbda7cf1a	-0.08193798
235	0xbf0bb8b2	-0.545787
236	0x3e8f8e97	0.28038475
237	0x3d91cf59	0.071196266
238	0xbe9285f9	-0.28617838
239	0xbdf1c332	-0.11804809
240	0xbda91d18	-0.08257502
241	0xbd95971b	-0.07304212
242	0xbc206984	-0.009790782
243	0x3b6353c5	0.0034687382
244	0x3e336d6e	0.17522213
245	0xbe1f686f	-0.15567182
246	0xbc3b06b3	-0.011415171
247	0xbe370045	-0.17871197
248	0xbd8d6dc4	-0.06905702
249	0xbdcd4ead	-0.10024772
250	0xbe52c931	-0.20584561
251	0xbcc62796	-0.024188798
252	0xbe6b8bb5	-0.23002513
253	0xbdcfd157	-0.1014735
254	0xbdaa5473	-0.08316889
255	0x3e7171be	0.23578545
